Models/LSTM testing (Oct-Dec)/lstm_velocity_short(19.11).pth (torch, 583810 bytes, 25 tensors)

weight_ih_l0 f4 [200, 2]
0	0x3f1ec7ab	0.6202342
1	0x3e1c2adf	0.15250729
2	0x3ef9719e	0.48719496
3	0xbf380658	-0.7188468
4	0x3f0bd74f	0.5462541
5	0x3e104ce4	0.14091831
6	0xbed18dd2	-0.40928513
7	0xbe3e5c41	-0.1858988
8	0x3dd39f57	0.10333126
9	0xbd974e52	-0.07387985
10	0x3e834d69	0.25644997
11	0x3df9abac	0.12190947
12	0x3db63689	0.088971205
13	0xbdb5c0b0	-0.08874643
14	0xbe15fe5e	-0.14647815
15	0xbf192fd0	-0.5983858
16	0x3f078a2b	0.529452
17	0x3bae06e1	0.0053108786
18	0x3e8be74d	0.27324906
19	0x3dbc1fef	0.09185778
20	0x3e154edc	0.14580864
21	0xbefb89be	-0.49128526
22	0x3efc0d9d	0.49229136
23	0x3e6c5cf2	0.23082331
24	0xbd450209	-0.048097644
25	0xbe7a737d	-0.24458118
26	0x3e9815a8	0.29704022
27	0xbdcc574d	-0.09977589
28	0xbe9aed2e	-0.3025908
29	0xbecd04cc	-0.40042722
30	0x3e48698c	0.19571513
31	0xbeeaeeab	-0.45885214
32	0x3ed169bb	0.40900978
33	0x3de2f786	0.110823676
34	0xbd2fa105	-0.04287817
35	0xbe61f8f0	-0.22067618
36	0x3f28d382	0.65947735
37	0x3da873d8	0.082252204
38	0x3ebf240a	0.37332183
39	0x3e8dc9f0	0.2769313
40	0xbedafbc2	-0.427702
41	0x3d55458c	0.05206828
42	0xbf1a2bc5	-0.60223037
43	0xbe9f2e25	-0.31089893
44	0x3e71ef83	0.23626523
45	0x3bb84394	0.0056232903
46	0x3f493a43	0.78604525
47	0xbda7f717	-0.082014255
48	0x3f253e0f	0.6454782
49	0xbf90a523	-1.1300396
50	0x3ef46b62	0.47738177
51	0x3c9734d5	0.01845781
52	0xbf232cb0	-0.6374006
53	0xbec6213a	-0.38697225
54	0x3ee4ed7a	0.4471243
55	0x3db38146	0.08764891
56	0x3ed63c1e	0.4184274
57	0xbd093e03	-0.033506405
58	0x3dc485d9	0.09595842
59	0x3ef32146	0.47486323
60	0x3f6193ff	0.8811645
61	0xbef8e6e3	-0.48613653
62	0x3e969d6a	0.29416972
63	0xbf5e1c25	-0.86761695
64	0x3eed10c2	0.46301848
65	0x3d8cdd94	0.068782
66	0x3ec55af8	0.38545966
67	0xbe27c257	-0.16382729
68	0x3f91364f	1.1344699
69	0xbe2e94b1	-0.17048909
70	0xbd4cdf48	-0.050017625
71	0x3c38aa9c	0.011271145
72	0x3dbf6443	0.09345295
73	0xbe67e66e	-0.22646496
74	0x3f5ac967	0.85463566
75	0xbe7ea0d7	-0.24866043
76	0x3f81c99d	1.0139652
77	0xbf4b9246	-0.7952007
78	0xbf0a1eea	-0.5395342
79	0xbeb66cc3	-0.35629854
80	0xbd53d7b4	-0.051719382
81	0xbecc237e	-0.39870828
82	0x3ee7f410	0.45303392
83	0x3ebbb6b8	0.3666284
84	0x3e5ab842	0.21359351
85	0xbe642760	-0.22280645
86	0x3f352d75	0.70772487
87	0xbea82315	-0.32839265
88	0x3f2a2acd	0.6647156
89	0xbe00ea21	-0.12589313
90	0x3f4ea6d2	0.807233
91	0xbe6aec68	-0.22941744
92	0x3f389202	0.7209779
93	0x3ec34afa	0.3814314
94	0x3e9d2e9a	0.30699617
95	0x3e0bd03a	0.13653651
96	0x3e32fd66	0.17479476
97	0xbf0623e8	-0.5239854
98	0x3f0b0a7d	0.5431288
99	0x3e93ac7d	0.28842536
100	0x3f7846b9	0.96982914
101	0x3dd614e9	0.10453207
102	0x3edfb341	0.43691447
103	0xbecd68f5	-0.40119138
104	0x3f4b4d2c	0.7941463
105	0x3ad942ba	0.0016575672
106	0xbe743961	-0.23850013
107	0xbe46f9f4	-0.19431287
108	0x3e94e386	0.29079837
109	0x3ebee6e9	0.37285545
110	0x3f1723a7	0.59038776
111	0x3d2ff0a4	0.042954102
112	0x3ed93a06	0.4242708
113	0xbc0337b2	-0.008008884
114	0xbe69b8e2	-0.22824433
115	0xbeb4965a	-0.3527096
116	0x3f003573	0.5008156
117	0x3c405d6b	0.011741023
118	0x3f30bba7	0.69036335
119	0x3e1163cf	0.1419823
120	0x3de71085	0.11282448
121	0xbf33f43d	-0.70294553
122	0x3f0ddd13	0.5541546
123	0x3e9220a0	0.28540516
124	0xbee0f6ca	-0.43938285
125	0xbd65ac9c	-0.056072816
126	0x3dea7bc0	0.11449385
127	0x3cb6ced4	0.02231542
128	0xbe880ec2	-0.2657376
129	0xbec42ac5	-0.3831388
130	0x3ed71fc1	0.42016414
131	0xbe100af8	-0.14066684
132	0x3ed1bc46	0.40963954
133	0x3e2a8607	0.1665269
134	0xbe4afff8	-0.19824207
135	0xbecf9e86	-0.4055063
136	0x3ed20486	0.41019076
137	0x3e1a212a	0.15051714
138	0x3e4fae3c	0.20281309
139	0x3ed108d0	0.40827036
140	0xbe958f6b	-0.29210982
141	0xbe304edf	-0.17217587
142	0xbeeeb96f	-0.4662585
143	0xbe80ca17	-0.25154182
144	0x3f1487fb	0.5801999
145	0x3e67497c	0.22586626
146	0x3f60af53	0.87767524
147	0xbe0c50c6	-0.13702688
148	0x3d7d2c2b	0.0618097
149	0xbf0a6a1c	-0.5406816
150	0x3f1b61ca	0.6069609
151	0xbc47cf37	-0.0121954
152	0xbf2cdf0e	-0.67527854
153	0xbecee176	-0.40406388
154	0x3f2b7c26	0.6698631
155	0xbd9c7ab1	-0.07640589
156	0x3f1338ca	0.5750853
157	0x3db6a271	0.08917702
158	0x3b58cd46	0.0033081337
159	0x3eebeb34	0.46077883
160	0x3f78b1fd	0.9714659
161	0xbe62d3c5	-0.22151096
162	0x3e1d1a9e	0.15342185
163	0xbf155482	-0.58332074
164	0x3f033bcf	0.51263136
165	0x3e098155	0.13428243
166	0x3f34ff6f	0.7070226
167	0xbeb1e721	-0.3474665
168	0x3f94feba	1.1640236
169	0xbe1ed9bf	-0.15512751
170	0x3bb3adcd	0.005483365
171	0x3e6586fc	0.22414774
172	0xbe3c3461	-0.18379356
173	0xbe8d4e92	-0.27599007
174	0x3f581552	0.8440753
175	0xbeef7e75	-0.46776167
176	0x3f347731	0.7049437
177	0xbf1a6f48	-0.6032605
178	0xbeac46d6	-0.33647794
179	0xbea51ded	-0.32249394
180	0x3e87e506	0.2654192
181	0xbcfa5127	-0.030556275
182	0x3f06ca72	0.5265266
183	0x3ed1213a	0.40845662
184	0x3e0dca68	0.13846743
185	0xbe5cfd5a	-0.21581021
186	0x3f5db397	0.8660216
187	0xbe06dcfe	-0.1317024
188	0x3f5d998c	0.8656242
189	0xbe000e09	-0.12505354
190	0x3f6ad723	0.9173452
191	0xbe96484b	-0.2935203
192	0x3f288efe	0.6584319
193	0x3e03a704	0.1285668
194	0x3f0836c4	0.53208566
195	0x3d69c7e5	0.0570754
196	0xbd7b1b53	-0.061305355
197	0xbe2a6f5e	-0.16644046
198	0x3f08dfe8	0.53466654
199	0x3e210632	0.1572502
200	0x3f85ab5f	1.0442923
201	0x3e632799	0.22183074
202	0xbf7216c2	-0.94565976
203	0x3f2f1874	0.6839669
204	0x3f814c68	1.0101442
205	0x3e79d35b	0.24397032
206	0x3f3049f7	0.6886286
207	0x3dfa954e	0.12235509
208	0xbf8fd5f0	-1.1237164
209	0xbe4c043a	-0.19923487
210	0x3f4bf5b7	0.79671806
211	0x3e94bca1	0.29050162
212	0xbf620af7	-0.8829798
213	0xbe9fd5b1	-0.3121772
214	0xbeea13e1	-0.4571829
215	0xbeff8a0b	-0.49910006
216	0x3f5a53a1	0.8528386
217	0x3e0ebb60	0.13938665
218	0xbf3ab65f	-0.72934526
219	0xbe687122	-0.22699407
220	0x3d42b89f	0.04753935
221	0x3e5a4db5	0.21318705
222	0xbf42c4f7	-0.76081795
223	0xbec7ee1b	-0.39048848
224	0xbe37d9b2	-0.17954138
225	0xbf2ee08f	-0.683114
226	0xbcac4c8f	-0.0210326
227	0x3ef80831	0.4844375
228	0xbf31cfbc	-0.694576
229	0xbe92d3bc	-0.28677166
230	0xbf14fb1c	-0.5819566
231	0xbeeb1aa2	-0.45918757
232	0x3eb382fb	0.35060868
233	0x3eae7c36	0.3407914
234	0xbede9196	-0.43470448
235	0xbcce5c61	-0.025190534
236	0xbef9fdc8	-0.48826432
237	0xbd9af047	-0.075653605
238	0x3ecf94f7	0.4054334
239	0x3ea85c72	0.3288303
240	0xbf886b4f	-1.0657748
241	0xbda48eaf	-0.08035027
242	0x3f371495	0.7151578
243	0x3ea5e25b	0.32399258
244	0x3f587d48	0.84566164
245	0x3e43d23e	0.1912317
246	0xbf7a64ba	-0.97809947
247	0x3d51cd7c	0.051221356
248	0x3efb6c9b	0.49106297
249	0xbf8ed57d	-1.1158901
250	0xbf60166b	-0.8753421
251	0xbe8b8552	-0.27250153
252	0x3eeaa2ed	0.45827428
253	0x3ec02d5c	0.37534606
254	0xbf36148f	-0.7112512
255	0xbdff4a40	-0.12465334

weight_hh_l0 f4 [200, 50]
0	0x3d30e3b3	0.0431859
1	0xbe0b47f5	-0.13601668
2	0x3db4aae4	0.08821657
3	0xbd9e015e	-0.077151045
4	0xbde2779b	-0.11057969
5	0x3e2256bb	0.15853398
6	0xbdd92fe5	-0.10604838
7	0xbde57837	-0.1120457
8	0xbd59cbe8	-0.053172976
9	0x3d19edb6	0.037580214
10	0xbe47219a	-0.19446412
11	0x3db8fb55	0.09032313
12	0xbc1bf357	-0.009518466
13	0xbdc27097	-0.09494131
14	0x3e2100fa	0.15723029
15	0xbd935ef4	-0.07195845
16	0x3c0dedec	0.008662682
17	0x3c5725c6	0.0131315645
18	0xbd500660	-0.05078733
19	0xbc7edac0	-0.015555084
20	0xbdd325b2	-0.10309924
21	0xbdec50f4	-0.11538878
22	0xbd6ce012	-0.057830878
23	0xbc710a54	-0.014711935
24	0x3d9d53f9	0.07682032
25	0xbd8d310a	-0.06894119
26	0x3daa7b84	0.0832434
27	0x3d938423	0.072029375
28	0x3e394e03	0.18096165
29	0xbc7c4d54	-0.015399296
30	0xbdc07f80	-0.09399319
31	0x3df4c269	0.11951143
32	0x3d2258b9	0.039635394
33	0x3def613e	0.11688469
34	0x3e0bbd4b	0.13646428
35	0x3d61a63e	0.05509018
36	0x3d85360e	0.06504451
37	0xbde5972e	-0.11210476
38	0x3e01d4ef	0.12678884
39	0xbe0d8d74	-0.13823491
40	0x3d859dd8	0.06524247
41	0x3e138c86	0.14409074
42	0x3d5a9284	0.053362384
43	0xbe195311	-0.14973094
44	0x3d380cca	0.04493407
45	0xbe2f44ff	-0.17116164
46	0xbe2b5e36	-0.16735157
47	0x3a42d498	0.00074321916
48	0x3d56de4d	0.052458096
49	0xbdcac529	-0.099008866
50	0x3e960e03	0.29307565
51	0xbe38d638	-0.18050468
52	0x3e89455c	0.2681073
53	0xbe325eb6	-0.17418942
54	0xbea13987	-0.31489202
55	0x3d493f9a	0.04913292
56	0xbea4a0e3	-0.32153997
57	0x3c942c1f	0.018087445
58	0x3e81882a	0.25299197
59	0xbee99cb1	-0.4562736
60	0xbea549dd	-0.32282916
61	0xbe88d9ca	-0.2672866
62	0x3dd39bea	0.103324726
63	0x3df10c68	0.117699444
64	0x3f029501	0.5100861
65	0xbe9c1161	-0.3048201
66	0x3e7f272c	0.24917287
67	0x3d8a17ab	0.067427956
68	0xbecd4dce	-0.40098423
69	0x3d0b4303	0.033999454
70	0x3de888c2	0.113542095
71	0xbe7baf06	-0.24578485
72	0x3e3e2c43	0.18571572
73	0xbe79c7e7	-0.24392663
74	0x3e0c2ab7	0.1368817
75	0xbe38b9f8	-0.18039691
76	0xbd32922b	-0.043596428
77	0xbe5e4909	-0.21707548
78	0x3e90e730	0.28301382
79	0x3eb5f4b6	0.35538262
80	0xbef5a535	-0.47977605
81	0x3e5fda49	0.21860613
82	0x3e54206d	0.20715494
83	0x3ed15aeb	0.40889677
84	0x3e6f2dda	0.23357335
85	0xbdc49894	-0.095994145
86	0xbe863520	-0.26212406
87	0x3e49a400	0.19691467
88	0x3e4d2f52	0.20037583
89	0x3eaa1803	0.33221444
90	0xbe8e6787	-0.2781336
91	0x3e955994	0.29169905
92	0xbeb93f85	-0.36181274
93	0xbef4d5f2	-0.47819477
94	0x3e802729	0.25029877
95	0xbebe8d5f	-0.37217233
96	0x3bbee996	0.0058261855
97	0xbe1d59e2	-0.15366319
98	0x3eb0cfaf	0.3453345
99	0x3eee736e	0.4657244
100	0xbd996936	-0.074907705
101	0x3d93b018	0.072113216
102	0x3d795326	0.060870312
103	0x3ddcfeeb	0.10790809
104	0xbd2e3773	-0.04253335
105	0x3e2a5fa7	0.16638051
106	0xbe2202c4	-0.15821368
107	0x3dbea5d8	0.09308976
108	0xbd629ee7	-0.055327322
109	0x3d3d5bc7	0.046230104
110	0xbe44f53c	-0.19234174
111	0xbdd895de	-0.1057546
112	0xbddf0b04	-0.10890773
113	0xbd9717cc	-0.07377586
114	0xbd50b711	-0.050955836
115	0x3c8ccc38	0.017187223
116	0xbddb6edb	-0.107145034
117	0x3c78a644	0.01517636
118	0x3d95abdc	0.0730817
119	0x3df483df	0.11939215
120	0xbd1562bf	-0.036471125
121	0xbd1c3fc0	-0.038146734
122	0x3de81e2d	0.113338806
123	0xbe15eb25	-0.14640482
124	0xbd83e971	-0.0644101
125	0x3d275654	0.040853813
126	0xbd1dd6fd	-0.038535107
127	0xbdc45cd9	-0.09588022
128	0x3d25ab08	0.04044631
129	0xbddd60bb	-0.108094655
130	0xbdfe4796	-0.12415998
131	0x3be8e1a4	0.0071069766
132	0xbdc2cb84	-0.09511474
133	0x3dcb0538	0.09913105
134	0x3dc6f954	0.09715524
135	0xbd07e6de	-0.033179156
136	0xbde2e44a	-0.11078699
137	0xbddf0eef	-0.1089152
138	0xbb811860	-0.0039396733
139	0x3beecdd3	0.0072877198
140	0x3d7e40e3	0.0620736
141	0xbdb23527	-0.08701544
142	0xbd989808	-0.07450873
143	0x3d8da2c5	0.069158114
144	0x3d8a17a6	0.06742792
145	0xbe0ca306	-0.13734064
146	0xbdad9b95	-0.084769405
147	0xbe4280a2	-0.18994382
148	0x3dcd80dc	0.100343436
149	0xbe03c55d	-0.12868257
150	0xbd3cc5a4	-0.046086922
151	0xbb90dae9	-0.0044206274
152	0xbc31d169	-0.01085315
153	0x3d855509	0.0651036
154	0xbd87a19d	-0.06622622
155	0xbe465a24	-0.19370323
156	0x3db35f79	0.08758444
157	0xbd118335	-0.03552552
158	0xbdf8cd81	-0.12148572
159	0xbdd1ceb9	-0.10244507
160	0xbd65539c	-0.05598794
161	0xbd2998a5	-0.04140534
162	0x3c90662b	0.017626842
163	0x3cefd307	0.02927543
164	0x3c7e28ad	0.015512628
165	0x3e2527e8	0.16128504
166	0x3e131fdf	0.14367627
167	0x3e0ad2ec	0.13557023
168	0x3ba325bd	0.004978864
169	0x3d72220a	0.059114493
170	0x3d4913f7	0.049091306
171	0x3e0b16fd	0.13582988
172	0xbe6a9236	-0.22907338
173	0x3d5291f0	0.051408708
174	0xbca80652	-0.020510826
175	0x3e237ca7	0.1596552
176	0x3d83aaab	0.06429037
177	0x3d89161f	0.066936724
178	0xbe0d7234	-0.13813096
179	0xbd74c33c	-0.059756503
180	0xbe1eb560	-0.15498877
181	0xbc3d48ad	-0.011552972
182	0x3d5b40f7	0.053528752
183	0x3afa8718	0.0019113747
184	0x3c3cc0d5	0.011520584
185	0xbce93463	-0.028467363
186	0xbca2dbb5	-0.019880155
187	0x3b2a6fc8	0.0026006568
188	0xbde59609	-0.112102576
189	0x3c03bc09	0.008040437
190	0x3d9d4298	0.076787174
191	0x3bd8590f	0.0066024135
192	0xbe34a55b	-0.17641203
193	0xbdd6d8eb	-0.104905926
194	0x3d9a44d3	0.075326584
195	0xbce53d68	-0.027983382
196	0xbe4365be	-0.1908178
197	0x3d1efcff	0.038815495
198	0xbd5cf2db	-0.053942543
199	0xbbec8257	-0.007217686
200	0x3dac05b8	0.08399528
201	0xbedd3d11	-0.43210652
202	0x3e6d2f8a	0.23162666
203	0x3d379817	0.04482278
204	0x3e23a9c0	0.15982723
205	0x3e82d1aa	0.25550586
206	0xbe4f2131	-0.20227505
207	0x3eb961f4	0.36207545
208	0x3ea49428	0.32144284
209	0xbe85594c	-0.2604469
210	0x3eb469dc	0.35237014
211	0xbd9ba104	-0.07599071
212	0x3e87be73	0.2651249
213	0xbe3314b5	-0.17488368
214	0x3d967645	0.07346777
215	0xbe028e55	-0.12749608
216	0x3e91bbf8	0.2846372
217	0xbeb5f47f	-0.35538098
218	0xbd9f5f8f	-0.07781898
219	0xbdf845ac	-0.12122664
220	0xbe2f9b1f	-0.17149018
221	0xbf17137a	-0.59014094
222	0x3e8550d3	0.26038226
223	0xbe236762	-0.15957406
224	0x3e8fd908	0.2809527
225	0xbe882b0f	-0.2659535
226	0x3d969482	0.07352544
227	0xbe9adc69	-0.30246285
228	0x3cbc6623	0.022997921
229	0x3d77e6ff	0.06052303
230	0xbd9daa52	-0.07698502
231	0x3e1bd144	0.15216547
232	0x3b0fcde3	0.0021942786
233	0x3df1c82d	0.118057586
234	0x3eab31fe	0.3343658
235	0xbcaa747d	-0.020807499
236	0x3ecf61f9	0.40504435
237	0x3ed4f904	0.41596234
238	0x3e5b6885	0.2142659
239	0xbe00b8e2	-0.12570527
240	0x3d47a07e	0.04873704
241	0x3c808f43	0.015693313
242	0x3e5c9f5a	0.21545163
243	0xbe727c12	-0.23680142
244	0x3dc6dda7	0.097102456
245	0xbd9104bc	-0.07080981
246	0xbe957ff1	-0.29199174
247	0xbd5a899e	-0.0533539
248	0x3e205193	0.15656118
249	0x3e74a27a	0.23890105
250	0x3db064cc	0.086129755
251	0xbe25b01d	-0.16180463
252	0xbd0d8d1e	-0.034558408
253	0xbe4d1180	-0.20026207
254	0xbb002d2f	-0.0019558182
255	0x3e018dc5	0.12651737

bias_ih_l0 f4 [200]
0	0x3e227df7	0.15868364
1	0x3e9feb54	0.3123423
2	0x3df15599	0.117839046
3	0x3d7bbf72	0.061461873
4	0x3e0af0da	0.1356844
5	0xbd33020e	-0.04370313
6	0x3d0a7ef0	0.033812463
7	0x3e32e9c2	0.17471984
8	0x3e05bef5	0.13061126
9	0x3d3f0b7d	0.046641815
10	0x3db46ec8	0.08810192
11	0xbe21039b	-0.15724032
12	0xbd8c025c	-0.068363875
13	0xbc818eab	-0.0158151
14	0x3d9e0fd3	0.07717862
15	0x3e0f845f	0.1401534
16	0xbe11f554	-0.14253742
17	0x3b866931	0.0041018953
18	0xbc5463ff	-0.012963294
19	0x3d0ce2e3	0.034396064
20	0x3dd1faf3	0.10252943
21	0x3d2ff59b	0.042958837
22	0x3dcc637a	0.09979911
23	0x3de51848	0.11186272
24	0x3e1f07a4	0.15530258
25	0x3e371742	0.17879966
26	0xbd9d0ecc	-0.07668838
27	0x3d633d0f	0.055478152
28	0x3de3503d	0.110992886
29	0x3d819b50	0.06328452
30	0x3d865068	0.06558305
31	0x3e18a20a	0.14905563
32	0x3ddf6ffe	0.10910033
33	0x3c6755a3	0.0141195385
34	0x3aaac11a	0.001302752
35	0x3e2d8f62	0.16949227
36	0x3ded87d4	0.11598173
37	0x3b87c2ef	0.004143111
38	0x3e318b41	0.17338277
39	0xbc3a1813	-0.011358279
40	0xbda5c941	-0.08095027
41	0xbd92a877	-0.07161038
42	0x3dbeb59f	0.09311985
43	0x3e26878b	0.16262643
44	0xbde1ec31	-0.11031378
45	0x3e05c901	0.13064958
46	0x3e79075e	0.24319217
47	0x3dfb9d94	0.12285915
48	0x3d83e45c	0.064400405
49	0xbe08ef10	-0.13372445
50	0x3e120dce	0.14263079
51	0x3e750379	0.23927106
52	0xbe07c507	-0.13258754
53	0xbd2eb88e	-0.042656474
54	0xbc424f04	-0.011859659
55	0xbd39ce9e	-0.04536306
56	0x3dc45ee6	0.09588413
57	0xbde67480	-0.11252689
58	0xbd380482	-0.044926174
59	0x3a69d668	0.00089201936
60	0x3e1f7aa4	0.15574127
61	0x3d41daac	0.047327682
62	0x3dd47cc2	0.10375358
63	0xbe066429	-0.13124146
64	0x3ceaca48	0.028660908
65	0x3d97c90a	0.07411392
66	0x3d68720c	0.05674939
67	0x3daaf59b	0.08347627
68	0xbb5ec43d	-0.003399148
69	0xbd86b9bf	-0.06578397
70	0x3de9a433	0.11408272
71	0xbca959b6	-0.02067266
72	0x3d9a8d87	0.075465254
73	0xbde37dd9	-0.11107988
74	0x3e3fb03f	0.18719576
75	0x3d8cdfae	0.06878601
76	0x3d1473c8	0.03624323
77	0x3dbb97e5	0.09159831
78	0x3e3c7c6d	0.1840684
79	0xbdca945f	-0.09891581
80	0x3e1e6073	0.1546648
81	0x3e64d32e	0.22346184
82	0xbdbd3f7b	-0.092406236
83	0xbd567a65	-0.05236282
84	0xbd4ff8b8	-0.050774306
85	0xbbb2d68b	-0.0054577044
86	0xbe0d913a	-0.13824931
87	0x3cc940a4	0.024566956
88	0x3817658f	3.609579e-05
89	0x3dbd26e8	0.092359364
90	0xbbd7d75d	-0.0065869526
91	0x3d9bc81d	0.07606528
92	0xbe07b892	-0.13254002
93	0xbd2519c7	-0.040307786
94	0xbdd90460	-0.105965376
95	0xbb8d48f2	-0.0043116743
96	0x3e25cc18	0.16191137
97	0x3deba743	0.11506512
98	0x3da7a608	0.08185965
99	0xbdf9f91a	-0.122057155
100	0x3d9f477f	0.07777309
101	0xbd371779	-0.04470012
102	0xbd7fe93e	-0.062478296
103	0xbaadaa30	-0.0013249572
104	0xbcef0534	-0.029177286
105	0xbca2b800	-0.019863129
106	0xbd14bcd8	-0.036312908
107	0x3d54750d	0.05186944
108	0x3d03da5c	0.032190666
109	0xbdcf61a3	-0.101260446
110	0xbddfb307	-0.10922819
111	0xbd5f4167	-0.054505732
112	0xbb047529	-0.0020211434
113	0xbbe2620d	-0.006908661
114	0x3d795bd1	0.06087858
115	0x3d94010f	0.072267644
116	0x3de7d2b8	0.11319488
117	0x3ccf5553	0.02530924
118	0x3d9e50e1	0.0773027
119	0x3da32eab	0.079678856
120	0x3de69cfa	0.1126041
121	0xbde01a31	-0.109424956
122	0x3d623054	0.05522187
123	0x3d832616	0.06403749
124	0x3dbb9c02	0.091606155
125	0xbde7a881	-0.113114364
126	0xbd9760a1	-0.073914774
127	0xbd2ee50d	-0.04269891
128	0xbd60d2b8	-0.054888457
129	0x3da295e0	0.07938743
130	0xbd948eae	-0.072537765
131	0xbdee5eac	-0.11639151
132	0xbd63f1ad	-0.0556504
133	0x3d01f4e6	0.031727694
134	0xbc95b266	-0.018273544
135	0xbcaeb76b	-0.021327695
136	0xbd8b24f3	-0.06794157
137	0xbafbdab4	-0.0019214959
138	0x3d3a5c17	0.04549798
139	0xbc817537	-0.015802963
140	0x3d2e7c19	0.042598817
141	0x3dadd610	0.08488095
142	0x3d0018b2	0.03127355
143	0xbd8c1f4f	-0.06841909
144	0x3c93ebca	0.018056769
145	0xbd8f581c	-0.069992274
146	0xbdb2dff9	-0.08734126
147	0x3dce0981	0.100604065
148	0xbc87d338	-0.01658021
149	0x3d4814ca	0.04884795
150	0x3e132b12	0.14371899
151	0x3ec22a11	0.3792272
152	0x3b931686	0.004488769
153	0xbd8ac41a	-0.06775685
154	0x3e272365	0.16322096
155	0x3d356d1b	0.044293504
156	0x3e509007	0.20367442
157	0x3e61f10a	0.22064605
158	0x3c3c8743	0.011506858
159	0x3dce315e	0.1006801
160	0x3c401b2d	0.011725229
161	0xbdfa6332	-0.12225951
162	0x3de952b0	0.113927245
163	0xbdfc3b5d	-0.1231601
164	0x3cfc64b7	0.030809743
165	0x3d401d6e	0.046903066
166	0x3d9d955e	0.07694505
167	0x3d7e086e	0.062019758
168	0xbdcefc0e	-0.10106669
169	0xbdc2427f	-0.094853394
170	0xbd29a02d	-0.04141252
171	0x3d0da48b	0.03458075
172	0x3e359f8a	0.1773664
173	0xb9232a64	-0.00015560683
174	0x3e46756f	0.19380735
175	0x3e70eac8	0.23527062
176	0xbdceeba3	-0.10103538
177	0x3e2b2531	0.16713406
178	0x3d707b09	0.058711085
179	0xbe008a2b	-0.12552707
180	0x3e016632	0.1263664
181	0x3e35a96d	0.17740412
182	0x3dbb5252	0.09146561
183	0xbd8e6519	-0.069528766
184	0x3e029ad4	0.12754375
185	0xbdb40a16	-0.08790986
186	0xbdb8c2e6	-0.09021549
187	0x3d9d0b4e	0.07668172
188	0x39b6d2bf	0.00034870763
189	0x3c8f870c	0.01752045
190	0x3e0b0cdc	0.13579124
191	0xbde3e40d	-0.111274816
192	0xbcae4d6b	-0.02127715
193	0xbd109b34	-0.035304263
194	0xbe0d0b51	-0.13773848
195	0x3d9e531d	0.07730696
196	0x3e28bc1f	0.16478013
197	0x3dcdb73b	0.10044714
198	0xbcaec527	-0.021334244
199	0xbda7ae7e	-0.081875786

bias_hh_l0 f4 [200]
0	0xbdd0146c	-0.10160145
1	0x3e9baed2	0.30406815
2	0x3ddcac53	0.10775056
3	0xbba35d54	-0.004985491
4	0x3da951eb	0.08267578
5	0x3dab6cd3	0.08370366
6	0xbc9ab16e	-0.018883433
7	0x3dbc0814	0.09181228
8	0x3e13145c	0.14363235
9	0x3dba1bfc	0.09087369
10	0x3d997006	0.0749207
11	0x3c9dbdec	0.0192556
12	0x3cdd20fc	0.026993267
13	0xbd86f5c0	-0.06589842
14	0xbd3b3ffe	-0.045715325
15	0xbdad5e1f	-0.08465218
16	0x3c99903d	0.018745536
17	0x3d79f7cf	0.061027344
18	0xbbbe8b4e	-0.0058149463
19	0x3c935331	0.017984005
20	0x3dbfbc79	0.0936212
21	0xbdce9cd7	-0.100885086
22	0xbd0730ee	-0.033005647
23	0xbcff51b0	-0.031166881
24	0x3e9b12e6	0.30287856
25	0x3e6b83e6	0.22999534
26	0xbe1fad5b	-0.15593474
27	0x3acf1bab	0.0015801092
28	0x3e0bf784	0.13668638
29	0xbd93314b	-0.07187136
30	0x3d04195f	0.03225076
31	0x3d4046a7	0.04694238
32	0x3dabf4be	0.0839629
33	0xbd1d2d4f	-0.038373288
34	0xbde30ba7	-0.11086207
35	0x3cef7dae	0.029234733
36	0xbd40db56	-0.047084175
37	0x3d68f13c	0.056870684
38	0x3df1f250	0.118137956
39	0x3e34d741	0.17660238
40	0x3dab579c	0.083663195
41	0x3bb337a1	0.005469278
42	0x3dddb40c	0.10825357
43	0x3e1c713d	0.15277572
44	0xbe191a89	-0.14951529
45	0xbd8df8f0	-0.06932247
46	0x3c286214	0.01027729
47	0x3e51d917	0.2049297
48	0x3da8a00f	0.08233654
49	0xbe026382	-0.12733272
50	0xbc9db2b3	-0.01925025
51	0x3e679edc	0.22619194
52	0xbd2771cd	-0.040880013
53	0x3d6ba964	0.05753459
54	0x3d87aba6	0.06624536
55	0x3db56991	0.08858026
56	0x3d051a00	0.0324955
57	0x3d704ebc	0.058668837
58	0x3df26f79	0.11837668
59	0x3dd54125	0.10412816
60	0x3e15bdf1	0.14623238
61	0x3d20da9b	0.03927098
62	0x3c75e13c	0.015007313
63	0xbd8df714	-0.06931892
64	0x3e0792b7	0.13239561
65	0x3d6757d0	0.05648023
66	0x3c898e46	0.016791474
67	0xbe028900	-0.12747574
68	0x3ddb6f8a	0.10714634
69	0xbd460a95	-0.048349936
70	0xbd06c5f5	-0.03290363
71	0xbd6b16d6	-0.057394825
72	0xbcb31895	-0.021862308
73	0xbde88669	-0.11353762
74	0x3e40f69e	0.18844077
75	0xbd18064c	-0.03711538
76	0xbc1867c9	-0.009302088
77	0x3deee28b	0.116643034
78	0x3e551e15	0.20812257
79	0xbc4ed483	-0.012623909
80	0x3b4b4cb4	0.003102106
81	0xbbfc5fae	-0.0077018356
82	0xbc179631	-0.009252117
83	0x3dbc7ffc	0.092040986
84	0x3dc10a12	0.09425749
85	0x3d75638b	0.059909385
86	0x3e05d632	0.1306999
87	0x3d33f2ce	0.04393273
88	0xbd304f54	-0.043044403
89	0xbca288a8	-0.019840553
90	0x3d408732	0.047003932
91	0xbd079b50	-0.033107102
92	0xbc5443e9	-0.012955644
93	0x3e152efb	0.14568703
94	0xbe053c9d	-0.13011403
95	0x3d6a3124	0.05717577
96	0x3e471b82	0.19444087
97	0x3df84fb4	0.12124577
98	0xbdf0a3dd	-0.117500044
99	0xbc16a455	-0.009194453
100	0x3c49fee1	0.012328834
101	0x3d395985	0.045251388
102	0x3dea1a57	0.11430805
103	0xbd15dafb	-0.03658579
104	0x3c8b9a6c	0.017041408
105	0x3c335285	0.010944967
106	0x3d932824	0.071853906
107	0xbda95d7f	-0.08269786
108	0xbd146efe	-0.036238663
109	0x3da67ce3	0.08129289
110	0x3dd942f0	0.106084704
111	0xbced76c4	-0.028987296
112	0xbd8b173e	-0.067915425
113	0x3d5f9e75	0.054594476
114	0xbce72c04	-0.02821923
115	0xbdbd061d	-0.09229682
116	0x3d952b55	0.072836556
117	0x3cc48080	0.023987055
118	0xbe0bafdc	-0.13641304
119	0xbd73c161	-0.059510592
120	0xbc7c74ad	-0.015408677
121	0x3db37387	0.087622695
122	0xbd8e30c9	-0.06942899
123	0xbd6055e2	-0.054769404
124	0xbe0abbce	-0.13548204
125	0x3de41eda	0.11138697
126	0x3cf6a57e	0.03010821
127	0x3d14b1d8	0.036302418
128	0x3d2b215d	0.041779865
129	0x3d899ac8	0.06718975
130	0x3db4b2ec	0.08823189
131	0x3dc4831a	0.09595318
132	0x3d2c1c8f	0.042019423
133	0x3bcb919c	0.0062124263
134	0x3cd8e7a3	0.02647764
135	0xbb503a2b	-0.0031772952
136	0xbc447140	-0.0119898915
137	0xbc8c4fff	-0.017127989
138	0xbd2ffdd8	-0.042966694
139	0x3da21174	0.07913485
140	0xbd6866f7	-0.05673882
141	0x3c4c69b5	0.012476374
142	0xbdad73aa	-0.08469327
143	0x3de45613	0.1114923
144	0x3cf3c8c6	0.029758822
145	0x3d7b1dbd	0.061307658
146	0x3d8c7769	0.06858713
147	0xbd737571	-0.059438173
148	0x3d878884	0.06617835
149	0x3de4b65c	0.11167595
150	0x3c0c3a08	0.008558758
151	0x3e7200d5	0.2363313
152	0x3dcbfd92	0.09960474
153	0x3dcdbcfe	0.10045813
154	0x3e72f336	0.2372559
155	0x3e44531c	0.19172329
156	0x3e378162	0.1792045
157	0x3e62c897	0.22146831
158	0xbd89f31b	-0.06735822
159	0xbdaa21ce	-0.08307229
160	0x3dbda414	0.09259811
161	0xbdfc7647	-0.12327247
162	0x3d8a279a	0.06745835
163	0xbcb69e0e	-0.022292163
164	0x3dbdab23	0.09261157
165	0xbd671e56	-0.056425415
166	0x3de5fb56	0.11229579
167	0x3d3a41c7	0.045472886
168	0xbd661024	-0.056167737
169	0xbddc8fc0	-0.10769606
170	0x3dcc48b5	0.09974805
171	0xbdb2f57b	-0.08738228
172	0x3d8a4a0e	0.06752406
173	0x3e2c3183	0.16815762
174	0x3eb63025	0.35583606
175	0x3e27b828	0.16378844
176	0xbdfea047	-0.12432914
177	0x3d3f9531	0.04677314
178	0x3d7ec9d7	0.06220421
179	0xbdb81f4c	-0.089903444
180	0x3e3f6747	0.18691741
181	0xbc8eec02	-0.017446522
182	0xbd95ba22	-0.07310893
183	0xbdcbdc4f	-0.0995413
184	0x3d84c308	0.06482512
185	0x3cf490a3	0.029854124
186	0xbdc94830	-0.09828222
187	0xbc972284	-0.018449076
188	0x3e28d738	0.1648835
189	0x3de4927b	0.111607514
190	0xbdabe463	-0.08393171
191	0xbcb941fb	-0.02261447
192	0x3cc7cc95	0.024389545
193	0x3e55c7bf	0.20876978
194	0xbe180a0c	-0.14847583
195	0xbdd22e85	-0.10262779
196	0x3e383116	0.17987475
197	0x3d9702f6	0.07373612
198	0x3d9c104e	0.07620297
199	0x3d4ea842	0.050453432

weight_ih_l0_reverse f4 [200, 2]
0	0x3ea45a6a	0.3210023
1	0xbe2ac620	-0.16677141
2	0x3e73f049	0.2382213
3	0x3f843328	1.0328112
4	0x3eba2585	0.3635675
5	0xbe5abd7b	-0.21361344
6	0x3dcefa44	0.10106328
7	0xbe36d2e3	-0.17853884
8	0x3e1870fa	0.14886847
9	0xbe2ef70f	-0.17086433
10	0x3e7a14b1	0.24421956
11	0xbeb4aa07	-0.3528597
12	0x3f00feb4	0.50388646
13	0xbe128a4c	-0.14310569
14	0x3e3098be	0.17245767
15	0x3e67d851	0.22641112
16	0x3eb2dd53	0.34934482
17	0xbe2bf2c2	-0.16791824
18	0xbfaf8226	-1.3711593
19	0x3f27c85a	0.6554009
20	0x3e9a25ac	0.30106866
21	0xbeae9be9	-0.34103325
22	0x3e920901	0.28522494
23	0xbe2cde1f	-0.16881607
24	0xbf08cace	-0.53434455
25	0x3e471a95	0.19443734
26	0x3eb82511	0.3596578
27	0xbe61de8c	-0.22057551
28	0x3ebf0355	0.3730723
29	0xbe95c68e	-0.29253048
30	0xbdd1c05a	-0.10241766
31	0x3d7cb5fa	0.061696984
32	0x3f3cd5d4	0.73763776
33	0x3ef503a4	0.4785434
34	0x3f17bad6	0.59269464
35	0xbedc2d23	-0.43003187
36	0x3c79e4c1	0.015252293
37	0x3ee80d26	0.4532253
38	0xbf101fee	-0.5629872
39	0x3e859877	0.26092884
40	0x3cc61b32	0.02418289
41	0x3dacc9a7	0.084369
42	0xbe8f543c	-0.27993953
43	0xbb77c0b0	-0.003780406
44	0xbf111027	-0.5666527
45	0x3e59dbe3	0.21275286
46	0xbe168c67	-0.14701997
47	0x3d1bdcb9	0.038052294
48	0x3e811007	0.2520754
49	0xbe80cc8d	-0.2515606
50	0xbed4066b	-0.41411147
51	0x3e19c305	0.150158
52	0x3f0aaca6	0.5416969
53	0xbeaa49c1	-0.33259395
54	0x3e1c9033	0.15289383
55	0xbe2dd5a4	-0.16976029
56	0x3d6def57	0.05808958
57	0xbe5fe5e3	-0.21865039
58	0x3e8a74c8	0.27042222
59	0xbda79929	-0.0818351
60	0xbf0116bf	-0.5042533
61	0x3d90594f	0.07048284
62	0x3ec430bf	0.3831844
63	0xbe045e5e	-0.12926623
64	0x3e1513a9	0.14558281
65	0xbe5d5e40	-0.21617985
66	0x3ded8d28	0.11599189
67	0xbe9e5da9	-0.30930832
68	0xbcb8318d	-0.022484565
69	0xbe3e88f5	-0.18606932
70	0x3e1d2571	0.15346314
71	0x3e664db0	0.22490573
72	0xbd2cc576	-0.0421805
73	0xbd1d023c	-0.03833221
74	0xbeada265	-0.3391296
75	0x3ec1153a	0.37711507
76	0x3ef7e9ca	0.48420554
77	0xbe7b9281	-0.24567606
78	0xbdccfd63	-0.10009267
79	0x3de2e9c4	0.110797435
80	0xbe8891d4	-0.26673758
81	0xbe3a64e6	-0.18202552
82	0xbe848051	-0.25879148
83	0x3dcadfb8	0.09905952
84	0x3ccd0b18	0.025029704
85	0x3ded2a78	0.11580366
86	0x3e413604	0.18868262
87	0x3e1d615c	0.15369171
88	0xbf029e54	-0.5102284
89	0x3e9dea9a	0.3084305
90	0x3f3abee7	0.72947544
91	0x3e5909fe	0.21195218
92	0x3ef4cb76	0.47811478
93	0xbe34c02b	-0.17651431
94	0x3e79ee7b	0.2440738
95	0xbec2490d	-0.37946358
96	0x3dd46fca	0.103728846
97	0x3e57c415	0.21070893
98	0x3e43aa16	0.19107851
99	0xbefe8140	-0.49707985
100	0x3efb7a47	0.49116728
101	0xbf0108a6	-0.5040382
102	0x3e6a64b0	0.22889972
103	0x3f705b90	0.93889713
104	0x3eefd5f3	0.46842918
105	0xbeb583a4	-0.35451996
106	0x3f0945ca	0.53622115
107	0xbf0d23ca	-0.55132735
108	0x3ea8caef	0.32967326
109	0xbead080a	-0.33795196
110	0x3e7f8622	0.24953511
111	0xbee84193	-0.4536253
112	0x3eb89306	0.3604967
113	0xbeb7149f	-0.3575792
114	0x3ea2d83f	0.31805608
115	0x3c9eae8a	0.019370336
116	0x3ef90b94	0.48641646
117	0xbe920b5a	-0.28524286
118	0xbf57fce2	-0.84370244
119	0x3ea30f16	0.31847447
120	0x3ed2eaa0	0.4119463
121	0xbed43076	-0.41443223
122	0x3ec9ddf7	0.39427158
123	0xbe9c854a	-0.3057044
124	0xbe105db8	-0.14098251
125	0x3dc512fa	0.0962276
126	0x3eaa2068	0.3322785
127	0xbe979f9d	-0.29613963
128	0x3ede00cc	0.43359983
129	0xbec31006	-0.38098162
130	0x3d665405	0.05623247
131	0x3e477f53	0.19482164
132	0x3f2803d5	0.6563085
133	0x3ed9ba5e	0.42525
134	0x3ef73f4e	0.48290485
135	0xbeb96f3c	-0.36217678
136	0x3d1dc6c4	0.038519636
137	0x3e25295e	0.16129062
138	0xbedf6763	-0.43633565
139	0x3d941bde	0.07231878
140	0x3eb9e00f	0.36303756
141	0xbe88527b	-0.26625428
142	0xbe25b7e4	-0.1618343
143	0xbad5eb37	-0.001632071
144	0xbec13854	-0.37738287
145	0x3e691c8c	0.22764796
146	0x3e56808b	0.20947473
147	0x3d0e4c18	0.034740537
148	0x3efb5377	0.49087116
149	0xbef4c408	-0.4780581
150	0xbef6df5b	-0.48217282
151	0x3da9ae19	0.082851596
152	0x3f10b515	0.5652631
153	0xbea2df48	-0.31810975
154	0x3eb16e8e	0.3465466
155	0xbe4ac9bd	-0.1980352
156	0x3e0aeacc	0.1356613
157	0xbe87e04d	-0.26538315
158	0x3ee84ed6	0.45372647
159	0xbeebed71	-0.4607959
160	0xbe99aae5	-0.30013195
161	0xbcf42a60	-0.029805362
162	0x3f005630	0.5013151
163	0xbecaf2b5	-0.39638296
164	0x3ee8d093	0.4547163
165	0xbe81924e	-0.25306934
166	0x3eeb3569	0.45939186
167	0xbf0b3a2d	-0.54385644
168	0x3eb4450c	0.3520893
169	0xbeecc191	-0.4624143
170	0x3d8c7069	0.06857378
171	0x3db1cfc2	0.08682205
172	0x3dbcc02d	0.09216342
173	0xbdede069	-0.116150685
174	0xbdf74022	-0.12072779
175	0xbe44b26b	-0.19208686
176	0x3efd78f1	0.49506333
177	0xbe914fe8	-0.28381276
178	0x3e1d90f5	0.15387328
179	0x3b2164f8	0.0024626832
180	0xbd7cd96c	-0.061730787
181	0xbe37d4ba	-0.17952242
182	0xbdf272f7	-0.11838334
183	0x3e7f1f6b	0.24914329
184	0x3dc786c9	0.09742505
185	0x3e13fca3	0.14451842
186	0x3de59333	0.11209717
187	0xbd556d2e	-0.052106075
188	0xbd02254b	-0.031773847
189	0x3e769007	0.2407838
190	0x3f3d1705	0.7386325
191	0x3dba5df8	0.09099954
192	0x3e863471	0.26211885
193	0xbeadb7b6	-0.33929223
194	0x3f04650b	0.5171668
195	0xbe53fab9	-0.20701112
196	0x3f0524a3	0.5200903
197	0xbe9c8f11	-0.305779
198	0x3e8f2888	0.2796061
199	0xbec16b83	-0.37777337
200	0x3f3327d4	0.6998265
201	0xbe86b826	-0.2631237
202	0x3d401043	0.04689051
203	0xbf76e0fe	-0.9643706
204	0xbef451b0	-0.47718573
205	0x3ea9e362	0.33181292
206	0x3f4658b6	0.7747911
207	0xbdd1591e	-0.10222076
208	0x3ed31f3d	0.4123477
209	0xbe073881	-0.13205148
210	0x3ec9fab8	0.39449096
211	0xbe493799	-0.19650115
212	0xbf3988a2	-0.7247411
213	0x3ea0acd2	0.3138185
214	0x3f0207c4	0.507931
215	0xbcb8f862	-0.022579376
216	0xbed140ac	-0.40869653
217	0x3ee884c9	0.45413807
218	0xbf5f47d7	-0.87218994
219	0x3eafb13e	0.34314913
220	0xbf396004	-0.72412133
221	0x3ea35d59	0.31907156
222	0xbf3c4bab	-0.7355296
223	0x3ebddf87	0.370846
224	0xbf245d8b	-0.64205235
225	0x3ddf7e51	0.10912765
226	0x3efcfb7b	0.49410614
227	0xbeabaa28	-0.33528256
228	0x3f1506fa	0.5821377
229	0xbe1b4592	-0.15163258
230	0x3f21ffa8	0.63280725
231	0xbea8d6aa	-0.32976276
232	0x3f30ca2f	0.6905851
233	0x3f1f509e	0.6223239
234	0xbf048a45	-0.5177348
235	0x3dff8877	0.124772005
236	0xbd8528e4	-0.0650194
237	0x3eb914f1	0.3614879
238	0x3f394245	0.72366744
239	0xbe6e5384	-0.23274046
240	0xbf1a1855	-0.6019338
241	0x3f076c04	0.52899194
242	0x3f427467	0.75958866
243	0xbdc69b24	-0.096975595
244	0x3f58cfeb	0.8469226
245	0xbe6ec695	-0.2331794
246	0x3f06e22e	0.5268887
247	0xbe315b1f	-0.17319916
248	0xbf495c77	-0.78656715
249	0x3dc65516	0.096841976
250	0x3f185042	0.59497464
251	0xbe55432a	-0.20826402
252	0x3f231ea4	0.6371863
253	0xbe161253	-0.14655428
254	0xbf103177	-0.5632548
255	0x3e67b119	0.22626151

weight_hh_l0_reverse f4 [200, 50]
0	0x3dbbcce5	0.0916994
1	0xbc304516	-0.010758659
2	0x3dac1bfb	0.08403774
3	0xbd03c3d7	-0.03216919
4	0xbc834774	-0.016025282
5	0xbda51e0f	-0.08062374
6	0x3d4baaa9	0.0497233
7	0xbe44fc94	-0.19236976
8	0xbe1dea1b	-0.15421335
9	0xbd55c38c	-0.05218844
10	0x3cac68a4	0.02104599
11	0x3d78adac	0.0607125
12	0x3e6837c6	0.22677526
13	0xbd1019d6	-0.03518089
14	0x3e1a45d1	0.15065695
15	0xbe38924b	-0.18024556
16	0xbe9551c8	-0.29163957
17	0x3d3cbf0d	0.046080638
18	0x3db84a4d	0.08998547
19	0xbc57d29c	-0.013172772
20	0xbe45191f	-0.19247864
21	0xbe64ba35	-0.22336657
22	0x3d5a6b08	0.05332473
23	0xbdee1fd2	-0.11627163
24	0xbe1191f3	-0.14215831
25	0xbdb2ba08	-0.08726889
26	0x3c676dee	0.01412533
27	0x3da0692f	0.07832562
28	0x3d0e3cf8	0.034726113
29	0xbe0747c9	-0.13210978
30	0xbd3212cf	-0.04347497
31	0xbd7b908b	-0.061417144
32	0xbda048a2	-0.078263536
33	0x3e0cf781	0.1376629
34	0x3d94b2b1	0.07260645
35	0xbe71c40a	-0.23609939
36	0x3cc65ec4	0.02421511
37	0x3dd7c7ed	0.1053618
38	0x3c81ffe1	0.015869083
39	0x3dc9268f	0.098218076
40	0x3d068116	0.03283795
41	0xbe066c32	-0.1312721
42	0x3e0ea522	0.1393018
43	0xbe3b073f	-0.18264483
44	0x3da0f1b3	0.078586005
45	0x3d842c58	0.064537704
46	0xbdab0d02	-0.083520904
47	0xbccea6ef	-0.025226085
48	0x3e40f41b	0.18843119
49	0xbe1e4a93	-0.15458135
50	0x3e091f89	0.13390936
51	0xbcded952	-0.027203236
52	0x3cbd46b8	0.02310501
53	0x3de5bc21	0.11217523
54	0xbd4e541b	-0.050373178
55	0x3dcd3ba4	0.10021141
56	0xbe13bdf5	-0.14427932
57	0x3e2621c8	0.16223824
58	0xbe003a6e	-0.12522289
59	0xbd60d2a6	-0.05488839
60	0xbcd655f6	-0.026164036
61	0xbd96f8fa	-0.07371707
62	0xbe9a8298	-0.3017776
63	0x3de86102	0.11346628
64	0xbdcc6f78	-0.099821985
65	0x3c254d4d	0.010089231
66	0x3eb5accf	0.35483405
67	0x3b9fd1e2	0.004877315
68	0xbd2399ac	-0.039941475
69	0x3dd866e1	0.105664976
70	0x3d5a87e4	0.05335225
71	0x3dd4a3f7	0.10382836
72	0xbd9960ef	-0.07489192
73	0x3e42a55a	0.19008389
74	0xbe682815	-0.2267154
75	0x3e17f2e1	0.14838745
76	0x3b0bb416	0.0021317056
77	0xbb07d4f4	-0.0020726295
78	0x3da62e76	0.081143305
79	0x3dac68f8	0.08418459
80	0x3dd4f134	0.10397568
81	0xba555d11	-0.0008139173
82	0xbe566aba	-0.2093915
83	0x3d2b70a8	0.041855484
84	0x3c190fbf	0.009342133
85	0x3dca2400	0.09870148
86	0x3e80e3f3	0.2517391
87	0x3e14de90	0.14538026
88	0xbd9c7eab	-0.076413475
89	0xbc1d1825	-0.009588276
90	0xbdccc6a1	-0.09998823
91	0x3e49ac86	0.19694719
92	0xbe592418	-0.21205175
93	0x3dc31df1	0.09527195
94	0x3e4a8f82	0.19781306
95	0xbcccf1cc	-0.025017641
96	0x3d999019	0.074981876
97	0xbdf992ad	-0.12186179
98	0x3c1ca26f	0.009560212
99	0x3ca110e0	0.019661367
100	0xbd03b553	-0.032155346
101	0x3cbf03a5	0.023317168
102	0xbdbd0676	-0.09229748
103	0x3c3bc339	0.011460119
104	0xbe096575	-0.13417609
105	0xbd44305d	-0.047897685
106	0x3d7a1dab	0.06106345
107	0x3d5ef6e2	0.054434665
108	0xbd07b866	-0.03313484
109	0x3d9d8dad	0.07693038
110	0x3d5e2709	0.054236446
111	0x3e059cf1	0.1304815
112	0xbda949ca	-0.08266027
113	0xbe1543f4	-0.14576703
114	0xbe041f5d	-0.12902589
115	0xbdf1b9a6	-0.11802988
116	0xbdbf2fb9	-0.09335274
117	0x3e210981	0.15726282
118	0x3db32c2a	0.08748658
119	0xbdae790d	-0.08519182
120	0x3db47a32	0.088123694
121	0x3de97ace	0.11400376
122	0x3c85a890	0.016315728
123	0xbd7619d9	-0.060083244
124	0x3d96ba72	0.0735978
125	0x3d674f0a	0.056471862
126	0x3d7654bf	0.060139414
127	0x3db95939	0.09050221
128	0xbc3dc24d	-0.011581969
129	0xbde1cc5e	-0.11025308
130	0x3d02ad59	0.0319036
131	0x3d7d53a8	0.06184736
132	0x3deaff08	0.114744246
133	0x3dcf7596	0.101298496
134	0xbe04e894	-0.12979347
135	0x3bc8acbe	0.006124108
136	0x3c3f31e4	0.01166961
137	0x3da7ab85	0.08187012
138	0xbdbe955c	-0.09305832
139	0xbe1aab42	-0.15104392
140	0x3da5afd1	0.08090175
141	0xbda0877b	-0.07838341
142	0x3dfde801	0.12397767
143	0x3d264b51	0.04059917
144	0x3c5ef55b	0.013608302
145	0x3dbc865d	0.09205315
146	0xbe170f31	-0.14751889
147	0x3e26154f	0.16219066
148	0xbdd77149	-0.10519654
149	0xbd9a1dbc	-0.07525203
150	0x3ddd27a2	0.10798575
151	0xbe10ed6a	-0.14153066
152	0x3d958c48	0.07302147
153	0x3e03a59e	0.12856147
154	0x3d4a5db4	0.04940577
155	0xbd3cabd9	-0.046062324
156	0x3cc4c345	0.024018893
157	0x3daf55ee	0.08561312
158	0xbc383b5f	-0.011244624
159	0xbd59f221	-0.053209428
160	0x3d366741	0.044532064
161	0x3c9ac344	0.018891938
162	0xbddd6610	-0.108104825
163	0xbdadfbdf	-0.08495306
164	0xbcf7ebb8	-0.030263767
165	0x3d1e4d5a	0.038647987
166	0x3dfd8d53	0.12380471
167	0xbde2271a	-0.11042614
168	0xbd9c294e	-0.07625066
169	0xbd6bdf85	-0.05758621
170	0x3dcf65a6	0.1012681
171	0x3e01af22	0.12664464
172	0x3aacef0e	0.0013193802
173	0x3d894a67	0.06703644
174	0xbdced3e7	-0.10099011
175	0xbe0fb8b7	-0.14035307
176	0x3e2cd130	0.16876674
177	0xbe2a45c3	-0.16628174
178	0x3e1e2498	0.15443647
179	0xbe1f582e	-0.15560982
180	0xbdd8019c	-0.10547182
181	0xbd68a7e8	-0.056800753
182	0x3bd31495	0.0064416626
183	0x3e2c6ed9	0.1683916
184	0xbe204392	-0.15650776
185	0x3e093859	0.13400401
186	0x3dff6fbe	0.12472485
187	0x3c8bbd18	0.01705794
188	0xbcb53e85	-0.022124538
189	0xbd3d8535	-0.046269614
190	0xbe124ce8	-0.1428715
191	0xbb6df174	-0.0036307247
192	0xbd982a8c	-0.0742999
193	0x3d8ee300	0.069768906
194	0x3d32ba5d	0.04363476
195	0xbd951b26	-0.07280569
196	0xbd5c0e0d	-0.053724337
197	0x3d69a19d	0.057038892
198	0xbd96a68a	-0.073559836
199	0xbd7d0ff1	-0.06178278
200	0x3e138caf	0.14409135
201	0x3d89744f	0.06711637
202	0x3d5280f2	0.051392503
203	0x3d34c470	0.04413265
204	0x3d4b55c3	0.049642336
205	0x3dddc13d	0.10827873
206	0xbd76d892	-0.06026513
207	0x3d7a1b5c	0.06106125
208	0x3dcb262e	0.099193916
209	0x3ba10fea	0.004915227
210	0xbd85d78f	-0.06535255
211	0xbe02fc82	-0.12791637
212	0x3dc3d95e	0.09562944
213	0xbdc71ad8	-0.09721917
214	0x3d996cee	0.0749148
215	0x3d4bd9b0	0.04976815
216	0xbdb1e996	-0.08687131
217	0x3ad58d72	0.0016292764
218	0xbd11cc12	-0.035595007
219	0xbdb59649	-0.08866555
220	0x3dde2c93	0.108483456
221	0x3d6fe448	0.058567315
222	0xbcfee439	-0.031114684
223	0x3d4610ee	0.04835599
224	0x3dd3eefb	0.10348316
225	0x3d86a5ff	0.0657463
226	0x3df55b5a	0.119803146
227	0xbccbeb9c	-0.02489262
228	0x3dc0cdfa	0.09414287
229	0x3de96ebf	0.11398076
230	0xba057861	-0.0005091485
231	0x3db4814f	0.08813726
232	0xbd4f3324	-0.05058588
233	0xbd96f1a1	-0.07370306
234	0x3c405eeb	0.01174138
235	0x3c2d2a15	0.010569115
236	0xbe14593f	-0.1448717
237	0x3bb07dd3	0.005386093
238	0xbdadac34	-0.08480111
239	0xbb5de847	-0.0033860372
240	0x3bcb6f52	0.006208339
241	0xbca841fd	-0.020539278
242	0x3de4c99f	0.11171269
243	0x3c155626	0.009114778
244	0x3d17ef74	0.037093595
245	0x3e205de6	0.1566082
246	0xbd94cfe4	-0.072662145
247	0x3dadb970	0.08482635
248	0x3e16a99d	0.1471314
249	0xbce5fc33	-0.02807436
250	0x3c578489	0.013154157
251	0xbd6db460	-0.058033347
252	0x3e30e400	0.17274475
253	0x3ce4083d	0.02783596
254	0x3d80adf0	0.06283176
255	0x3d882a1f	0.06648659

bias_ih_l0_reverse f4 [200]
0	0x3e4a2203	0.19739537
1	0xbdc40db2	-0.09572925
2	0xbd83b247	-0.06430488
3	0xbcd8ff67	-0.026488973
4	0xbd6f7205	-0.058458347
5	0xbe246aaf	-0.16056322
6	0x3df7706c	0.1208199
7	0x3e0247c8	0.12722695
8	0xbc55ee13	-0.01305725
9	0x3e0dbd64	0.13841778
10	0xbdd32912	-0.10310568
11	0x3e067684	0.13131148
12	0xbdd9c8f8	-0.10634035
13	0xbe08f608	-0.13375103
14	0xbdd9637c	-0.10614678
15	0x3e15fbaf	0.14646791
16	0x3e152200	0.14563751
17	0x3e0fdc6f	0.14048932
18	0xbe136297	-0.14393078
19	0xbdec2464	-0.115303785
20	0xbb6708a9	-0.0035252965
21	0xbd4e2284	-0.050325885
22	0x3de2f7bf	0.1108241
23	0x3cd3b105	0.025841245
24	0x3dab2e2f	0.08358418
25	0x3c77770a	0.015104065
26	0x3da28f2f	0.07937466
27	0x3e03adb1	0.12859227
28	0x3e24fa8a	0.16111198
29	0xbd3ce4c9	-0.046116624
30	0x3db5c6f0	0.08875835
31	0x3de674b0	0.11252725
32	0x3e1c06c6	0.15236959
33	0xbd280cf4	-0.041027978
34	0x3d9e141c	0.07718679
35	0xbb134008	-0.0022468586
36	0xbc4c5f05	-0.012473826
37	0x3c632467	0.013863659
38	0xbe1c5a41	-0.15268804
39	0xbd805c48	-0.06267601
40	0x3d9ee974	0.077593714
41	0xbc9fded8	-0.01951544
42	0xbdbbc67e	-0.09168719
43	0xbd96ea3a	-0.07368894
44	0xbd39ac4d	-0.045330334
45	0x3cfda439	0.030962097
46	0xbce2f5c7	-0.027705086
47	0xbdba2923	-0.090898775
48	0x3d8d3c40	0.068962574
49	0x3ce12ca6	0.02748711
50	0x3e0c5d2a	0.13707414
51	0xbb297a91	-0.0025860409
52	0x3c9322da	0.017960954
53	0x3e0fa5f2	0.14028147
54	0xbc9ed3c9	-0.019388096
55	0x3d95518c	0.072909445
56	0x3d76363a	0.06011031
57	0xba8a71d3	-0.0010562487
58	0xb998483a	-0.00029045512
59	0x3e10aa34	0.14127427
60	0xbdd4952e	-0.10380016
61	0x3bb4476f	0.0055016796
62	0x3de1c255	0.11023394
63	0xbdf2ff2b	-0.11865076
64	0x3cdae312	0.026719604
65	0xbd9bf936	-0.076158926
66	0x3e3f4dc5	0.1868201
67	0x3ca4e5a4	0.020129032
68	0x3de38c40	0.11110735
69	0x3da27747	0.079329066
70	0xbdb1e8ab	-0.08686956
71	0xbe10ad0b	-0.1412851
72	0x3deca24f	0.115543954
73	0xbd8fd622	-0.070232645
74	0x3d23c756	0.039985023
75	0xbcc1f144	-0.023674615
76	0x3ce7910c	0.028267406
77	0xbdde05a7	-0.10840922
78	0xbd8d64b8	-0.06903976
79	0xbc8caede	-0.017173227
80	0xbdbeff39	-0.093260236
81	0x3c2f86bb	0.010713275
82	0xbd0e8b1f	-0.034800645
83	0x3d1c3a2d	0.03814142
84	0x3cdf9e20	0.02729708
85	0xbde1e66f	-0.1103028
86	0x3d560cf5	0.05225845
87	0xbd25bb70	-0.040461957
88	0x3d3ba157	0.045808163
89	0x3d9ea0c4	0.07745507
90	0xbd53d2c3	-0.05171467
91	0xbd614a10	-0.055002272
92	0x3e04d42f	0.12971567
93	0x3dbe0ce9	0.09279806
94	0xbde20bb0	-0.110373855
95	0xbe0afc55	-0.1357282
96	0xbd59c292	-0.053164072
97	0xbe122d57	-0.14275108
98	0x3c3ac2f7	0.011399022
99	0xbd85e8f4	-0.06538573
100	0xbd3bcd44	-0.045850053
101	0xbd15a770	-0.036536634
102	0x3d238f5d	0.039931644
103	0xbd9f1e71	-0.07769478
104	0x3d8a11bd	0.067416646
105	0x3d81ce0a	0.06338127
106	0xbdda5f17	-0.10662668
107	0xbc3b4f4e	-0.011432482
108	0x3c4c934f	0.012486293
109	0x3ce0af3d	0.02742731
110	0xbcdb3c11	-0.02676204
111	0xbc48234b	-0.012215446
112	0x3d1e14e3	0.038594138
113	0xbdb922c3	-0.090398334
114	0x3c76cd42	0.015063586
115	0xbe0bf03e	-0.13665864
116	0xbe0275fb	-0.12740318
117	0x3cc1998b	0.023632785
118	0xbcb823e3	-0.02247805
119	0xbd0b3f9e	-0.033996217
120	0x3d17ded2	0.037077732
121	0xbd9f2940	-0.0777154
122	0xbd52dbaf	-0.051479038
123	0xbb39bee4	-0.002834254
124	0xbd4959ea	-0.049158014
125	0xbd0395ba	-0.032125212
126	0x3dcb35b4	0.099223524
127	0x3dceac82	0.10091497
128	0xbdbeda6b	-0.09319004
129	0x3c0b1757	0.008489451
130	0xbd8d7e48	-0.06908852
131	0x3d8ad054	0.06778017
132	0x3e0a7088	0.1351949
133	0xbcdded37	-0.027090652
134	0x3d56d73f	0.05245137
135	0x3db59fba	0.08868356
136	0x3ce19c69	0.027540402
137	0x3da9986d	0.08281026
138	0xbd0ff6bb	-0.03514741
139	0xbd89cf57	-0.06729
140	0xbd63a689	-0.055578742
141	0xbd3692ab	-0.044573467
142	0x3de358eb	0.11100944
143	0xbc9d8c63	-0.01923198
144	0x3de9479f	0.11390614
145	0x3ceb2673	0.028704857
146	0xbd129480	-0.035786152
147	0x3daf0672	0.08546151
148	0x3cc5a160	0.024124801
149	0x3db5f520	0.088846445
150	0xbd8be420	-0.06830621
151	0x3c460a4b	0.012087415
152	0x3c4488c8	0.011995502
153	0x3e09ce66	0.13457641
154	0xbd843c02	-0.06456758
155	0x3c3b3b1e	0.011427669
156	0xbd183af3	-0.037165593
157	0xbd447dfb	-0.047971707
158	0xbd499be2	-0.049220927
159	0x3dfc5f16	0.12322824
160	0x3e2163ec	0.15760773
161	0x3d401e0a	0.046903647
162	0x3d0d69cd	0.034524728
163	0xbc9a7ac5	-0.01885737
164	0xbc583d3a	-0.013198191
165	0xbd28c479	-0.041202996
166	0x3e052b39	0.1300477
167	0x3d63b579	0.055592988
168	0xbd323b23	-0.04351343
169	0xbd267331	-0.0406372
170	0x3c4c468b	0.012467991
171	0x3dcceece	0.10006486
172	0x3d92b5ba	0.07163568
173	0xbde7c858	-0.113175094
174	0x3dc3abc1	0.09554244
175	0x3dd1c06a	0.10241778
176	0x3e0b7d59	0.13622035
177	0x3de7a7cf	0.11311304
178	0x3e1dc7ce	0.1540825
179	0xbdab3bd3	-0.0836102
180	0x3e12adaf	0.14324068
181	0x3df9cdf2	0.12197484
182	0x3e26372a	0.16231981
183	0x3e22a272	0.1588228
184	0x3e2423ab	0.16029231
185	0x3df0df2d	0.117613174
186	0x3c9d910d	0.019234205
187	0xbd2d6e3e	-0.042341463
188	0x3d1a3a34	0.037653163
189	0x3e24b518	0.16084707
190	0xbda81479	-0.0820703
191	0x3d74163b	0.059591513
192	0xbccdc5e1	-0.02511877
193	0x3d3a5f41	0.045500997
194	0xbd0fb0a9	-0.035080586
195	0xbd8bb1ac	-0.068209976
196	0x39433852	0.0001861763
197	0xbdb9d8f7	-0.09074586
198	0x3e08a317	0.13343464
199	0x3e0f3a4a	0.1398708

bias_hh_l0_reverse f4 [200]
0	0x3dde0f6f	0.108427875
1	0xbd84e3ca	-0.0648876
2	0xbc0f0a9a	-0.008730555
3	0x3d171ab5	0.036890704
4	0xbd6e0a3e	-0.058115236
5	0xbe121fa3	-0.14269881
6	0xbd2fdc93	-0.042934965
7	0xbc308754	-0.010774452
8	0x3d18554a	0.037190713
9	0xbbf35604	-0.0074260253
10	0x3e1f7fc3	0.15576081
11	0x3df798cd	0.12089691
12	0x3e08c195	0.13355096
13	0x3cea2540	0.028582215
14	0x3b047e0f	0.0020216738
15	0xbdbcb22c	-0.09213671
16	0xbc9abb4d	-0.01888814
17	0x3dd03289	0.10165889
18	0xbd9f893e	-0.07789849
19	0xbe0eb4ec	-0.13936204
20	0x3e037fc1	0.12841703
21	0xbd3b8d5d	-0.04578911
22	0xbcdbc475	-0.026827076
23	0xbb943dbd	-0.0045239613
24	0x3ca0c8f0	0.019627064
25	0x3d09733a	0.033557154
26	0x3dadcf3c	0.084867924
27	0x3e0ac70f	0.13552497
28	0x3d2e5333	0.042559814
29	0x3e0e23aa	0.13880792
30	0x3cd16711	0.025561841
31	0xbd6ea30e	-0.05826097
32	0x3df25a4b	0.11833628
33	0x3d02d9fc	0.031946167
34	0x3df05cff	0.117364876
35	0x3d875723	0.06608417
36	0xbdda4832	-0.106583014
37	0x3e14718e	0.14496443
38	0xbde9d3c2	-0.11417343
39	0xbdce37bf	-0.100692265
40	0xbdb51bcf	-0.08843195
41	0xbdbb5329	-0.09146721
42	0x3c8916cd	0.016734505
43	0x3e24694c	0.16055793
44	0xbc2c0841	-0.010500015
45	0x3b8049c2	0.0039150426
46	0xbd8db5f2	-0.06919469
47	0x3d728804	0.059211746
48	0x3c83f61a	0.016108561
49	0x3e291c1c	0.16514629
50	0xb9d6d610	-0.0004097675
51	0xbdcf5283	-0.1012316
52	0xbd16d26b	-0.036821764
53	0x3e175ce4	0.14781529
54	0x3cfaedb1	0.030630918
55	0x3d1603b3	0.03662462
56	0x3dc62307	0.0967465
57	0xbe0de04a	-0.1385509
58	0x3c005fde	0.0078353565
59	0x3e104317	0.14088093
60	0xbce6c11f	-0.02816826
61	0xbcee7e49	-0.029112952
62	0xbda533ff	-0.08066558
63	0xbe10e741	-0.14150716
64	0x3da7eae1	0.081990965
65	0xbce0bd52	-0.027434025
66	0x3e72de0e	0.2371752
67	0x39789adc	0.00023708813
68	0xbd14fc30	-0.036373317
69	0xbe0cf394	-0.13764793
70	0xb8527810	-5.017972e-05
71	0x3d261b9d	0.040553678
72	0xbd9f85e7	-0.07789212
73	0x3e00c4c8	0.12575066
74	0x3a8c3ecc	0.0010699867
75	0xbdf9e832	-0.12202491
76	0x3da42c6a	0.08016284
77	0xbde604dc	-0.112313956
78	0x3e3325f3	0.17494945
79	0x3debdd26	0.1151679
80	0x3de7748b	0.11301526
81	0xbc8858e0	-0.016643941
82	0x3e06b4e5	0.13154943
83	0x3ddb994f	0.10722601
84	0x3ca12114	0.019669093
85	0x3d9372f9	0.07199664
86	0x3e0681e8	0.13135493
87	0x3d76b751	0.060233418
88	0xbde3e761	-0.111281164
89	0x3dbdbb44	0.09264234
90	0x3e0b46fd	0.13601299
91	0xbdae578f	-0.08512794
92	0x3cb01ac0	0.02149713
93	0x3bde44a8	0.006783087
94	0xbd694a85	-0.056955833
95	0x3d9078f9	0.07054324
96	0xbd9d7f64	-0.076903135
97	0xbdb4fc08	-0.08837134
98	0x3e4e47d2	0.20144585
99	0x3bf1b009	0.0073757214
100	0x3d2a2b8a	0.04154543
101	0x3d3c74f3	0.04600997
102	0xbdf45cc6	-0.11931758
103	0x3d891573	0.06693544
104	0xbd8bfaf3	-0.06834974
105	0xbd1b3ece	-0.037901692
106	0x3c302bce	0.010752631
107	0x3d077c26	0.03307738
108	0xbd0f01e4	-0.034913912
109	0x3cfbfcf8	0.030760273
110	0xbb960121	-0.0045777713
111	0x3a6665b9	0.00087889616
112	0x3cfba7ad	0.030719602
113	0x3df00c4e	0.11721097
114	0x3dc225d3	0.09479871
115	0x3e011e59	0.12609233
116	0x3db005c6	0.08594851
117	0xbd18e02a	-0.037323155
118	0x3d98503c	0.074371785
119	0xbd952f2a	-0.072843865
120	0xbd3eed7f	-0.046613213
121	0xbd414187	-0.047181632
122	0xbd972092	-0.07379259
123	0xbc7bc79d	-0.015367416
124	0x3cc671d2	0.024224196
125	0xbd75cc8f	-0.060009535
126	0x3da60126	0.08105688
127	0xbda1532f	-0.07877194
128	0x3db0927f	0.08621692
129	0xbd62c841	-0.05536676
130	0xbc45867a	-0.0120559875
131	0xbce49a71	-0.027905675
132	0xbdfa2b02	-0.12215234
133	0x3db3e287	0.08783441
134	0xbcbde82a	-0.023181994
135	0xbdd2b387	-0.102881484
136	0xbd4e7237	-0.050401893
137	0xbdf82674	-0.12116709
138	0xbc34e299	-0.011040353
139	0x3d5b822c	0.05359094
140	0x3df7b483	0.12094977
141	0xbd902316	-0.07037942
142	0xbdb7af3f	-0.089689724
143	0x3cf2f952	0.0296599
144	0xbdfcd5d8	-0.12345475
145	0xbd34b4e5	-0.044117827
146	0x3d8634bc	0.06553027
147	0xbde51760	-0.11186099
148	0x3bc82391	0.0061077555
149	0xbdb04c84	-0.08608344
150	0x3c89300b	0.016746541
151	0x3dcc5c6f	0.09978568
152	0xbe0d01a2	-0.13770154
153	0xbd63c290	-0.05560547
154	0xbd02b065	-0.031906504
155	0x3c5732d5	0.013134678
156	0x3e036e00	0.1283493
157	0xbc50c06d	-0.01274119
158	0x3e093f09	0.13402952
159	0x3dd30ecf	0.10305559
160	0x3bc35c0a	0.0059618996
161	0xbd9a58aa	-0.075364426
162	0xbe0d9a3f	-0.13828371
163	0xbd82f084	-0.06393531
164	0xbd451cd1	-0.048123185
165	0x3d83204c	0.064026445
166	0x3d9a17ab	0.075240456
167	0xbd44c165	-0.048035998
168	0x3d35a35a	0.044345237
169	0xbe0dca30	-0.1384666
170	0xbadf1308	-0.0017019222
171	0xbd6970ca	-0.05699233
172	0x3d6439ea	0.055719294
173	0xbd7ec8ca	-0.062203206
174	0x3dc811a3	0.09768989
175	0x3de00fc9	0.10940511
176	0x3dffed48	0.1249643
177	0x3da6a7aa	0.08137448
178	0x3dd4e9f5	0.10396186
179	0xbdca2fb5	-0.09872381
180	0x3da8e687	0.082470946
181	0x3d8bac73	0.068200015
182	0x3c181086	0.009281283
183	0xbdc38c93	-0.09548297
184	0x3cfd58ed	0.030926192
185	0xbd0c5ea3	-0.03426994
186	0x3e1f03d2	0.15528801
187	0x3ddfeb1b	0.10933515
188	0x3dd260d6	0.10272376
189	0x3d033999	0.03203735
190	0x3e14356b	0.14473502
191	0x3d967de6	0.07348232
192	0xbd82dec6	-0.06390147
193	0x3d6c4f83	0.057693016
194	0x3da92aff	0.08260154
195	0xbdf40e67	-0.119168095
196	0xbd368db6	-0.04456874
197	0xbd3e7d72	-0.046506353
198	0x3cbffc44	0.02343572
199	0x3d2f4fba	0.042800643
