Models/LSTM testing (Oct-Dec)/precision_recall_model.pth (torch, 578442 bytes, 25 tensors)

weight_ih_l0 f4 [100, 2]
0	0xbfb2d1fa	-1.397033
1	0x3e2c76b7	0.16842161
2	0xbf83284a	-1.024667
3	0x400b6714	2.1781664
4	0xbfb52102	-1.4150698
5	0xbe11d630	-0.14241862
6	0xc00fa33c	-2.244338
7	0xc09776df	-4.7332606
8	0x401e9dbc	2.4783773
9	0x3f9ed128	1.240758
10	0xbf5d2b63	-0.8639433
11	0x3f456ba3	0.77117366
12	0x3f3ef3a1	0.745905
13	0x4080e3ff	4.0278316
14	0x3f81e18e	1.0146959
15	0x40a078fa	5.0147676
16	0x3fafa2cf	1.372156
17	0x40a24275	5.0706124
18	0x3ca9e7b2	0.020740364
19	0xc02bf1e1	-2.686638
20	0xbfa639de	-1.298641
21	0xc076e85f	-3.8579328
22	0x4017cb88	2.3717976
23	0x3f5ec688	0.87021685
24	0xbb8eb4a1	-0.0043550287
25	0xc07e959b	-3.9778812
26	0x3f96a3c1	1.1768724
27	0x3fd31442	1.6490557
28	0xbf759354	-0.9592793
29	0x3fb34c4a	1.4007657
30	0x3f3f9a36	0.7484468
31	0xbf91ea34	-1.1399598
32	0xbe9c5898	-0.30536342
33	0x3c99666a	0.018725593
34	0xbf881623	-1.0631756
35	0xc06f350f	-3.7376134
36	0xbf6e54e5	-0.9309829
37	0xbd8ebf94	-0.069701344
38	0xbfe75dfd	-1.8075558
39	0xc01292b2	-2.2902036
40	0xbf5d80a0	-0.8652439
41	0xc008cecc	-2.1376219
42	0xbf003e88	-0.50095415
43	0xc0969512	-4.705697
44	0x40b38ca9	5.6109204
45	0x40fb8486	7.859927
46	0xbf85a676	-1.0441425
47	0xbe88db54	-0.26729834
48	0xbf034f40	-0.512928
49	0x3f501ff0	0.8129873
50	0xbfc5ce7a	-1.5453637
51	0xc0be6b2f	-5.950584
52	0x3f7d8c50	0.99042225
53	0xbf2a8365	-0.6660674
54	0x3cd53b74	0.026029326
55	0xbfc1418d	-1.509813
56	0x3dbe62b6	0.09296171
57	0x3fdbe1db	1.7178301
58	0xbd91013b	-0.07080313
59	0xc02d1196	-2.7041984
60	0x3f59db82	0.8510057
61	0x403fc8f6	2.9966407
62	0x3f7918a1	0.97303206
63	0xbfc9e954	-1.5774331
64	0xbf954bce	-1.1663759
65	0x3f97ff1f	1.1874732
66	0x3f010764	0.504019
67	0x3d8cad7e	0.068690285
68	0x3ef470c4	0.47742283
69	0x3ecbdc4a	0.39816505
70	0xbebb7ffa	-0.36621076
71	0xbfcb929b	-1.5904115
72	0xbfa8c61b	-1.3185457
73	0xbe61902c	-0.22027653
74	0xbe2ce19b	-0.16882937
75	0xc03f739d	-2.9914315
76	0xbe97f139	-0.29676226
77	0xc01c1150	-2.4385567
78	0x3f33a068	0.70166636
79	0x3e967bf7	0.29391453
80	0xbe22d90d	-0.15903111
81	0x3e3576a8	0.17721045
82	0xbfa29bef	-1.2703837
83	0xbfedf8e5	-1.8591582
84	0x3fca9167	1.5825623
85	0xbf415a8e	-0.755288
86	0xbdf61bdc	-0.120170325
87	0x3f9f3c11	1.2440206
88	0xbfbd7790	-1.4802113
89	0xc000c812	-2.0122113
90	0x3eb9d1c9	0.36292866
91	0xbee1e75c	-0.44121826
92	0xbec2a224	-0.38014328
93	0x3ea74d8c	0.3267635
94	0xbf7ef4bb	-0.9959218
95	0x3fbcbe24	1.4745526
96	0x3f866fd0	1.0502872
97	0xbeb93e42	-0.3618031
98	0x40553a00	3.331665
99	0x408d04c7	4.406833
100	0xbf1b9f5e	-0.6079005
101	0xc0252974	-2.580655
102	0x3f074c20	0.5285053
103	0x3f4a9423	0.7913229
104	0x3f9bff89	1.2187358
105	0x405dd515	3.4661305
106	0xbf2e6ee2	-0.68137944
107	0xbcefecd4	-0.029287733
108	0x3df4024e	0.11914502
109	0x4045e7a3	3.092263
110	0xbf012e00	-0.50460815
111	0x3f73df04	0.9526217
112	0xbf2c325b	-0.67264336
113	0x3d9e1e2b	0.07720598
114	0x3f330dcc	0.6994293
115	0xc0a7385c	-5.22563
116	0xbe3965f9	-0.18105306
117	0x406e73a0	3.7258072
118	0xbf402a81	-0.75064856
119	0xc0725b50	-3.7868233
120	0xbf81ec08	-1.0150156
121	0xbdd647c8	-0.1046291
122	0x402af5d4	2.6712542
123	0x4091953d	4.5494676
124	0x3f25a13c	0.6469915
125	0xbf9714d9	-1.1803237
126	0xbd63d322	-0.055621274
127	0xc0683ecc	-3.6288328
128	0xbfb32092	-1.3994315
129	0xbfe5a40f	-1.7940692
130	0xbf8d0a43	-1.1018757
131	0xbf2cd008	-0.6750493
132	0xbee60ce3	-0.44931707
133	0xbecfe4a2	-0.4060412
134	0xbf909b9f	-1.1297492
135	0xc08a046e	-4.3130407
136	0x3f3d79af	0.740138
137	0xbeafa9ee	-0.34309334
138	0x3f87e3d3	1.0616401
139	0x3e81743e	0.25283998
140	0xc0d23bf2	-6.5698175
141	0xc14d86e5	-12.845433
142	0xbfab0014	-1.3359399
143	0xc07eda0f	-3.9820592
144	0x3f23a3b9	0.63921696
145	0xbf36e0cb	-0.71436757
146	0xc0212ec3	-2.518479
147	0x3f866c95	1.0501887
148	0x3fc20318	1.5157194
149	0x401d6834	2.459485
150	0x3f11eda4	0.57003236
151	0x3ec0ae94	0.37633193
152	0xbf20288b	-0.62561864
153	0x3e98ec64	0.29867852
154	0x40075fb2	2.1152158
155	0x4124a6b8	10.290703
156	0xbfb4d880	-1.412857
157	0xc029d45d	-2.6535866
158	0xbd85a6ba	-0.06525941
159	0xbf76d6ab	-0.9642131
160	0xbf92fed2	-1.1484015
161	0x3e5eb5d1	0.21749045
162	0x3f0bdf62	0.5463773
163	0x400018c1	2.0015109
164	0xbf082c80	-0.531929
165	0x3fb3df74	1.4052567
166	0xbf107068	-0.5642152
167	0x400caf6c	2.198207
168	0xbf341834	-0.7034943
169	0xbea3b2ba	-0.31972295
170	0x3e20938c	0.15681285
171	0xbf08d639	-0.5345188
172	0x3faef21a	1.3667634
173	0x3e9b00e3	0.30274114
174	0xbef46b53	-0.47738132
175	0x3eea0e3f	0.45713994
176	0xbf8dab6a	-1.1067936
177	0x3f073bcf	0.52825636
178	0xbfb6c424	-1.4278607
179	0x408671c0	4.2013855
180	0x3f1faa0d	0.6236885
181	0x3eff7b49	0.49898747
182	0xbd574cb9	-0.052563403
183	0x401c4390	2.4416237
184	0xbd92e2ec	-0.07172188
185	0x40836b22	4.1068277
186	0xbfcfe75c	-1.624248
187	0xbe8af0fd	-0.27136984
188	0x3c8314b1	0.016001077
189	0xbf80895d	-1.004192
190	0xc023355b	-2.5501316
191	0xc0d78b97	-6.73579
192	0xc02269c4	-2.5377054
193	0xc0c6a483	-6.207582
194	0x3fefca29	1.8733569
195	0x40fe2828	7.942402
196	0xc004fd73	-2.0779693
197	0xbfe491dc	-1.7857013
198	0x3f81cfb8	1.0141516
199	0xbd16c441	-0.036808256

weight_hh_l0 f4 [100, 100]
0	0xbdb88b82	-0.09010984
1	0x3c8736d4	0.016505636
2	0x3d933412	0.07187666
3	0xbe064928	-0.13113844
4	0xbdf15701	-0.11784173
5	0x3d8fc698	0.070203006
6	0x3d172106	0.036896728
7	0x3e22a3ef	0.15882848
8	0x3e022b61	0.1271186
9	0xbaa8c707	-0.0012876698
10	0xbdcb46fc	-0.099256486
11	0xbdc92d4a	-0.09823091
12	0x3dc18499	0.09449119
13	0xba22a304	-0.0006204101
14	0x3e855c34	0.26046908
15	0xbdd82cd7	-0.105554275
16	0xbdf6452b	-0.120249115
17	0xbe6deb29	-0.23234238
18	0x3cfa586a	0.030559737
19	0x3e38a24e	0.18030664
20	0xbc12d455	-0.008961757
21	0xbe022a88	-0.12711537
22	0x3e03f68d	0.1288702
23	0xbdbb74e0	-0.091531515
24	0x3df5a61d	0.11994574
25	0x3df453f5	0.11930076
26	0xbdfbf271	-0.123021014
27	0xbe53626f	-0.20643018
28	0xbd92de68	-0.07171327
29	0xbdfbe2b0	-0.122990966
30	0x3e152738	0.14565742
31	0xbdaafeae	-0.083493575
32	0x3d196e59	0.03745875
33	0xbd152947	-0.03641632
34	0x3e2390e4	0.1597324
35	0x3dd704d1	0.104989655
36	0x3e05d37d	0.13068958
37	0x3d01f5cc	0.03172855
38	0xbd094d4c	-0.03352098
39	0xbbd53d18	-0.006507527
40	0xbd800acd	-0.0625206
41	0x3e4d6c3e	0.20060822
42	0xbde81f14	-0.11334053
43	0x3e36279d	0.17788549
44	0xbdda4060	-0.1065681
45	0x3e276bb4	0.16349679
46	0x3e9869a2	0.2976809
47	0x3dd2d17f	0.102938645
48	0x3b7a2c62	0.0038173427
49	0x3c9ac668	0.018893436
50	0xbdd6bd08	-0.104852736
51	0x3d9301f0	0.07178104
52	0xbd892ae3	-0.06697633
53	0x3e9f337c	0.31093967
54	0x3da22f6e	0.07919203
55	0x3ea8c5f3	0.32963523
56	0x3d99afb5	0.075042166
57	0x3d5944c5	0.0530441
58	0x3dd25710	0.10270512
59	0xbe87c418	-0.26516795
60	0x3dd44362	0.10364415
61	0x3e2c435a	0.16822568
62	0x3af4f8e5	0.0018689899
63	0xbe31ed36	-0.17375645
64	0xbd1335a8	-0.035939842
65	0x3daaaa9f	0.08333325
66	0x3ca19cec	0.019728146
67	0x3d36c511	0.04462153
68	0xbc472bc5	-0.012156432
69	0xbe44699f	-0.19180916
70	0x3d90cbfa	0.070701554
71	0xbe06cdf8	-0.13164508
72	0xbe23a94e	-0.15982553
73	0xbdf0dcca	-0.11760862
74	0xbd1ff920	-0.039055943
75	0xbe9880fe	-0.29785913
76	0x3e82f22a	0.25575382
77	0x3d80eb9f	0.06294941
78	0x3e4f2fcf	0.20233081
79	0xbe9d8c46	-0.30771083
80	0x3df99e88	0.121884406
81	0xbe05e780	-0.13076591
82	0x3ddc1249	0.10745675
83	0x3c59ce2b	0.013293783
84	0xbce0aec1	-0.02742708
85	0x3d76d334	0.060260013
86	0xbc87443e	-0.016512033
87	0x3e6071d1	0.21918418
88	0x3dfd0fe4	0.123565465
89	0x3ebf4c3a	0.37362844
90	0xbe29c5ed	-0.16579409
91	0x3bd31d5f	0.0064427103
92	0xbdd82fa7	-0.10555964
93	0x3e32c470	0.17457747
94	0xbdc8d19e	-0.09805606
95	0xbe1d2c58	-0.15348947
96	0xbd80f607	-0.06296926
97	0x3e185507	0.14876185
98	0x3b2e3c6e	0.0026586312
99	0xbd4b1035	-0.049576003
100	0x3e091721	0.13387729
101	0x3a9e2d15	0.0012067879
102	0x3e1e553e	0.15462205
103	0xbea93ae8	-0.33052754
104	0xbdce43f5	-0.100715555
105	0x3e91c6ca	0.28471977
106	0xbd09ed1c	-0.03367339
107	0x3e3af3b2	0.18257025
108	0x3e4424a2	0.191546
109	0xbe1d9ef4	-0.15392667
110	0xbe5df236	-0.21674427
111	0x3d953511	0.07285512
112	0x3e320bca	0.1738731
113	0xbc6c3e0d	-0.014419091
114	0x3d688e64	0.05677642
115	0x3d912465	0.0708702
116	0x3d6bbbe7	0.057552245
117	0xbe7a3c60	-0.24437094
118	0x3e9ca3dc	0.30593765
119	0x3cb89031	0.022529693
120	0xbd4637ec	-0.048393175
121	0x3e0e3ccb	0.13890378
122	0x3d172871	0.036903802
123	0xbe379368	-0.17927325
124	0x3e384670	0.1799562
125	0xbd8b7c19	-0.06810779
126	0xbe6d154c	-0.23152655
127	0xbd0bb1c7	-0.03410509
128	0x3cf351ca	0.029702086
129	0xbe24d875	-0.16098197
130	0xbddf0418	-0.10889453
131	0xbda83b53	-0.0821444
132	0x3d558c59	0.0521358
133	0xbd8f089b	-0.06984063
134	0x3e8fd7f8	0.2809446
135	0xbd18e52b	-0.037327927
136	0x3e6649d1	0.22489096
137	0x3b778d0f	0.0037773286
138	0x3daa12db	0.08304378
139	0x3c78a000	0.015174866
140	0xbea61c6c	-0.3244356
141	0xbc8b62a4	-0.017014809
142	0xbc606b7a	-0.013697499
143	0xbe0c9d0c	-0.13731784
144	0x3e029ec7	0.12755881
145	0x3e310b2d	0.1728942
146	0x3e0f09db	0.13968603
147	0xbde7de08	-0.11321646
148	0x3ddcbdf1	0.10778416
149	0xbddc248c	-0.10749158
150	0xbe03d5de	-0.12874553
151	0xbd66ea2f	-0.05637568
152	0xbe1e0e9d	-0.15435262
153	0x3e375734	0.17904359
154	0xbd970f89	-0.0737601
155	0x3de21711	0.11039556
156	0xbcbac40e	-0.022798564
157	0x3e48d8d6	0.19613966
158	0xbd514ad9	-0.05109677
159	0x3cfdfbf0	0.031003922
160	0x3d59ac2a	0.053142704
161	0x3d609ade	0.054835193
162	0xbe452b83	-0.1925488
163	0xbe2a1686	-0.16610155
164	0x3c3eee5d	0.01165351
165	0xbe6ba415	-0.23011811
166	0xbd61400a	-0.054992713
167	0x3c804a7b	0.015660515
168	0x3d054ddd	0.03254496
169	0xbe4f9be8	-0.20274317
170	0xbf1c927a	-0.61161005
171	0x3e0753d3	0.1321557
172	0xbdcbd4fa	-0.099527314
173	0x3e083a7c	0.1330356
174	0xbddb154b	-0.10697421
175	0xbeaa312d	-0.33240643
176	0x3dfb30cf	0.12265169
177	0x3f05d9ab	0.5228526
178	0xbd174102	-0.03692723
179	0xbd251e90	-0.04031235
180	0x3e3ea474	0.18617421
181	0xbe10afd6	-0.14129576
182	0x3e7da4c8	0.2476989
183	0x3cdc0082	0.02685571
184	0xbe4ef01a	-0.20208779
185	0x3dc5b47d	0.09653566
186	0xbd935d31	-0.07195509
187	0x3e1aceb9	0.15117921
188	0xbdb98fd2	-0.09060635
189	0xbe0976c5	-0.13424213
190	0xbe73c3e5	-0.23805197
191	0xbcc58e4e	-0.024115708
192	0xbeb276e1	-0.34856322
193	0x3db3ec1e	0.0878527
194	0xbe14b92a	-0.1452376
195	0xbc191eee	-0.009345753
196	0x3e781ade	0.24228999
197	0x3e5483d5	0.20753415
198	0xbd19cb64	-0.037547484
199	0xbd7215f2	-0.05910296
200	0x3db7ef83	0.0898123
201	0x3db8bcab	0.090203606
202	0x3f0f028a	0.5586325
203	0xbd98edd0	-0.07467234
204	0xbe8c6d28	-0.2742703
205	0x3d9c31d3	0.07626691
206	0xbdd37220	-0.10324502
207	0xbdf7adfd	-0.120937325
208	0x3d9beba7	0.076133065
209	0x3e4045bf	0.18776606
210	0x3d7047bd	0.058662165
211	0xbe72592f	-0.23666833
212	0x3e4dedee	0.20110294
213	0x3d5b139b	0.053485494
214	0x3e15c0a5	0.1462427
215	0xbdcf4a15	-0.10121552
216	0xbe623058	-0.22088754
217	0x3d0b23ef	0.033969816
218	0x3df8a56b	0.12140926
219	0xbe5a32dc	-0.21308464
220	0x3e02c977	0.12772165
221	0x3e0a6063	0.13513331
222	0xbe5562e1	-0.208385
223	0x3e3abc6a	0.18235937
224	0x3e215a4b	0.157571
225	0xbcfb465c	-0.030673198
226	0xbea6e407	-0.32595846
227	0xbdc14f2c	-0.09438929
228	0x3d73cd98	0.05952224
229	0xbe162ac6	-0.14664754
230	0x3e7d379c	0.24728245
231	0xbe3a50d1	-0.18194892
232	0x3e1ae16c	0.15125054
233	0xbe39fbb6	-0.18162426
234	0x3e348a3a	0.17630854
235	0x3d3e903a	0.046524264
236	0x3ed23eb9	0.4106348
237	0xbe100c2c	-0.14067143
238	0xbe53507c	-0.20636171
239	0xbd20e1dc	-0.039277896
240	0xbdf95989	-0.121752806
241	0x3cada782	0.021198038
242	0xbe9e3cc4	-0.30905735
243	0xbc2bea06	-0.010492807
244	0x3dcce787	0.10005098
245	0x3e6b6db4	0.22991067
246	0x3ede5563	0.4342452
247	0x3dea0b7f	0.11427974
248	0xbcfe0e37	-0.031012638
249	0xbe318ae1	-0.17338134
250	0xbdaf02d3	-0.085454606
251	0x3e82093c	0.2539767
252	0xbdb179b5	-0.08665792
253	0x3e19df3c	0.15026563
254	0x3dfc8fca	0.12332113
255	0x3e5d33a4	0.2160173

bias_ih_l0 f4 [100]
0	0x3e722ab5	0.23649104
1	0x3e3a34dd	0.18184228
2	0xbe2ba7ed	-0.16763277
3	0xbea98740	-0.33111
4	0xbe1161c7	-0.14197455
5	0x3e14fce7	0.145496
6	0x3eb83653	0.35978946
7	0x3ef26732	0.47344357
8	0x3f2c65c6	0.67342794
9	0xbf4c24c0	-0.79743576
10	0xbece5f42	-0.4030705
11	0xbe8db3dd	-0.27676287
12	0xbe22864c	-0.15871543
13	0x3e2c0ccd	0.16801758
14	0x3eb0764b	0.3446525
15	0xbe017916	-0.12643847
16	0x3e4c4efa	0.19952002
17	0xbd80b63e	-0.0628476
18	0x3f29a617	0.6626906
19	0x3d092647	0.03348377
20	0xbee39dcb	-0.44456324
21	0xbeb90451	-0.36136106
22	0x3ea13ff7	0.31494114
23	0xbf885633	-1.0651306
24	0x3e4db8ee	0.20090076
25	0xbdcf68b9	-0.10127396
26	0x3e97f4e5	0.29679027
27	0x3cf4abb1	0.029867025
28	0x3f31c0ec	0.69435
29	0xbd8065c4	-0.0626941
30	0xbd2428cf	-0.04007798
31	0x3c858e19	0.016303109
32	0x3eab425e	0.33449072
33	0xbe544564	-0.20729595
34	0xbea07924	-0.31342423
35	0xbe2a1b27	-0.1661192
36	0xbcafb344	-0.021447785
37	0xbe3ad085	-0.18243606
38	0x3d2850a4	0.04109253
39	0xbe378d3c	-0.1792497
40	0xbeeada84	-0.4586984
41	0x3f00266f	0.50058645
42	0xbd15bec9	-0.0365589
43	0xbe841b81	-0.25802234
44	0xbe9db449	-0.3080161
45	0x3ec322e9	0.38112572
46	0xbeba967e	-0.3644294
47	0xbf086a69	-0.5328737
48	0x3e852097	0.26001427
49	0x3e9673ed	0.2938532
50	0xbeb668a8	-0.3562672
51	0xbe25de3d	-0.16198058
52	0x3e050e89	0.12993826
53	0xbe09c32c	-0.13453358
54	0x3e32141b	0.17390482
55	0x3ddfd316	0.10928933
56	0xbf7a83c1	-0.9785729
57	0xbe38c79f	-0.180449
58	0xbd95dea4	-0.07317856
59	0x3e0ce520	0.13759279
60	0x3f19ebbd	0.60125333
61	0x3ead944c	0.33902204
62	0xbf059c68	-0.5219178
63	0xbf15208c	-0.5825279
64	0xbdf48633	-0.11939659
65	0xbde224b5	-0.110421576
66	0xbcfdcc51	-0.030981215
67	0xbe6e8619	-0.23293342
68	0x3f1861e3	0.59524363
69	0xbf388862	-0.72083104
70	0x3d52d1aa	0.051469482
71	0x3cb87728	0.022517756
72	0xbc066349	-0.008202382
73	0x3e10eda8	0.14153159
74	0xbb747208	-0.0037299413
75	0x3e9a6665	0.30156246
76	0xbe2f0c69	-0.17094578
77	0x3e1010f9	0.14068975
78	0xbd824194	-0.06360164
79	0xbe1ff061	-0.15619041
80	0xba9bf96e	-0.0011899897
81	0x3de13865	0.109970845
82	0x3f21a305	0.63139373
83	0xbcbb117a	-0.022835482
84	0xbdc584dd	-0.09644482
85	0x3ee8c582	0.45463187
86	0x3d869497	0.0657131
87	0xbde20f7c	-0.1103811
88	0xbf2ef2ab	-0.6833903
89	0x3ee1b9d0	0.44087076
90	0xbe122e7c	-0.14275545
91	0x3e7edab1	0.24888112
92	0x3daa435a	0.083136275
93	0x3f10f5fa	0.5662533
94	0xbea892ec	-0.32924592
95	0xbd19fa1a	-0.03759203
96	0xbe10aa6b	-0.1412751
97	0x3d068d18	0.0328494
98	0x3e38ba7b	0.18039887
99	0x3eac8f28	0.3370297

bias_hh_l0 f4 [100]
0	0x3e74aa80	0.23893166
1	0x3e8ec9b4	0.27888262
2	0xbe2197d0	-0.15780568
3	0xbee9bed6	-0.4565341
4	0xbd3bc301	-0.045840267
5	0x3e98a2c8	0.29811692
6	0x3eb3e5b7	0.35136196
7	0x3f088fd8	0.5334449
8	0x3f27d7fe	0.6556395
9	0xbf4b0f6b	-0.793204
10	0xbed36207	-0.41285726
11	0xbe6afa4e	-0.22947046
12	0xbca14fb0	-0.019691318
13	0x3e73616b	0.23767631
14	0x3ec0655c	0.3757733
15	0xbda6911a	-0.08133145
16	0x3e87378d	0.2640957
17	0xbd6d708e	-0.05796867
18	0x3f2837e7	0.657103
19	0x3d8a6b88	0.06758791
20	0xbeb62440	-0.35574532
21	0xbecfe61e	-0.40605253
22	0x3ee0008d	0.4375042
23	0xbf7ec57a	-0.99520075
24	0x3e00ac00	0.12565613
25	0xbc4a86d1	-0.012361244
26	0x3e9cce46	0.30626124
27	0xbca539f2	-0.020169232
28	0x3f165345	0.5872081
29	0xbd395677	-0.045248475
30	0xbe4eb7d9	-0.2018732
31	0xbdff466d	-0.124646045
32	0x3ebdc741	0.3706608
33	0xbe133d38	-0.14378822
34	0xbe827f64	-0.25487816
35	0xbe81be78	-0.2534063
36	0xbdce96e0	-0.10087371
37	0xbe57275a	-0.21011105
38	0x3d4f658a	0.050633945
39	0xbe172630	-0.14760661
40	0xbebe3034	-0.3714615
41	0x3ec73b51	0.38912442
42	0x3ccaa123	0.02473504
43	0xbe9de00f	-0.30835006
44	0xbe8916e2	-0.2677527
45	0x3ebc1a27	0.36738703
46	0xbeedb77a	-0.46429044
47	0xbf1319cd	-0.57461244
48	0x3ea66d80	0.32505417
49	0x3e50d103	0.20392232
50	0xbeb84c11	-0.35995534
51	0xbdd1c41d	-0.10242484
52	0x3e16f2c0	0.1474104
53	0xbd0baa8a	-0.034098186
54	0x3e8fba67	0.280719
55	0x3e2bae6e	0.16765758
56	0xbf56de8b	-0.83933324
57	0xbe1852fb	-0.14875405
58	0xbe4d0418	-0.20021093
59	0x3cd12729	0.025531368
60	0x3f154c71	0.58319765
61	0x3ea8443d	0.32864562
62	0xbeeb7c41	-0.45993236
63	0xbf0a4b26	-0.5402092
64	0xbe129368	-0.14314044
65	0xbe0da59c	-0.13832706
66	0xbd6a135d	-0.057147373
67	0xbdff8ce5	-0.124780454
68	0x3f0c36c8	0.5477109
69	0xbf481e73	-0.7817146
70	0x3d55f0bc	0.052231535
71	0xbdcea716	-0.10090463
72	0xbdb662be	-0.08905552
73	0x3dd42766	0.10359077
74	0xbc47eead	-0.012202901
75	0x3ed2514d	0.41077653
76	0xbe5cee07	-0.21575175
77	0x3e54cddf	0.20781659
78	0xbe427875	-0.18991263
79	0xbdbf9b06	-0.0935574
80	0xbe182075	-0.14856131
81	0x3e21e00b	0.15808122
82	0x3f2095b8	0.6272845
83	0xbe252dc3	-0.16130738
84	0xbe277ecc	-0.16356963
85	0x3ee75235	0.45179906
86	0x3e4d1289	0.20026602
87	0xbdad2d4d	-0.08455906
88	0xbf1635fe	-0.58676136
89	0x3ef5cadf	0.4800634
90	0xbe0fc50e	-0.14040014
91	0x3ebbf921	0.36713508
92	0x3e017e52	0.12645844
93	0x3f2eee14	0.6833203
94	0xbea2b2b1	-0.31776956
95	0xbd28f975	-0.041253526
96	0x3bd1ecdf	0.006406411
97	0x3ca72eba	0.020408023
98	0x3e743b2a	0.23850694
99	0x3e98ce7f	0.29845044

weight_ih_l0_reverse f4 [100, 2]
0	0xc09edf20	-4.964737
1	0xc0630797	-3.5473382
2	0x3fd18913	1.6369957
3	0xbfb0902a	-1.3793995
4	0xbffed839	-1.9909736
5	0xbf9c7c16	-1.2225368
6	0x3fedfe9b	1.8593324
7	0x3f9b376b	1.2126287
8	0xbf1fba80	-0.6239395
9	0xbfef4d08	-1.8695383
10	0x3f7f3996	0.99697244
11	0x3e030d61	0.12798072
12	0xc048e147	-3.1387498
13	0xc08d8b3f	-4.423248
14	0xc06ce17d	-3.7012627
15	0xc10637d1	-8.388627
16	0xbf085ff8	-0.53271437
17	0xc101205d	-8.070401
18	0xc0e39ec8	-7.1131325
19	0x40f8ffb7	7.781215
20	0xbf27d683	-0.65561694
21	0xbf75a2a8	-0.9595132
22	0x3f821a06	1.0164192
23	0x3fd3325e	1.6499746
24	0xbf8ef628	-1.1168871
25	0xc067b6ac	-3.6205244
26	0x406dcae2	3.715508
27	0xc0bab2c0	-5.83432
28	0xc0a5a7ae	-5.1767187
29	0x3e646a00	0.22306061
30	0x3f0f0b1f	0.55876344
31	0xc025504a	-2.5830255
32	0xc0065280	-2.0987854
33	0x411829ed	9.510236
34	0x406cca48	3.6998463
35	0xc0d01dd1	-6.5036397
36	0xbe84393b	-0.25824913
37	0xc0a236f4	-5.069208
38	0xbf1d8718	-0.6153426
39	0xc08a3b20	-4.3197174
40	0xbfed73c2	-1.8550951
41	0xbff54e2f	-1.9164485
42	0xbf932dd5	-1.1498362
43	0xc05bbf62	-3.433556
44	0xbf7e12d9	-0.9924751
45	0xbf15ae18	-0.5846877
46	0x40104e46	2.2547774
47	0x4011f3a0	2.2804947
48	0xbe940fe2	-0.28918368
49	0xc08210da	-4.064557
50	0x3f8f6e91	1.1205617
51	0xc08ca3d3	-4.394998
52	0x400cd4fb	2.2004993
53	0x3f090e76	0.5353769
54	0x4088b97f	4.2726436
55	0xc00f0eb6	-2.235273
56	0xc0b54bf3	-5.665521
57	0x3f88441d	1.0645787
58	0x402205d8	2.5316067
59	0x3f88b183	1.0679172
60	0xbf459613	-0.7718212
61	0xc0a48cd6	-5.142192
62	0x4028b01a	2.6357484
63	0x3fa2bf51	1.2714635
64	0xc01885a8	-2.3831577
65	0x3e40a686	0.18813524
66	0x3f9803c2	1.1876147
67	0x4082293b	4.067533
68	0xc0366e59	-2.850485
69	0x3fd0b700	1.6305847
70	0xc07604e8	-3.8440495
71	0xbffb131d	-1.9615208
72	0x3ede7940	0.4345188
73	0xc04d9d01	-3.2127078
74	0x4032b17f	2.7920835
75	0x408561fd	4.1682115
76	0x3f14a756	0.58067834
77	0xc0429c07	-3.0407732
78	0xbf483207	-0.78201336
79	0xc04c3365	-3.1906369
80	0x40526289	3.287264
81	0xc00cd607	-2.2005632
82	0xbe7a559e	-0.24446723
83	0xc0dc8598	-6.891308
84	0x3ea95dc7	0.3307936
85	0x3fe9802a	1.8242238
86	0xbf204bba	-0.6261555
87	0xbfc6a1a4	-1.5518079
88	0x404dd1c3	3.2159278
89	0x410243ab	8.1415205
90	0x40d92a9f	6.786453
91	0x3ffd3443	1.9781574
92	0xc06d8e2b	-3.7118022
93	0x4113e0e3	9.242404
94	0x3fec99de	1.8484457
95	0x40ea2c25	7.3178887
96	0xc0a28fc4	-5.0800495
97	0x3fe1a7e1	1.7629358
98	0x4000ca97	2.012365
99	0x40322a72	2.7838407
100	0x40d51c89	6.6597333
101	0xc074c3a2	-3.8244405
102	0xc04c5989	-3.1929648
103	0x412e3711	10.888444
104	0xbfe87b9d	-1.8162724
105	0xbfd995c1	-1.6998826
106	0x3f00b169	0.50270706
107	0xc06ed9d7	-3.732046
108	0x3fa60302	1.2969668
109	0x3fcf946b	1.6217169
110	0x4050051d	3.250312
111	0xbfd819f8	-1.6882925
112	0x40825a03	4.0734878
113	0x3fa504da	1.2892106
114	0xc04612f6	-3.0949073
115	0x3f7a15dd	0.9768961
116	0x40aa33bc	5.318815
117	0x3d35690c	0.044289634
118	0xc0327ee0	-2.7889938
119	0x408e7711	4.4520345
120	0xc0ef4a03	-7.4777846
121	0x4059caa5	3.4029934
122	0x3fa2c5db	1.2716631
123	0xc09b961f	-4.8620753
124	0x401a0d46	2.4070601
125	0xc055ad43	-3.3387
126	0x3f7f1728	0.9964471
127	0x400491b9	2.0713942
128	0xbfab98df	-1.3406028
129	0xbff7a63d	-1.9347607
130	0xc0f19050	-7.5488663
131	0x4021f130	2.530346
132	0x3f33f677	0.7029795
133	0x402a5a10	2.661747
134	0xbfcd95b4	-1.6061311
135	0x409994f8	4.7994347
136	0x3e9191b7	0.28431484
137	0x40d51d62	6.659837
138	0x40d20bad	6.5639253
139	0xc03dd8a3	-2.9663475
140	0x40a0f8e0	5.0303802
141	0xc11a03b7	-9.625907
142	0xc0fff8f9	-7.999142
143	0x40d64c3c	6.696806
144	0xc017dc9c	-2.37284
145	0xc0762a8f	-3.8463476
146	0x40241e1a	2.5643373
147	0x3f87bcbc	1.0604472
148	0x400c820f	2.1954381
149	0x40aaa626	5.332782
150	0x409615ed	4.6901765
151	0xbf974775	-1.1818682
152	0xc0020205	-2.0313733
153	0xbf251df9	-0.6449886
154	0x40b03706	5.5067167
155	0x4064d6a0	3.5755997
156	0x40220653	2.531636
157	0x3f302262	0.68802464
158	0x3f14a1d7	0.5805945
159	0xc031d966	-2.778894
160	0xbff417ef	-1.9069804
161	0xc09cd7d1	-4.901345
162	0xc0503705	-3.2533581
163	0x40b7f2eb	5.748403
164	0x40fde23f	7.933868
165	0xbfd1f4c3	-1.640282
166	0xc05b65d4	-3.42809
167	0x408e327f	4.443664
168	0xc046e620	-3.1077957
169	0x3e18ebad	0.14933653
170	0xc0e3cb35	-7.1185555
171	0xc026f1aa	-2.6085
172	0xbe9102fa	-0.28322583
173	0xc0a596bf	-5.1746516
174	0xc0c9c3c5	-6.3051476
175	0x412010f6	10.004141
176	0xc0806938	-4.012844
177	0x40ee7c50	7.452675
178	0xbfd092fa	-1.6294854
179	0xbe12b81f	-0.14328049
180	0xc0bdd3ac	-5.932089
181	0xc0afc0f0	-5.492302
182	0xbeb1394e	-0.34614033
183	0x3fc144c7	1.5099114
184	0xc0d95941	-6.7921453
185	0x4117ebbb	9.495051
186	0x3ed7a2a1	0.42116264
187	0x4013a34b	2.3068416
188	0x3ea26f4a	0.31725532
189	0xc065161b	-3.5794742
190	0xc042cb95	-3.0436757
191	0x407838d3	3.8784683
192	0xc0c4ac90	-6.1460648
193	0xc08766b6	-4.231288
194	0x3ef37521	0.475503
195	0x40b372b5	5.6077523
196	0x3fba116c	1.4536567
197	0x40aae6ea	5.3406878
198	0xbfd12d6e	-1.6341989
199	0xc07fb089	-3.9951499

weight_hh_l0_reverse f4 [100, 100]
0	0x3d81b30b	0.06332978
1	0xbdbc785a	-0.09202643
2	0xbc8eaa02	-0.01741505
3	0xbe914047	-0.28369352
4	0xbe2a3aef	-0.16624044
5	0xbe220d54	-0.15825397
6	0x3dfa56a3	0.12223556
7	0xbe03540a	-0.12825027
8	0x3e38e849	0.1805736
9	0x3dafc41f	0.08582329
10	0x3e99e1fb	0.30055222
11	0xbe43795e	-0.19089267
12	0x3e230710	0.15920663
13	0xbdcdb281	-0.100438125
14	0x3d778262	0.060427077
15	0xbd89fb31	-0.06737364
16	0x3d96a50d	0.073557
17	0xbe323d92	-0.174063
18	0xbe913c41	-0.28366283
19	0x3cbd547d	0.023111576
20	0xbde3b17d	-0.111178376
21	0xbd60943c	-0.054828867
22	0x3e32f99b	0.1747803
23	0x3b1f9f4c	0.0024356423
24	0x3cba9383	0.022775417
25	0xbd2774db	-0.040882926
26	0x3d96bad9	0.07359857
27	0x3cb1f5a7	0.021723581
28	0x3e0fa036	0.1402596
29	0xbcac2a8f	-0.021016387
30	0xbe2bc735	-0.1677521
31	0xbdf4368a	-0.11924465
32	0x3da9c6ec	0.082898945
33	0x3d09b9e6	0.033624552
34	0xbe164961	-0.1467643
35	0xbb9c5910	-0.0047713593
36	0xbd337f2c	-0.043822452
37	0xbe02b76a	-0.1276528
38	0xbd345210	-0.044023573
39	0xbd110a45	-0.035410184
40	0xbd7d4941	-0.06183744
41	0xbde97fc4	-0.114013225
42	0xbb2cd616	-0.0026372722
43	0xbde12c2f	-0.109947555
44	0x3dfea3cc	0.124335855
45	0xbe25d366	-0.16193923
46	0xbac9fc7a	-0.0015410327
47	0x3c5d8bb6	0.013522079
48	0xbd8cd114	-0.06875816
49	0x3d9a262e	0.075268134
50	0xbec34718	-0.38140178
51	0xbd933716	-0.07188241
52	0xbd87c710	-0.06629765
53	0xbde6fb8d	-0.11278448
54	0x3e8a2baa	0.26986438
55	0xbd93ee6b	-0.07223209
56	0xbd89064a	-0.06690653
57	0x3dfa4306	0.12219815
58	0xbe408740	-0.18801594
59	0x3b594c6e	0.0033157128
60	0x3ef2c6ce	0.474173
61	0x3d9ef112	0.07760824
62	0xbdcdf481	-0.10056401
63	0x3c8e6255	0.017380873
64	0xbcd83099	-0.02639036
65	0x3e885264	0.2662536
66	0x3e2a803e	0.16650483
67	0xbce5ec68	-0.028066829
68	0xbdd753d1	-0.105140336
69	0xbd1a6e66	-0.03770294
70	0xbe33704b	-0.17523305
71	0xbbf21137	-0.007387306
72	0xbe4f5a57	-0.20249306
73	0xbe39ee1f	-0.18157242
74	0x3e122ea0	0.14275599
75	0xbd0fc55b	-0.035100322
76	0x3e6f6e35	0.23381884
77	0xbed03099	-0.40662077
78	0xbe736261	-0.23767997
79	0x3da5838d	0.08081732
80	0x3e04dd8c	0.12975138
81	0x3e9514d1	0.29117444
82	0xbe06048d	-0.13087673
83	0xbb9294b8	-0.004473295
84	0x3e2165fc	0.1576156
85	0x3e050863	0.1299148
86	0xbe8324cc	-0.2561401
87	0xbd8dede3	-0.06930139
88	0x3e24caaa	0.16092935
89	0xbe2fb4e5	-0.1715885
90	0xbc57b841	-0.013166488
91	0x3e397bef	0.18113683
92	0xbc13e2bc	-0.009026226
93	0x3db528b6	0.088456556
94	0xbb777753	-0.0037760332
95	0x3e10fdf0	0.1415937
96	0xbdbf0e4e	-0.093289
97	0x3e45128f	0.19245361
98	0x3e2c06fa	0.16799536
99	0x3d42f594	0.047597483
100	0x3d7a8626	0.06116309
101	0x3ce8a1b5	0.02839742
102	0xbd4d02a5	-0.05005135
103	0xbdef6720	-0.116895914
104	0x3e818ef3	0.25304374
105	0xbc59fed3	-0.013305384
106	0x3e38f39d	0.18061681
107	0x3de47c03	0.11156466
108	0x3d06ba36	0.03289243
109	0x3d61e998	0.055154413
110	0xbd91b0bc	-0.071137875
111	0xbe511cdf	-0.2042117
112	0xbe0d3dc9	-0.137931
113	0xbddd5396	-0.108069584
114	0x3da3dc21	0.08000971
115	0x3bcfe33f	0.0063442285
116	0xbe261d0b	-0.16222017
117	0x3d40edf3	0.047101926
118	0x3dff99f8	0.12480539
119	0xbe297366	-0.16547927
120	0xbdc08314	-0.09400001
121	0x3d69ae6b	0.057051104
122	0x3d15208f	0.036408003
123	0xbf0b3dee	-0.5439137
124	0x3c61732e	0.013760371
125	0xbe141164	-0.14459759
126	0xbe4e70cd	-0.20160218
127	0xbe035322	-0.12824681
128	0x3de5f5a4	0.11228493
129	0xbf0e48f9	-0.555801
130	0x3dcb05d7	0.09913223
131	0xbedab254	-0.4271418
132	0x3e426c51	0.18986632
133	0xbc4f8184	-0.012665156
134	0x3dd5d5d9	0.10441179
135	0x3e2dc42b	0.16969363
136	0x3e82eee6	0.2557289
137	0xbd36152c	-0.044453785
138	0x3e015ac8	0.12632287
139	0x3d2ac910	0.041695654
140	0xbc900685	-0.017581234
141	0xbd40dcae	-0.047085457
142	0xbcb9a334	-0.02266083
143	0x3e043050	0.12909055
144	0xbea9f881	-0.33197406
145	0xbe18619b	-0.14880984
146	0xbe8f77be	-0.28021044
147	0x3ceacc23	0.028661793
148	0xbe4a6b9f	-0.19767617
149	0xbd8a75ce	-0.06760751
150	0x3dc6db87	0.0970984
151	0x3e838c27	0.25692865
152	0x3cc05a23	0.02348048
153	0xbc6c8187	-0.014435179
154	0xbe7c49dd	-0.24637552
155	0x3e07f4e0	0.13277006
156	0x3dcc9e72	0.099911585
157	0x3db2151c	0.086954325
158	0xbeb4afff	-0.35290524
159	0xbcdebdb0	-0.02719006
160	0x3e0d63a5	0.13807543
161	0x3d4310e8	0.047623545
162	0x3d43736e	0.047717504
163	0x3ebae50d	0.36502877
164	0x3e5f60d8	0.21814287
165	0x3e4f34b9	0.20234956
166	0x3df16427	0.11786681
167	0x3d98f2ea	0.07468207
168	0xbd9cad7d	-0.07650278
169	0xbe844337	-0.2583253
170	0xbe8dbed5	-0.27684656
171	0xbdd1ce66	-0.102444455
172	0x3ebd2628	0.36943173
173	0xbd8c6dc0	-0.06856871
174	0xbdda952b	-0.10672983
175	0xbea75f3f	-0.32689855
176	0x3e45d28b	0.19318597
177	0x3d44cdce	0.048047833
178	0x3db72744	0.08943036
179	0x3e045a93	0.12925176
180	0xbc4e1855	-0.012579043
181	0xbde77fac	-0.11303648
182	0xbe8667d2	-0.26251084
183	0x3e7afc09	0.24510206
184	0x3dc7cd56	0.097559616
185	0x3dea5338	0.11441654
186	0x3dcd568e	0.100262746
187	0x3e8a46c6	0.2700712
188	0x3c0f60db	0.0087511195
189	0x3e073ee9	0.13207592
190	0x3e7bbc31	0.24583508
191	0xbe6db441	-0.23213293
192	0xbd837a05	-0.06419758
193	0xbe829d02	-0.25510412
194	0x3e2f0226	0.17090663
195	0x3d0b5b8f	0.034022864
196	0x3e2f840f	0.1714022
197	0xbe866bcd	-0.2625412
198	0xbe10f005	-0.1415406
199	0xbc957036	-0.018241983
200	0xbb4c0d78	-0.0031135958
201	0x3d1b682f	0.037941154
202	0x3dada1e2	0.08478142
203	0x3e0171a4	0.12641007
204	0xbe4e87e0	-0.2016902
205	0x3e63e083	0.22253613
206	0xbddbd0e0	-0.10733199
207	0x3e18e6df	0.1493182
208	0x3c97e1a7	0.018540217
209	0xbebebaf0	-0.37251997
210	0x3d9e7f1e	0.077390894
211	0xbe40bdfb	-0.18822472
212	0x3e47d89d	0.19516225
213	0x3df35dc2	0.11883117
214	0x3dd4d665	0.10392455
215	0x3bb0a8c3	0.0053912117
216	0xbedb89e6	-0.42878646
217	0x3dd552ec	0.10416207
218	0x3dbf8b8a	0.09352787
219	0x3e82a177	0.25513813
220	0x3e695ab6	0.2278851
221	0x3de8b0f7	0.11361878
222	0xbe81c346	-0.25344294
223	0x3cdae96e	0.026722636
224	0x3e1399d5	0.14414151
225	0x3e602c73	0.21891956
226	0x3d1ca9a7	0.03824773
227	0x3dd5070b	0.10401734
228	0xbd823eaa	-0.063596085
229	0x3d526b46	0.051371835
230	0x3e01098c	0.12601298
231	0x3ddb7fae	0.10717712
232	0x3cff3491	0.031152995
233	0xbe4eaa7f	-0.20182227
234	0x3c25e059	0.010124289
235	0x3c09dcdf	0.008414476
236	0x3e7747a5	0.24148424
237	0xbe05af60	-0.13055182
238	0x3e7c137c	0.24616808
239	0x3e108879	0.1411456
240	0xbd5cdc9a	-0.05392132
241	0xbd47bb8e	-0.04876285
242	0xbe0866c5	-0.13320453
243	0x3ca517cd	0.02015295
244	0xbe5c6626	-0.21523342
245	0xbe00866e	-0.12551281
246	0xbea0dfbf	-0.31420705
247	0xbd904c74	-0.07045832
248	0xbea68ec2	-0.3253079
249	0xbe3e5db9	-0.1859044
250	0x3e009afd	0.12559123
251	0xbeb48698	-0.35258937
252	0x3e185ac8	0.1487838
253	0x3eb99362	0.36245257
254	0xbd45436a	-0.048159994
255	0xbcf0abef	-0.02937886

bias_ih_l0_reverse f4 [100]
0	0x3db94fc4	0.09048417
1	0x3dc1e976	0.09468357
2	0x3e0ec9bd	0.13944145
3	0xbd3fa106	-0.046784423
4	0x3b7080bd	0.0036697828
5	0xbd046d5f	-0.032330867
6	0xbcd88092	-0.026428495
7	0x3db9c8c3	0.090714954
8	0x3dad8227	0.0847209
9	0x3c869651	0.016429098
10	0xbca86f34	-0.020560838
11	0xbdc08267	-0.09399872
12	0x3e0a68e7	0.1351658
13	0x3d2060e5	0.039154906
14	0x3b8a8de8	0.0042283423
15	0xbdb16a0b	-0.08662804
16	0xbc76e011	-0.01506807
17	0x3de290d2	0.110627785
18	0xbc76b1d6	-0.015057048
19	0xbda034ff	-0.07822608
20	0x3d8e0582	0.06934644
21	0x3e14f1fc	0.14545435
22	0x3c8f740f	0.017511396
23	0xbd9a2f1d	-0.075285174
24	0x3e2961f4	0.16541272
25	0xbbcf6195	-0.0063287714
26	0xbdfc9556	-0.12333171
27	0x3bf593d2	0.007494428
28	0x3e197021	0.1498418
29	0xbe043a12	-0.12912777
30	0x3daf57d3	0.08561673
31	0xbe7226a3	-0.23647551
32	0xbe24103b	-0.16021816
33	0xbd18ac51	-0.03727371
34	0x3d36daa7	0.044642117
35	0x3cb23ea1	0.02175838
36	0x3e894cc2	0.26816374
37	0xbd902016	-0.0703737
38	0x3d843eae	0.06457268
39	0x3d88d0bb	0.06680437
40	0xbd906785	-0.07050995
41	0x3dc65683	0.096844696
42	0xbe369958	-0.17831933
43	0x3d9091aa	0.07059033
44	0xbd4d4059	-0.050110195
45	0x3bd11135	0.006380225
46	0xbddf12cd	-0.10892258
47	0xbdda6ebd	-0.10665653
48	0x3bdc5415	0.0067238905
49	0xbd992316	-0.07477395
50	0xbd430cf0	-0.04761976
51	0xbdc5ca5b	-0.09657737
52	0x3cd486ba	0.025943149
53	0x3e3030d4	0.17206126
54	0xbb7855d3	-0.0037892952
55	0xbd488830	-0.048958004
56	0xbc401de8	-0.01172588
57	0xbc613719	-0.013746046
58	0xbd1f037a	-0.038821675
59	0x3d1d4778	0.038398236
60	0x3cfa72bc	0.030572288
61	0xbdaffb7f	-0.08592891
62	0xbe04f6ec	-0.12984818
63	0xbdc0f29f	-0.09421276
64	0x3d849360	0.06473422
65	0x3d8fae5d	0.07015679
66	0xbd202663	-0.03909911
67	0xbcce7a46	-0.025204789
68	0xbd9a4837	-0.07533305
69	0xbd11b516	-0.035573088
70	0xbd2a3ca4	-0.041561738
71	0xbd955c15	-0.07292954
72	0x3d8d941f	0.069130175
73	0x3d062c6a	0.0327572
74	0xbd303700	-0.043021202
75	0xbd6c9664	-0.05776061
76	0x3b9c0d5f	0.004762336
77	0xbdbde194	-0.09271541
78	0x3d6cd549	0.057820592
79	0x3dbb509d	0.09146235
80	0xbc8f2fca	-0.017478842
81	0xbdf72724	-0.12068012
82	0x3cd10400	0.025514603
83	0x3dc87e5f	0.097897284
84	0x3d8479f5	0.06468574
85	0x3b943f12	0.00452412
86	0xbca0db75	-0.019635895
87	0x3d3541fb	0.044252377
88	0x3cf42ec7	0.029807461
89	0xbea0ddef	-0.31419322
90	0x3e09dc30	0.13462901
91	0xbe485747	-0.19564544
92	0xbd844299	-0.06458015
93	0xbe6bf644	-0.23043162
94	0x3d80f340	0.06296396
95	0xbde9fbd3	-0.11424985
96	0x3df503e3	0.11963632
97	0xbd2e58b1	-0.04256505
98	0xbe0dcaa4	-0.13846833
99	0x3ca1fed2	0.019774828

bias_hh_l0_reverse f4 [100]
0	0xbbee29e9	-0.0072681797
1	0x3e0b30fa	0.13592902
2	0x3dca687d	0.09883211
3	0x3d09442c	0.03351228
4	0xbe012b4d	-0.12614174
5	0xbd259107	-0.040421512
6	0x3d62e0ff	0.055390354
7	0xbd3e53fa	-0.046466805
8	0x3d874c0d	0.066063024
9	0x3cce93c4	0.025216945
10	0xbd5cfb0b	-0.05395035
11	0xbe50c365	-0.20387037
12	0x3d31df0c	0.043425605
13	0x3d99d860	0.075119734
14	0x3c8e7efc	0.017394535
15	0xbde3c7f3	-0.11122122
16	0xbc904ce6	-0.017614793
17	0x3d4d655b	0.05014549
18	0x3d8a2a91	0.067464
19	0xbd17c5e8	-0.037053972
20	0x3d660a2d	0.056162048
21	0x3d2bd635	0.04195233
22	0x3df2ed1d	0.11861632
23	0xbda4c0e1	-0.08044601
24	0x3d1e35d2	0.038625546
25	0x3c626709	0.013818511
26	0xbce8326c	-0.028344356
27	0x3dc94634	0.09827843
28	0x3e33b2a0	0.17548609
29	0xbdf3c044	-0.11901906
30	0x3e65c38c	0.22437876
31	0xbe27534c	-0.16340369
32	0xbd82970a	-0.06376465
33	0xbbaba118	-0.0052377097
34	0x3cf98c4a	0.030462403
35	0xbdca1966	-0.098681256
36	0x3e572e1b	0.21013682
37	0x3d8bf63e	0.06834076
38	0x3db91c0b	0.09038552
39	0x3d1abfb4	0.03778048
40	0xbe80f341	-0.25185588
41	0x3e04bf1d	0.12963529
42	0xbdb668f0	-0.08906734
43	0x3baf6fb2	0.0053538913
44	0x3e146e72	0.14495257
45	0x3bf4ec30	0.007474445
46	0x3b139460	0.0022518858
47	0xbd9efc1a	-0.07762928
48	0x3c02149a	0.007939482
49	0xbdce5d6a	-0.10076411
50	0xbd53bf4a	-0.0516961
51	0x3d23606b	0.039886873
52	0x3dbeed5d	0.09322617
53	0x3e595c34	0.21226579
54	0x3dd8744e	0.10569058
55	0xbdccac58	-0.099938095
56	0xbdbdee66	-0.092739865
57	0x3dfe0f31	0.12405241
58	0xbbffe5bf	-0.0078093703
59	0x3db29f6c	0.087218136
60	0xbcc05712	-0.023479018
61	0x3d44dbd0	0.048061192
62	0xbdbd4669	-0.09241945
63	0xbd68dc76	-0.056850873
64	0xbd0b60c4	-0.03402783
65	0x3d46bee4	0.04852189
66	0xbd8790cf	-0.06619417
67	0x3ca1aeb7	0.01973663
68	0xbdcd4563	-0.10023
69	0xbd76976f	-0.060203012
70	0x3cb92362	0.02259988
71	0xbdaf1af5	-0.085500635
72	0x3d568108	0.052369148
73	0xbe1e4906	-0.15457544
74	0xbc97c9ad	-0.018528784
75	0xbe079b20	-0.13242769
76	0x3da1dd4e	0.07903539
77	0xba1664d4	-0.00057370705
78	0x3daf5de9	0.08562834
79	0x3dd28cdc	0.10280773
80	0xbdc2a3ac	-0.09503874
81	0xbd5f4fd1	-0.05451948
82	0xbc3d3fb4	-0.011550833
83	0xbcb0ad32	-0.021566961
84	0x3cec18b2	0.02882037
85	0x3c1ce7a5	0.009576713
86	0x3a05897c	0.0005094034
87	0xbd1615c4	-0.03664185
88	0xbdcc0008	-0.099609435
89	0xbe3c430d	-0.18384953
90	0x3cefc273	0.029267525
91	0xbe1e9a23	-0.15488486
92	0x3daccb9b	0.08437272
93	0xbea2bd56	-0.31785077
94	0x3d952098	0.072816074
95	0xbe4b0d01	-0.1982918
96	0x3ce0cb12	0.027440581
97	0xbd9d1613	-0.07670226
98	0x3d4ef57c	0.05052708
99	0xbd2fc935	-0.042916495

weight_ih_l1 f4 [100, 200]
0	0xbe52294b	-0.20523565
1	0x3e90fc6c	0.28317583
2	0x3dfde0fb	0.12396427
3	0xbec6c649	-0.38823155
4	0x3e527df2	0.20555857
5	0xbd8d3139	-0.06894154
6	0x3de41a0d	0.11137781
7	0x3d3f22b3	0.04666395
8	0x3e794a4d	0.2434475
9	0xbeee32b0	-0.46523046
10	0xbda2c867	-0.0794838
11	0xbeb0e04e	-0.3454613
12	0xbde73c2a	-0.11290772
13	0x3e4463b7	0.19178663
14	0x3d927f69	0.07153208
15	0x3e329b25	0.17441995
16	0xbea612e9	-0.32436302
17	0xbea373f1	-0.31924394
18	0x3ec15216	0.3775794
19	0x3c31b5c3	0.010846558
20	0xbea00dc5	-0.31260505
21	0xbe1cbf86	-0.15307435
22	0x3f9b7539	1.2145149
23	0xbe4dce98	-0.2009834
24	0xbdc8155d	-0.097697
25	0xbebc3966	-0.36762542
26	0x3e100945	0.14066036
27	0x3da8fafd	0.08250997
28	0xbe42c7e8	-0.1902157
29	0x3e976f90	0.29577303
30	0x3ec39c5b	0.38205227
31	0x3e1bb5c3	0.15206055
32	0xbe09ceda	-0.13457814
33	0xbeff4601	-0.49858096
34	0x3ca0d10f	0.019630937
35	0xbe44582d	-0.19174261
36	0xbe981f84	-0.29711545
37	0xbe323d25	-0.17406137
38	0xbbf51108	-0.007478837
39	0xbf1995a4	-0.5999396
40	0xbe1c7c08	-0.15281689
41	0x3e087c65	0.13328703
42	0x3e3fe512	0.18739727
43	0xbdf2d0fe	-0.11856268
44	0xbe3139f9	-0.17307271
45	0x3e320568	0.17384875
46	0xbe37aa48	-0.17936051
47	0xbd4a8ecb	-0.049452584
48	0x3e30729f	0.17231224
49	0x3eb34a08	0.3501742
50	0xbe1ceca5	-0.15324648
51	0x3e8321de	0.25611776
52	0xbd3efd83	-0.046628486
53	0xbe18fce4	-0.1494022
54	0x3e124bc2	0.14286712
55	0xbe3ad7e2	-0.18246415
56	0xbdd01b79	-0.1016149
57	0xbe432175	-0.19055732
58	0x3d2954fa	0.041340806
59	0x3e570a69	0.21000065
60	0x3e84a64c	0.25908124
61	0x3defc5db	0.1170766
62	0xbea1bbd1	-0.31588605
63	0xbd22562b	-0.039632957
64	0xbf05b77f	-0.5223312
65	0xbd810319	-0.06299419
66	0xbe76a00b	-0.24084489
67	0xbe24ab71	-0.16081025
68	0xbcbdd04e	-0.023170616
69	0x3dad8d9d	0.08474276
70	0xbf2a2a84	-0.66471124
71	0x3de59bb9	0.11211342
72	0x3ceddd3f	0.029036162
73	0x3e42af70	0.19012237
74	0x3e2ec781	0.17068292
75	0x3ddcec2e	0.10787235
76	0xbe784861	-0.2424636
77	0x3e8b35dc	0.2718953
78	0xbce1ec9d	-0.027578646
79	0x3e66055f	0.22462986
80	0xbd96a509	-0.07355697
81	0x3ec6baac	0.38814294
82	0x3e47be54	0.19506198
83	0x3e09d6cd	0.13460846
84	0x3e8523ea	0.26003963
85	0x3e08af1f	0.13348053
86	0xbe5cb2fc	-0.21552652
87	0xbd99c612	-0.07508482
88	0xbe259ac2	-0.16172317
89	0x3f06680e	0.52502525
90	0x3e3b3644	0.1828242
91	0x3d918922	0.07106234
92	0x3d2de796	0.042457186
93	0x3ca5e8d5	0.020252625
94	0xbecfe880	-0.4060707
95	0xbe812b22	-0.2522822
96	0xbe83f5cf	-0.25773475
97	0x3f020ad0	0.5079775
98	0x3e0a452d	0.13502951
99	0x3e6f233f	0.23353289
100	0xbe1dcc66	-0.15410003
101	0x3cf54165	0.02993841
102	0xbe90b8ca	-0.28265983
103	0xbceca866	-0.028888892
104	0xbd003322	-0.031298764
105	0x3e480a3f	0.19535159
106	0xbe3cb104	-0.18426901
107	0xbe57c9f4	-0.21073133
108	0xbe07d27c	-0.13263887
109	0x3f3982ae	0.72465026
110	0xbd47492a	-0.04865376
111	0x3df7d206	0.12100606
112	0xbd893bf6	-0.0670089
113	0xbda46ae2	-0.08028199
114	0x3e6a9879	0.22909726
115	0x3d7fce24	0.06245245
116	0xbe0c6464	-0.13710171
117	0xbe5747c6	-0.21023473
118	0xbe5ae257	-0.21375404
119	0xbcc62148	-0.024185792
120	0xbcaed20c	-0.021340393
121	0x3e55665c	0.20839828
122	0x3d75fc7d	0.060055245
123	0x3d3f503b	0.046707373
124	0xbe15692d	-0.14590903
125	0xbeb20a6d	-0.3477358
126	0x3aadfeb4	0.001327476
127	0xbc29af0a	-0.010356674
128	0x3e15ae37	0.14617239
129	0xbe5b4926	-0.21414623
130	0x3dee0728	0.11622459
131	0xbb8ba57a	-0.0042616697
132	0x3df78f26	0.1208785
133	0x3dcad66e	0.099041805
134	0x3e177c9d	0.1479363
135	0xbcc9d8ed	-0.024639571
136	0xbe65840d	-0.22413655
137	0xbd9585ca	-0.07300909
138	0xbd9fef4f	-0.07809316
139	0xbdba67c6	-0.091018245
140	0x3d19f5a8	0.03758779
141	0x3c6a448d	0.01429857
142	0xbdb85b44	-0.090017825
143	0xbe717029	-0.23577942
144	0x3e27f6df	0.16402768
145	0xbe94f0f4	-0.29090083
146	0xbda6f2e7	-0.08151799
147	0x3ebef02d	0.37292615
148	0x3f09c60a	0.5381781
149	0xbe5827ee	-0.21108982
150	0x3d94b304	0.07260707
151	0xbdfd42db	-0.12366267
152	0x3e5a49f6	0.21317276
153	0x3db7f35b	0.08981963
154	0xbe00d404	-0.12580878
155	0x3d177852	0.03697998
156	0xbe0e21a3	-0.13880019
157	0x3e3d4a21	0.18485309
158	0xbe8fed43	-0.28110704
159	0x3e4f9ce8	0.20274699
160	0x3eb91f8a	0.36156875
161	0xbdf9af2a	-0.12191613
162	0xbe1baa96	-0.15201792
163	0xbe480867	-0.19534455
164	0xbd160d1b	-0.036633592
165	0x3d0bd7f8	0.03414151
166	0x3cb68a33	0.022282695
167	0x3c8f2915	0.017475644
168	0x3e00b5bf	0.1256933
169	0xbef63c15	-0.48092714
170	0xbe7ab4ec	-0.24483079
171	0xbd217f28	-0.039427906
172	0xbce7d69a	-0.028300572
173	0x3e52e61e	0.20595595
174	0xbdf5de21	-0.12005258
175	0xbe49b9f4	-0.19699842
176	0xbe89335e	-0.26797003
177	0x3d532385	0.051547546
178	0xbdbfe74a	-0.09370287
179	0xbe86f9b0	-0.2636237
180	0xbe68349c	-0.22676319
181	0x3c64aa15	0.013956566
182	0xbe9d3a53	-0.3070856
183	0x3d91e94c	0.07124576
184	0xbe40f5a7	-0.18843709
185	0xbc8a6ac2	-0.01689661
186	0xbea2bc11	-0.31784108
187	0xbcd931eb	-0.02651306
188	0x3e82e84d	0.25567856
189	0xbd2f02eb	-0.042727392
190	0xbed5c6b6	-0.41753167
191	0xbe1e0b62	-0.1543403
192	0x3e717b80	0.23582268
193	0x3b7951e0	0.0038043186
194	0xbe38ca7f	-0.18045996
195	0x3df26baf	0.11836945
196	0xbe03b746	-0.12862882
197	0x3d96ed84	0.07369521
198	0x3e45f8d3	0.193332
199	0x3d75edb2	0.060041137
200	0x3d492c2e	0.0491144
201	0x3c02f258	0.00799235
202	0xbe3c42f0	-0.1838491
203	0xbf2ab04f	-0.66675276
204	0x3d9310be	0.07180928
205	0xbe86df5a	-0.2634228
206	0xbc9cb53c	-0.019129388
207	0x3e3fa9f5	0.18717177
208	0x3f28865f	0.65830034
209	0x3de014e8	0.109414876
210	0xbe9af91f	-0.3026819
211	0x3c547719	0.012967848
212	0xbeecd381	-0.46255115
213	0xbca6afa2	-0.02034742
214	0xbd50ce3f	-0.05097794
215	0xbe20c43a	-0.15699854
216	0x3d58b5e8	0.052907854
217	0xbeae8460	-0.3408537
218	0x3e8d4d88	0.27598214
219	0xbdf27efe	-0.11840628
220	0x3dfa60ee	0.12225519
221	0xbeabc581	-0.3354912
222	0x3facb654	1.3493142
223	0x3d9526d8	0.072827995
224	0xbdc71ca6	-0.09722261
225	0xbe95315c	-0.2913922
226	0xbe6f971f	-0.23397492
227	0x3da15f26	0.07879476
228	0xbe8a8c55	-0.2706019
229	0x3db5710a	0.08859451
230	0x3d362805	0.04447176
231	0xbe5bc279	-0.21460904
232	0x3deed291	0.11661256
233	0x3d060490	0.032719195
234	0xbda14e8b	-0.07876309
235	0xbddcbc6c	-0.10778126
236	0xbe03020c	-0.1279375
237	0xbea4ffa6	-0.32226294
238	0x3db2143d	0.086952664
239	0xbdfb6d31	-0.12276686
240	0xbd9a10c7	-0.07522731
241	0x3d91d762	0.07121159
242	0x3d381fab	0.044952076
243	0x3e9403f9	0.2890928
244	0xbe7cf2bf	-0.24701975
245	0x3d9458d1	0.07243503
246	0x3e2c16fc	0.16805643
247	0x3e1742c5	0.14771564
248	0xbe828699	-0.25493315
249	0x3eb2a2a1	0.348897
250	0xbb9e22c0	-0.00482592
251	0xbd970343	-0.07373669
252	0x3d6347c0	0.055488348
253	0x3e1fbe62	0.15599969
254	0x3e97d3ae	0.29653686
255	0xbd5be66b	-0.05368654

weight_hh_l1 f4 [100, 100]
0	0x3eb7354c	0.3578285
1	0x3d936890	0.07197678
2	0x3db1c75f	0.08680605
3	0xbd38ed26	-0.045148037
4	0x3e74e4bd	0.23915382
5	0xbbe12761	-0.0068711494
6	0x3d2dfdde	0.042478435
7	0xbcff112f	-0.031136123
8	0x3da89862	0.0823219
9	0x3dd5131c	0.104040354
10	0xbd86c7bd	-0.06581066
11	0x3e7c2c71	0.24626328
12	0x3e333fe5	0.17504843
13	0xbe0e69ef	-0.13907598
14	0x3e8ff2f9	0.2811506
15	0xbe754313	-0.23951368
16	0x3d9fd0d5	0.078035034
17	0x3f0d25ce	0.5513581
18	0xbeafe13d	-0.3435153
19	0xbb219c7e	-0.0024659927
20	0xbe897ffb	-0.26855454
21	0x3ec36199	0.381604
22	0xbe925483	-0.28580102
23	0x3e76f67a	0.24117461
24	0xbf221e51	-0.6332751
25	0x3e138fd9	0.14410342
26	0x3f066e46	0.52512014
27	0x3ebeb9a6	0.37251014
28	0x3e084707	0.13308345
29	0xbd700743	-0.058600675
30	0x3edb2f52	0.4280954
31	0xbd90127d	-0.07034776
32	0xbe92261b	-0.28544697
33	0x3eada0ef	0.33911845
34	0x3dc2ff86	0.095213935
35	0xbe7c7949	-0.24655642
36	0x3e6d1575	0.23152716
37	0x3e82a724	0.25518143
38	0x3ea51a40	0.3224659
39	0xbf02fcc6	-0.5116695
40	0xbe8c78ff	-0.27436063
41	0xbdb14811	-0.08656324
42	0x3c5f6c5f	0.0136366775
43	0x3e44fe72	0.19237688
44	0x3e574510	0.21022439
45	0x3d9b7384	0.07590392
46	0x3e43e42d	0.19130011
47	0xbde752c5	-0.11295084
48	0xbec37389	-0.38174084
49	0x3e102412	0.1407626
50	0xbe8c0ee0	-0.273551
51	0xbdda0949	-0.10646302
52	0x3e4f3ca8	0.20237982
53	0x3df80420	0.12110162
54	0x3e37c55e	0.17946383
55	0x3c37e152	0.011223154
56	0xbe0df2e8	-0.13862193
57	0xbd04ed09	-0.032452617
58	0xbdc677cc	-0.09690818
59	0x3e5a5e2a	0.21324983
60	0xbed3afb8	-0.41345
61	0x3d5eacbd	0.054363955
62	0xbeb5de44	-0.35521138
63	0x3decc1a6	0.11560373
64	0xbd9caa66	-0.076496884
65	0x3ec9018d	0.39258996
66	0x3cfefa69	0.031125264
67	0xbe6a0499	-0.22853316
68	0x3e4181df	0.18897198
69	0xbeca3a72	-0.39497715
70	0xbea6ee27	-0.3260357
71	0xbbf61a09	-0.007510428
72	0xbe07a570	-0.13246703
73	0xbdfaa013	-0.12237563
74	0xbd21f970	-0.039544523
75	0xbd8b349e	-0.06797145
76	0x3ebf54ad	0.3736929
77	0xbe164dbc	-0.14678091
78	0x3e46d336	0.19416508
79	0x3cb6c563	0.022310918
80	0x3e3af742	0.18258384
81	0x3d44b0c7	0.04802015
82	0x3d02b191	0.03190762
83	0x3f0bd02c	0.5461452
84	0xbe29c7a6	-0.16580066
85	0xbba7849a	-0.005112243
86	0xbe200bd2	-0.15629509
87	0xbd040f42	-0.032241113
88	0xbdc221b2	-0.09479083
89	0xbd8724c9	-0.06598813
90	0x3dd77b76	0.10521595
91	0x3eba6590	0.3640561
92	0xbe9fee95	-0.3123671
93	0xbd887e3e	-0.06664704
94	0x3e74f190	0.23920274
95	0xbacf54f2	-0.0015818162
96	0xbe8941f4	-0.2680813
97	0xbe077340	-0.13227558
98	0x3d710446	0.058841966
99	0x3ed5c9df	0.41755578
100	0x3e932d34	0.28745425
101	0x3ebb0cfe	0.3653335
102	0xbe1f93cc	-0.15583724
103	0x3db803eb	0.08985122
104	0xbe863f3e	-0.26220125
105	0x3dbbf751	0.09178031
106	0xbd6df22b	-0.058092277
107	0x3d679425	0.056537766
108	0xbe08d901	-0.1336403
109	0x3d7423f7	0.05960461
110	0xbdbf62b0	-0.09344995
111	0x3dde69f4	0.10860053
112	0xbd7878a6	-0.060661934
113	0x3dd546d8	0.10413903
114	0xbd838638	-0.064220846
115	0xbe789fd2	-0.24279717
116	0x3e8e71ed	0.27821293
117	0x3edabca6	0.42722052
118	0xbe1f6576	-0.15566048
119	0x3ce48e57	0.027899904
120	0x3e4f1115	0.2022136
121	0xbdba63ba	-0.091010526
122	0xbd8c087e	-0.06837557
123	0x3d6323c6	0.055454038
124	0xbe9a1db4	-0.30100787
125	0x3e4ee500	0.20204544
126	0x3ed3def1	0.41381028
127	0x3e0eee44	0.13958079
128	0x3dd6a5d7	0.1048085
129	0xbe9bd479	-0.3043554
130	0x3ed6f302	0.41982275
131	0xbe0c25ba	-0.13686267
132	0xbe97dad4	-0.2965914
133	0x3ee65667	0.44987795
134	0x3e5ddddc	0.21666664
135	0xbe7e73de	-0.24848887
136	0xbe45c057	-0.19311653
137	0x3e607f7b	0.2192363
138	0x3e74c479	0.23903073
139	0xbcacc0b5	-0.021087984
140	0xbeba29f2	-0.36360127
141	0xbdad9f55	-0.08477656
142	0xbea81b7c	-0.3283347
143	0xbaf0265f	-0.0018321982
144	0x3de62f50	0.11239493
145	0x3ed4497b	0.4146231
146	0xbd93bde6	-0.07213955
147	0x3edbaa10	0.42903185
148	0xbf2605e0	-0.64852715
149	0x3e337a6e	0.17527172
150	0xbe15af2f	-0.14617608
151	0x3c4e787e	0.01260197
152	0xbe2ed564	-0.1707359
153	0x3d7535c8	0.059865743
154	0xbe1387c1	-0.14407255
155	0xbe9ae858	-0.3025539
156	0x3e299e4a	0.16564289
157	0x3d2398e7	0.03994074
158	0xbd1e2cb2	-0.038616844
159	0x3e8bbe01	0.272934
160	0xbecd481e	-0.40094084
161	0xbd971208	-0.07376486
162	0xbeaf69f8	-0.34260535
163	0x3e09018a	0.13379493
164	0x3ea69b7b	0.32540497
165	0xbd8631de	-0.0655248
166	0x3d9fe9d5	0.07808272
167	0xbe82b647	-0.25529692
168	0x3ed326c4	0.41240513
169	0xbca34098	-0.019928262
170	0xbcc757aa	-0.024333794
171	0x3c8be232	0.017075632
172	0xbef1dcb7	-0.47238705
173	0xbeea566b	-0.45769057
174	0xbd8028e4	-0.06257799
175	0xbe11a90a	-0.1422464
176	0x3e56f8d0	0.20993352
177	0xbeb10fc7	-0.3458235
178	0xbc969851	-0.018383177
179	0xbe027ccb	-0.12742917
180	0x3e713949	0.23557009
181	0x3e5c48a2	0.21512082
182	0xbcbbe519	-0.02293639
183	0x3d9500c8	0.0727554
184	0x3ec4d13a	0.38440877
185	0xbde91631	-0.11381186
186	0xbe89fd6e	-0.26951164
187	0xbe410c5e	-0.18852374
188	0xbed1c66e	-0.40971702
189	0x3c80214c	0.015640877
190	0x3f019861	0.50623137
191	0x3f016bfa	0.50555384
192	0x3d90aee2	0.07064606
193	0xbe2345f2	-0.15944651
194	0xbd9f4633	-0.07777061
195	0xbe214d10	-0.15752053
196	0xbd8c63e2	-0.06854989
197	0xbe1e9002	-0.15484622
198	0xbead3530	-0.3382964
199	0x3ee33b30	0.44381094
200	0x3ccade12	0.024764095
201	0x3f066db1	0.52511126
202	0x3f76c12b	0.963885
203	0xbd47cd5e	-0.048779838
204	0x3d80b35d	0.06284211
205	0xbe0b465e	-0.13601062
206	0x3efc7575	0.49308363
207	0x3dd08826	0.10182218
208	0xbe8dc4de	-0.2768926
209	0x3e73bf8c	0.23803538
210	0xbe453e45	-0.19262035
211	0x3d6a4367	0.057193186
212	0xbe9fcf80	-0.31212997
213	0xbe872b6a	-0.2640031
214	0x3ea08466	0.31351012
215	0x3e4cc0c7	0.19995414
216	0x3ef9d21d	0.48793116
217	0x3e698641	0.2280512
218	0x3ebc530d	0.36782113
219	0xbda99d07	-0.08281904
220	0x3f05146e	0.519843
221	0xbe962568	-0.29325414
222	0xbf2b4bcc	-0.6691253
223	0xbe81913a	-0.25306112
224	0xbeb95450	-0.36197138
225	0xbe1e0d8f	-0.1543486
226	0x3e897816	0.2684943
227	0xbee87fdf	-0.45410058
228	0x3d9197ee	0.071090564
229	0x3dcfc478	0.10144895
230	0xbe2c59fc	-0.16831201
231	0xbe977e4a	-0.29588538
232	0xbd27c2e6	-0.040957354
233	0xbea89b3f	-0.32930943
234	0xbe7e336c	-0.24824303
235	0xbe462b73	-0.19352512
236	0x3ee4114b	0.44544443
237	0xbde720f7	-0.112855844
238	0xbf0a368b	-0.53989476
239	0xbf1530be	-0.582775
240	0x3e5e1049	0.216859
241	0x3d617c83	0.055050384
242	0xbddaad2f	-0.106775634
243	0xbde4ef23	-0.11178424
244	0xbd9288a9	-0.07154972
245	0xbe833011	-0.2562261
246	0xbec6aca0	-0.38803577
247	0xbc261bb7	-0.010138444
248	0x3e9a4ae1	0.30135253
249	0xbe403f11	-0.18774058
250	0x3e6eaeec	0.23308915
251	0xbe9a6fc9	-0.3016341
252	0x3e4dbf21	0.20092441
253	0x3ea7be46	0.32762355
254	0x3ef1f58c	0.4725765
255	0xbde838ca	-0.11338957

bias_ih_l1 f4 [100]
0	0x3f5b1cf3	0.8559105
1	0x3f13a3b0	0.5767164
2	0x3f1dee43	0.61691684
3	0x3e3372ce	0.17524263
4	0x3d6002cb	0.054690164
5	0x3d06307b	0.03276108
6	0x3d3e1021	0.0464021
7	0xbe175a9e	-0.14780661
8	0xbed0b2d5	-0.40761438
9	0x3f37015a	0.7148644
10	0xbf2fbfcc	-0.68652034
11	0xbdd56972	-0.10420503
12	0xbee775f3	-0.45207176
13	0xbf00641f	-0.5015277
14	0x3f2c0912	0.6720134
15	0xbda0f951	-0.07860053
16	0x3e801c76	0.25021714
17	0x3ef4a185	0.4777948
18	0xbdd88c5d	-0.10573647
19	0x3effa901	0.49933627
20	0xbbd44b9f	-0.0064787413
21	0x3e26b653	0.16280489
22	0xbf5f1102	-0.87135327
23	0xbe644421	-0.22291614
24	0xbf3431f0	-0.703887
25	0x3e5254ac	0.20540112
26	0x3f0e1bfb	0.55511445
27	0x3de25765	0.110518254
28	0xbe9eefd6	-0.31042355
29	0xbd8b97d7	-0.068160705
30	0x3e1e048a	0.15431419
31	0x3d6f89f2	0.058481164
32	0xbe377b7c	-0.179182
33	0x3e7a853d	0.24464889
34	0xbe68ca73	-0.22733478
35	0xbf08843a	-0.5332676
36	0x3e053ee7	0.13012277
37	0xbd8fd812	-0.07023634
38	0xbe614411	-0.21998622
39	0xbf587bc3	-0.84563845
40	0x3de7c3dd	0.11316655
41	0x3e8f7862	0.28021532
42	0xbe0a9b18	-0.13535726
43	0x3e5f2e5b	0.21795027
44	0xbd659433	-0.056049537
45	0x3e350981	0.17679407
46	0x3dea0779	0.114272065
47	0x3ec04c05	0.37557998
48	0xbdb4402b	-0.088013016
49	0xbe9dd1d5	-0.30824152
50	0x3dcbed89	0.099574156
51	0xbdae892f	-0.085222594
52	0x3e3cd7a0	0.1844163
53	0x3e8b3d7b	0.27195343
54	0xbdc78221	-0.09741617
55	0xbe9c06a2	-0.3047381
56	0xbee22af9	-0.4417341
57	0xbe57bb9d	-0.21067663
58	0x3ee9255a	0.4553631
59	0x3e71c1b1	0.23609044
60	0xbdd20b32	-0.102560416
61	0xbde14cdd	-0.11000989
62	0xbef492bc	-0.477682
63	0x3f3a4401	0.72760016
64	0x3e2ff4e3	0.1718326
65	0x3e8a656b	0.270305
66	0xbc439d41	-0.011939348
67	0x3e964840	0.29351997
68	0x3dfb9ac7	0.12285381
69	0xbe0aa4e8	-0.13539469
70	0xbd8d5b82	-0.06902219
71	0xbdc9af5e	-0.09847902
72	0xbf0ea5d5	-0.5572179
73	0xbeb375cb	-0.35050806
74	0xbe6aa61b	-0.22914927
75	0xbcfe105b	-0.031013658
76	0x3e804daf	0.25059268
77	0xba8dcf25	-0.001081918
78	0xbe948431	-0.29007104
79	0xbd856819	-0.06513996
80	0x3e80f327	0.2518551
81	0x3e4e411d	0.20142026
82	0xbe75ba54	-0.2399686
83	0x3f3aa2ca	0.72904646
84	0x3e5339c3	0.20627503
85	0xbe3008a4	-0.17190796
86	0xbee952bd	-0.45570937
87	0xbde30545	-0.110849895
88	0xbc2a619a	-0.010399247
89	0xbe878a16	-0.2647254
90	0xbd535ac1	-0.05160022
91	0x3d247f13	0.04016025
92	0x3db0edc7	0.086391024
93	0xbd8fd415	-0.07022873
94	0x3ddcfed9	0.10790796
95	0xbe42a338	-0.19007576
96	0xbe1d3f6e	-0.15356228
97	0xbe595cb5	-0.21226771
98	0xbe210e7b	-0.1572818
99	0x3e42c50b	0.19020478
