Models/LSTM testing (Oct-Dec)/rnn_v2.pth (torch, 577194 bytes, 25 tensors)

weight_ih_l0 f4 [100, 2]
0	0xbe414887	-0.18875323
1	0xbd7fe4b4	-0.062473968
2	0x3e401231	0.1875694
3	0x3f0ac0b7	0.5420031
4	0xbe8c0cca	-0.27353507
5	0xbf6eaa07	-0.9322819
6	0x3ef0d8b4	0.4704033
7	0x3d9038c6	0.07042079
8	0xbd0e66f2	-0.034766145
9	0x3f6c1d7a	0.9223248
10	0xbe097e59	-0.13427104
11	0xbe1a9f01	-0.15099718
12	0xbd92320b	-0.07138451
13	0x3e9d7d9d	0.30759898
14	0xbf0bde26	-0.54635847
15	0xbeb78bc7	-0.3584883
16	0x3eeaa4db	0.458289
17	0xbd33da9c	-0.043909654
18	0xbda157bc	-0.07878062
19	0xbee46b18	-0.44612956
20	0xbc9f2543	-0.019426947
21	0xbe97560a	-0.2955783
22	0x3db6fc90	0.08934891
23	0xbec4ed02	-0.38462073
24	0x3e410edf	0.18853329
25	0xbdfab8b1	-0.12242258
26	0xbe111dff	-0.14171599
27	0x3e023a4a	0.12717548
28	0xbd4d5022	-0.05012525
29	0xbeb8c7c3	-0.36089906
30	0x3e0de676	0.13857445
31	0xbeccf420	-0.40030003
32	0xbe36f754	-0.17867786
33	0xbeddd78b	-0.4332851
34	0xbd13e5bf	-0.036107775
35	0xbe9ae198	-0.3025024
36	0xbdc25a64	-0.09489897
37	0x3e707a5e	0.2348418
38	0xbd4e5d02	-0.050381668
39	0xbf15c02e	-0.5849637
40	0xbd111fcf	-0.035430726
41	0x3f11afce	0.5690888
42	0xbe36f573	-0.17867069
43	0x3e9f652d	0.31131878
44	0xbd375e29	-0.044767532
45	0xbdac22f1	-0.08405102
46	0x3e4862e2	0.19568971
47	0x3dc473ec	0.09592423
48	0xbc006d93	-0.0078386245
49	0xbed0d683	-0.4078866
50	0xbcb56649	-0.0221435
51	0x3ee6353b	0.44962487
52	0x3ef3c667	0.47612306
53	0x3ddbe08e	0.1073619
54	0x3d2dd869	0.042442713
55	0x3f2b9a83	0.6703264
56	0xbe79ac3e	-0.24382111
57	0x3e5d131e	0.21589324
58	0x3e0fa66b	0.14028327
59	0x3de82def	0.11336886
60	0x3e7804b4	0.24220544
61	0x3dc9461d	0.09827826
62	0x3ef39e42	0.4758168
63	0xbe515c2a	-0.20445314
64	0x3e1ac77d	0.15115161
65	0xbebc9c13	-0.36837825
66	0x3e0572e4	0.13032109
67	0x3f1d72e2	0.6150342
68	0xbec28d2e	-0.37998337
69	0x3e2cfa9a	0.16892472
70	0x3ed36ae0	0.41292477
71	0xbdd84d1a	-0.10561581
72	0xbdf64e0d	-0.12026606
73	0x3d81d2a5	0.063390054
74	0xbd84dc70	-0.064873576
75	0x3ebdc482	0.37063986
76	0x3e66b4da	0.22529927
77	0x3f05a37d	0.5220259
78	0xbea57ffd	-0.3232421
79	0x3ec12719	0.37725142
80	0x3eff2be9	0.49838188
81	0x3dfc4419	0.12317676
82	0xbe932fc8	-0.28747392
83	0xbea14b14	-0.31502593
84	0xbe4da0d9	-0.2008089
85	0xbece48e6	-0.40289992
86	0x3ebf5209	0.37367275
87	0xbe2e47ce	-0.17019579
88	0x3e0423b2	0.12904242
89	0x3ec2b751	0.38030484
90	0xbdfb5617	-0.1227228
91	0xbf621f38	-0.88328886
92	0x3eb2fc2d	0.3495802
93	0x3ece33a9	0.4027379
94	0xbdde8995	-0.108660854
95	0x3d441a06	0.04787638
96	0xbe83e629	-0.25761536
97	0x3d1563f2	0.03647227
98	0xbda72270	-0.08160865
99	0xbf277ee0	-0.6542797
100	0xbb3a9251	-0.002846856
101	0x3ebd04d6	0.36917752
102	0xbe1d365f	-0.15352772
103	0x3f0fbac7	0.56144375
104	0xbd9035bb	-0.07041498
105	0xbf25558a	-0.6458365
106	0x3df019f9	0.11723704
107	0x3d9f75dd	0.077861525
108	0x3e83bfa0	0.25732136
109	0x3e3fdff4	0.18737775
110	0x3d1066db	0.03525434
111	0x3f3d3c63	0.7392027
112	0x3e9fc290	0.31203127
113	0x3d1a1565	0.03761806
114	0x3e16cec9	0.1472732
115	0x3eb6e130	0.3571868
116	0xbd702909	-0.058632884
117	0x3f581cd2	0.84418976
118	0x3e4bfc50	0.19920468
119	0xbeed7d51	-0.4638467
120	0x3e4d58ac	0.20053357
121	0x3e4c4555	0.19948323
122	0x3e28381e	0.16427657
123	0x3e1be739	0.15224923
124	0x3ebbe637	0.36699077
125	0x3e2e19b0	0.17001987
126	0x3df9e204	0.12201312
127	0xbd8c0d78	-0.068385065
128	0x3f1c0b94	0.60955167
129	0x3e3ec748	0.18630707
130	0x3d173033	0.0369112
131	0xbe6c9a4c	-0.23105735
132	0xbd1d1d0b	-0.038357776
133	0x3e437af5	0.19089873
134	0xbd7ef4a8	-0.06224504
135	0xbedbc205	-0.42921463
136	0x3e6f6239	0.23377313
137	0xbd856921	-0.065141924
138	0xbd677a38	-0.05651304
139	0xbe620c20	-0.22074938
140	0x3d869ad9	0.065725036
141	0xbf2e391c	-0.6805589
142	0xbe49e1df	-0.19715069
143	0x3f3b9a0b	0.73281926
144	0x3e6d5068	0.23175204
145	0xbd36904f	-0.044571217
146	0xbe93f86b	-0.28900465
147	0xbdaffda0	-0.08593297
148	0xbe108bc7	-0.14115821
149	0xbdadd649	-0.08488137
150	0xbeaf89b9	-0.34284762
151	0x3d404407	0.046939876
152	0x3aef98eb	0.0018279826
153	0xbeb0ec3a	-0.34555227
154	0x3e01c434	0.12672502
155	0xbf21a5af	-0.6314344
156	0x3e3613db	0.17781012
157	0x3ef9e76f	0.48809382
158	0x3e16e335	0.1473511
159	0x3f2d756f	0.67757314
160	0xbe38ed51	-0.18059279
161	0x3eca05c6	0.3945753
162	0xbe5aec70	-0.21379256
163	0xbca1237e	-0.019670244
164	0xbeeb1efc	-0.45922077
165	0xbe7f4e2d	-0.24932165
166	0xbd0c423b	-0.03424285
167	0x3eb0ebd3	0.3455492
168	0xbd9bf654	-0.07615343
169	0x3f27f67d	0.65610486
170	0xbd7182fb	-0.058962803
171	0xbefabb2d	-0.4897093
172	0x3ec45100	0.38343048
173	0x3e5b0ee9	0.21392407
174	0xbd938614	-0.07203308
175	0xbe061182	-0.13092616
176	0xbeaf80c0	-0.34277916
177	0xbed82943	-0.4221898
178	0x3d0ced7f	0.03440618
179	0xbe0cffca	-0.13769451
180	0x3f16d31d	0.58915883
181	0xbe56d0f9	-0.20978154
182	0x3eabcefb	0.3355635
183	0x3eb93f74	0.36181223
184	0x3d36adfa	0.04459951
185	0xbec4c0dc	-0.3842839
186	0xbeafdeeb	-0.3434976
187	0x3e278208	0.16358197
188	0xbd832e6a	-0.06405337
189	0x3f1ef81d	0.6209734
190	0xbeb32ed3	-0.34996662
191	0xbe05ae97	-0.13054882
192	0xbdf129e8	-0.11775571
193	0x3d0753c1	0.03303886
194	0xbee6f7b2	-0.45110852
195	0xbe209c8f	-0.15684722
196	0x3db2d9ae	0.08732925
197	0x3f43bca2	0.76459706
198	0xbe3c40a8	-0.1838404
199	0xbefb79fe	-0.4911651

weight_hh_l0 f4 [100, 100]
0	0x3fa83c8d	1.3143479
1	0xbd478824	-0.04871382
2	0x3d313859	0.043266628
3	0xbeef6c92	-0.4676252
4	0xbe5ed83e	-0.21762177
5	0x3cee3106	0.02907611
6	0xba6ccba7	-0.0009033032
7	0x3c9118a4	0.017711945
8	0x3e774b4d	0.24149819
9	0x3eb65697	0.35612938
10	0xbd5ff8ef	-0.05468076
11	0x3cf41802	0.029796604
12	0xbe57ce8f	-0.2107489
13	0x3d9f1ace	0.077687845
14	0x3d8500d3	0.06494298
15	0xbd2e2d4a	-0.04252366
16	0x3e087a9e	0.13328025
17	0x3e5c929d	0.21540304
18	0x3e922235	0.28541723
19	0x3e394e7a	0.18096343
20	0x3a093e0e	0.0005235382
21	0xbcbd85b3	-0.023135042
22	0x3c5b6232	0.013390111
23	0xbe0b9b0f	-0.13633369
24	0x3e210c9f	0.15727471
25	0xbe0bb95b	-0.13644926
26	0xbe0db8e7	-0.13840066
27	0xbdc75b79	-0.09734244
28	0xbb725f40	-0.0036983043
29	0xbe71d783	-0.23617367
30	0xbd1b7e3f	-0.037962195
31	0xbd1df0bc	-0.03855966
32	0x3e35826a	0.1772553
33	0xbd821418	-0.06351489
34	0x3dbbf49f	0.09177517
35	0xbda6dbac	-0.08147368
36	0x3dddc3fe	0.10828398
37	0x3e09cfc4	0.13458163
38	0xbbfbd86e	-0.0076857125
39	0xbca5b301	-0.020226957
40	0x3d7ec480	0.062199116
41	0x3e8cdedb	0.27513775
42	0x3e22e5e9	0.15908016
43	0xbd241d1d	-0.040066827
44	0xbd85e3ce	-0.06537591
45	0x3cbbc2d8	0.022920057
46	0xbe05d386	-0.13068971
47	0x3e6bda22	0.2303243
48	0x3e8bcab4	0.27303088
49	0x3e11a4c1	0.14223005
50	0xbdc28420	-0.09497857
51	0x3c9aba07	0.018887533
52	0x3e066659	0.1312498
53	0xbda898a7	-0.08232241
54	0xbe0d7bea	-0.138168
55	0xbcefabe8	-0.029256776
56	0xbdf42f76	-0.11923115
57	0xbd9ccdbd	-0.07656429
58	0xbdf91c09	-0.121635504
59	0x3de97516	0.113992855
60	0xbd9be86b	-0.076126896
61	0xbd544193	-0.05182035
62	0xbe5eda38	-0.21762931
63	0xbe346e1f	-0.17620133
64	0x3e08bdcd	0.13353653
65	0x3e359b3c	0.17734998
66	0x3e558f49	0.2085544
67	0x3cc8fe61	0.02453536
68	0xbd75dffe	-0.06002807
69	0x3e99eef6	0.30065125
70	0x3d0cd98d	0.03438716
71	0xbd9cbf1f	-0.07653641
72	0xbe7cfd9a	-0.24706116
73	0x3e84abc1	0.25912288
74	0x3e6ac4d0	0.2292664
75	0xbda08f36	-0.07839815
76	0x3e2f10c4	0.1709624
77	0x3d915b3f	0.07097482
78	0xbe850772	-0.25982243
79	0x3d66cce8	0.056347758
80	0x3de04e23	0.109524034
81	0xbd0d598a	-0.03450922
82	0x3d3ebd36	0.046567164
83	0xbbe29414	-0.006914625
84	0xbd4fe644	-0.050756708
85	0xbdf31b2f	-0.11870419
86	0xbcc6d5f9	-0.024271952
87	0x3e5bf6fc	0.21480936
88	0x3e39077e	0.18069264
89	0x3e9437cb	0.28948817
90	0x3e519e40	0.20470524
91	0x3d2f1bc8	0.042751104
92	0x3cd91713	0.02650026
93	0x3d2a90d3	0.04164202
94	0xbcf22724	-0.02955968
95	0x3e6fc4cf	0.2341492
96	0xbd982cb6	-0.07430403
97	0x3ed8a241	0.4231129
98	0xbde5c17e	-0.11218546
99	0x3d0d8c80	0.03455782
100	0x3ddbef8e	0.10739051
101	0x3e27230f	0.16321968
102	0xbeb13ace	-0.34615177
103	0x3dac28c5	0.08406214
104	0xbd95b673	-0.0731019
105	0x3e1a90fc	0.1509437
106	0xbd009e04	-0.031400695
107	0xbe3a23b2	-0.18177679
108	0x3e96d5d1	0.29460004
109	0xbe9e8457	-0.30960342
110	0xb9ed2a9e	-0.00045235915
111	0xbb5b4d8f	-0.0033462977
112	0xbe443659	-0.19161357
113	0x3e8dbad9	0.27681616
114	0xbdf5973d	-0.11991737
115	0x3e23610f	0.15954994
116	0xbe66ad46	-0.22527036
117	0x3e1c5d6b	0.15270011
118	0x3e52252b	0.20521991
119	0xbe05e065	-0.13073881
120	0xbddc6f62	-0.10763432
121	0xbd594b86	-0.05305054
122	0xbe58249f	-0.2110772
123	0x3e500293	0.20313482
124	0xbe0b1579	-0.1358241
125	0xbd887d2c	-0.066645
126	0x3e7d21ef	0.24719976
127	0x3e885052	0.2662378
128	0xbd32d1a8	-0.043656975
129	0xbdfb8050	-0.12280333
130	0x3d94a1f8	0.072574556
131	0xbc338cfd	-0.010958907
132	0x3c5e6fb9	0.013576441
133	0xbd571a62	-0.052515395
134	0x3da4fe36	0.080562994
135	0x3cd05a75	0.025433758
136	0xbd44f75b	-0.04808746
137	0xbdd39e0a	-0.10332878
138	0x3e9096c4	0.28240025
139	0xbe1d10f1	-0.15338494
140	0x3ea522a4	0.3225299
141	0xbe0e0ec7	-0.13872825
142	0xbdfdb25f	-0.12387537
143	0xbe580256	-0.21094641
144	0x3ec78a16	0.3897254
145	0xbe2ce4c0	-0.16884136
146	0x3b8f4763	0.0043725236
147	0x3d57250a	0.052525558
148	0x3e124ef8	0.14287937
149	0xbcf2be57	-0.029631777
150	0x3bf79838	0.0075559877
151	0xbe3d3113	-0.18475752
152	0xbdd48cf0	-0.10378444
153	0x3da2088a	0.07911785
154	0x3cfb31c2	0.030663375
155	0x3debd772	0.11515702
156	0xbd9791be	-0.07400845
157	0x3c3f156f	0.011662825
158	0xbdb5e87f	-0.08882236
159	0x3e2d1140	0.16901112
160	0xbdc23f74	-0.09484759
161	0xbdb55d23	-0.08855655
162	0xbd2ba16d	-0.041901994
163	0xbd596077	-0.05307051
164	0x3e044a25	0.12918909
165	0xbd1ab39c	-0.037768945
166	0x3e4ac4fa	0.19801703
167	0x3da48f29	0.08035118
168	0x3c11fab9	0.008909875
169	0x3df2ae87	0.11849695
170	0x3e15e5fb	0.14638512
171	0x3db4ea2e	0.08833729
172	0xbd850c87	-0.0649653
173	0xbe03f890	-0.12887788
174	0x3de100fa	0.109865144
175	0xbd2ea0b7	-0.04263374
176	0x3e0bbfbf	0.13647364
177	0x3d60b3f3	0.054859113
178	0x3e78d51e	0.24300048
179	0x3cd687db	0.026187828
180	0xbe666d5d	-0.22502656
181	0xbe21d918	-0.15805471
182	0xbc816622	-0.015795771
183	0x3c9cd1a4	0.019142933
184	0xbd9d1442	-0.076698795
185	0xbcbe0aad	-0.02319845
186	0x3e9f20b6	0.31079644
187	0xbe32d32a	-0.17463365
188	0xbab4c5e0	-0.0013791882
189	0xbdac6455	-0.08417574
190	0x3dd85a3d	0.105640866
191	0x3e388bef	0.1802213
192	0x3c82b658	0.015956089
193	0x3e987d1e	0.29782957
194	0xbd141bee	-0.03615945
195	0xbda51f33	-0.080625914
196	0xbe025bc2	-0.12730315
197	0xbd617e2c	-0.055051968
198	0x3f01402d	0.5048855
199	0xbe5e95e6	-0.21736869
200	0x3d8d636f	0.06903731
201	0xbe34fa02	-0.17673495
202	0x3e93d427	0.28872797
203	0xbe7318a2	-0.23739865
204	0xbe574799	-0.21023406
205	0x3da1cb3d	0.07900093
206	0xbce07f79	-0.027404534
207	0x3d6943f4	0.05694957
208	0xbc1bfe00	-0.009521008
209	0x3e2115db	0.15730993
210	0x3d43d41b	0.0478097
211	0xbc2b1fcc	-0.010444593
212	0x3e529144	0.20563227
213	0xbd86b755	-0.065779366
214	0xbd8da415	-0.06916062
215	0xbdef6700	-0.116895676
216	0x3c160189	0.009155639
217	0xbe165299	-0.14679946
218	0xbd3185b9	-0.04334042
219	0x3e6b63cb	0.22987287
220	0xbb82c7ca	-0.003991102
221	0xbdb6cee5	-0.08926181
222	0x3e350358	0.17677057
223	0xbd3478ba	-0.044060446
224	0xbd5bed89	-0.053693328
225	0x3e161838	0.14657676
226	0xbda4b303	-0.08041956
227	0xbe10a81b	-0.14126627
228	0xbda298db	-0.07939311
229	0x3c821a60	0.015881717
230	0xbd8e3fcc	-0.06945762
231	0x3d52f4e7	0.05150309
232	0xbe65a621	-0.22426654
233	0x3de491a7	0.111605935
234	0xbc3b5748	-0.011434384
235	0x3d018bb0	0.031627357
236	0x3e13483f	0.14383028
237	0xbe5748c9	-0.21023859
238	0xbdf832ff	-0.12119102
239	0x3db05bfd	0.08611295
240	0xbe46b8b5	-0.19406398
241	0x3d93d835	0.072189726
242	0x3dae814e	0.08520757
243	0x3d6c7f04	0.05773832
244	0xbdce9332	-0.10086669
245	0x3e1ba922	0.15201238
246	0xbda3c5af	-0.079966895
247	0xbd37ac93	-0.044842314
248	0xbd1b0c19	-0.037853334
249	0x3d535bfc	0.051601395
250	0xbd1af72b	-0.037833374
251	0xbe1575d8	-0.14595735
252	0xbd639dd8	-0.055570453
253	0x3d2ae1be	0.04171919
254	0xbd930193	-0.07178035
255	0xbdfbdd29	-0.12298042

bias_ih_l0 f4 [100]
0	0x3b5ef1a2	0.0034018536
1	0xbc9facb6	-0.019491535
2	0xbc25b0f9	-0.010112994
3	0xbd2d9def	-0.042386945
4	0xba4dd67b	-0.00078520895
5	0x3d9505b9	0.07276482
6	0xbe8022c1	-0.25026515
7	0xbe8bad10	-0.27280474
8	0x3e377c17	0.1791843
9	0x3e3902fd	0.18067546
10	0xbd9f9ee4	-0.07793978
11	0xbe670a9f	-0.22562645
12	0xbd93aae0	-0.07210326
13	0x3e78a2ce	0.24280855
14	0x3e79465d	0.24343248
15	0x3f395dc8	0.72408724
16	0xbe455900	-0.19272232
17	0x3e541b8e	0.20713636
18	0xbdc287d1	-0.09498561
19	0x3d4638b1	0.04839391
20	0xbebf8582	-0.37406546
21	0xbd7ac881	-0.06122637
22	0xbeabd7ad	-0.33562985
23	0xbe104127	-0.14087354
24	0x3d2c16ea	0.04201404
25	0xbe30ab15	-0.17252763
26	0xbe0a1bfc	-0.13487238
27	0xbd1c73c7	-0.03819635
28	0xbd98f8ce	-0.07469331
29	0xbd311b20	-0.04323876
30	0x3e4e5758	0.20150506
31	0x3bc01e21	0.0058629666
32	0x3cab7dc4	0.020933993
33	0xbd0126a3	-0.031530987
34	0xbe2c49a8	-0.16824973
35	0x3e5f3572	0.21797732
36	0x3d864c11	0.06557477
37	0xbd4e5dbf	-0.050382372
38	0x3e1d69fa	0.15372458
39	0xbde2aff1	-0.110687144
40	0x3e56c83c	0.20974821
41	0xbccf51dd	-0.02530759
42	0x3debd6f3	0.11515608
43	0x3e091209	0.13385786
44	0xbdd5f836	-0.10447733
45	0xbe1980d1	-0.14990546
46	0x3e188df6	0.14897904
47	0x3d889e21	0.06670786
48	0xbe0865e5	-0.1332012
49	0x3f071062	0.52759373
50	0xbd695efc	-0.05697535
51	0xbd2db659	-0.04241023
52	0xbd538a94	-0.05164583
53	0x3d820593	0.063487194
54	0x3dcf1056	0.10110538
55	0x3cacc747	0.021091117
56	0x3e99ddb4	0.3005196
57	0x3cc79bb7	0.024366243
58	0x3c051eda	0.008125031
59	0x3d2af0eb	0.041733664
60	0xbea6a813	-0.32550105
61	0x3d76251e	0.06009399
62	0x3d1aa06b	0.037750643
63	0x3b90d600	0.004420042
64	0x3e83da8c	0.25752676
65	0x3e76fb32	0.24119261
66	0xbe07cdb6	-0.13262066
67	0x3f3e4c9f	0.74335665
68	0x3da68159	0.0813014
69	0x3e3cd963	0.18442301
70	0x3d9c7b9b	0.07640763
71	0xbdb7e784	-0.08979705
72	0xbe05c379	-0.13062848
73	0xbdc7a69a	-0.097485736
74	0xbcfa4a21	-0.030552926
75	0x3e2c191c	0.16806453
76	0x3f24ba05	0.64346343
77	0x3e061376	0.13093361
78	0xbdbb6c8e	-0.091515645
79	0xbd86ff41	-0.065916546
80	0xbdb75df3	-0.08953466
81	0xbe30a127	-0.17248975
82	0xbdc98c1c	-0.09841177
83	0xbdb930a7	-0.09042483
84	0xbeefdf82	-0.4685021
85	0x3f1356dc	0.5755441
86	0x3e0fe8db	0.14053671
87	0x3d64109c	0.055679902
88	0x3e21e790	0.1581099
89	0x3d002f1e	0.031294934
90	0x3e9512f9	0.29116037
91	0x3da98bb1	0.08278597
92	0x3f1fe284	0.6245501
93	0xbd49c46d	-0.04925959
94	0xbe93fc94	-0.2890364
95	0xbe2823b7	-0.16419874
96	0xbd38cbcb	-0.045116227
97	0xbd35b0ad	-0.044357944
98	0x3e0b306c	0.1359269
99	0x3bb6ffc4	0.005584689

bias_hh_l0 f4 [100]
0	0x3d58db3c	0.052943453
1	0xbd607ca3	-0.054806363
2	0xbd574b4b	-0.05256204
3	0xbd192871	-0.037392084
4	0xbd6c509e	-0.05769407
5	0x3de952b0	0.113927245
6	0xbe92949e	-0.2862901
7	0xbe763c40	-0.24046421
8	0x3eb07270	0.3446231
9	0x3c606760	0.0136965215
10	0x3d145cd6	0.036221348
11	0xbe5d35be	-0.21602532
12	0x3bd4152e	0.0064722514
13	0x3df71ba4	0.12065819
14	0x3e95bc87	0.29245397
15	0x3f13a00b	0.5766608
16	0xbe0c7a5e	-0.13718554
17	0x3dda5683	0.10661032
18	0xbe36a4ec	-0.1783635
19	0x3d48deb9	0.04904053
20	0xbede1403	-0.43374643
21	0xbde4d935	-0.111742415
22	0xbed5c70c	-0.41753423
23	0xbe82c86c	-0.25543535
24	0x3b7401fa	0.0037232623
25	0xbe94c07c	-0.29053104
26	0xbe2f6b7e	-0.17130849
27	0xbe092616	-0.13393435
28	0xbe82e32c	-0.25563943
29	0x3dfccb39	0.12343449
30	0x3e02cc93	0.12773351
31	0xbdaba11e	-0.0838034
32	0xbd419ee7	-0.04727068
33	0x3d8b7c20	0.06810784
34	0xbe02bf6a	-0.12768331
35	0x3e62af4d	0.22137184
36	0xbca0efc1	-0.019645574
37	0x3bb12f18	0.0054072253
38	0x3df26921	0.11836458
39	0xbc90d1c2	-0.017678145
40	0x3e461121	0.19342472
41	0xbddf606b	-0.10907062
42	0x3ca0d270	0.019631594
43	0x3e5d6dcd	0.21623917
44	0x3d85fbea	0.065421894
45	0xbe524e97	-0.20537792
46	0x3e1d2644	0.15346628
47	0x3db8d023	0.09024074
48	0xbdefadc5	-0.11703066
49	0x3f10d21a	0.5657059
50	0x3d8a1099	0.06741447
51	0xbdaf246e	-0.0855187
52	0x3d6accb1	0.057324115
53	0x3e24f306	0.16108331
54	0x3e1bcc53	0.15214662
55	0x3d012ce2	0.031536944
56	0x3e7a6e57	0.24456154
57	0xbdbaaec3	-0.091153644
58	0x3ce4d23c	0.027932279
59	0xbbe4bbea	-0.006980409
60	0xbe7fccab	-0.24980418
61	0x3e1e1778	0.1543864
62	0x3c8387a8	0.016055897
63	0xbd17bd15	-0.037045557
64	0x3e78c628	0.2429434
65	0x3e4672a8	0.19379675
66	0xbe9c9101	-0.3057938
67	0x3f27deea	0.65574515
68	0x3ddc18ce	0.107469186
69	0x3e69ed02	0.22844318
70	0x3d270216	0.040773474
71	0xbcfea05a	-0.031082321
72	0xbe082c80	-0.13298225
73	0xbe0a882e	-0.13528511
74	0xbcb88ad2	-0.022527132
75	0x3e00e645	0.12587841
76	0x3f328384	0.69731927
77	0x3e5ea8f6	0.21744141
78	0xbd970241	-0.07373477
79	0x3d515e93	0.051115584
80	0x3cc706b9	0.024295198
81	0xbea99b7b	-0.33126435
82	0xbd8c7275	-0.068577684
83	0xbd90f809	-0.07078559
84	0xbee6b87b	-0.45062622
85	0x3f21fb1e	0.632738
86	0x3cda867d	0.026675457
87	0x3abf0b64	0.0014575538
88	0x3e23b1a7	0.15985738
89	0xbd52c20c	-0.05145459
90	0x3e9d727f	0.30751416
91	0x3e47bc24	0.19505364
92	0x3f167fd2	0.5878879
93	0xbe17015f	-0.14746617
94	0xbed46d50	-0.4148965
95	0xbdc9f158	-0.09860486
96	0xbdf80d35	-0.12111894
97	0xbd063bd8	-0.032771915
98	0x3e28d8fc	0.16489023
99	0x3bb75951	0.005595364

weight_ih_l0_reverse f4 [100, 2]
0	0xbd337190	-0.043809474
1	0x3eb0869c	0.344777
2	0x3ec0a66e	0.37626976
3	0xbec8762c	-0.39152658
4	0xbd8536dd	-0.06504605
5	0x3e1c472d	0.15261526
6	0x3e0e32c8	0.13886559
7	0x3e684fbe	0.22686669
8	0x3ebb4a38	0.36580062
9	0xbd68c133	-0.056824874
10	0x3e981c40	0.29709053
11	0x3d6829cd	0.05668049
12	0xbd80c3a0	-0.062873125
13	0x3ec8969e	0.39177412
14	0x3e1f869a	0.1557869
15	0x3e6b3a4a	0.22971454
16	0x3ef4c7d4	0.47808707
17	0x3dc0fad2	0.0942284
18	0x3da9f5cd	0.08298836
19	0x3d941f5f	0.07232546
20	0x3e78536f	0.24250577
21	0x3e5ceb1e	0.21574065
22	0xbf0ca929	-0.5494562
23	0x3e7f7fd6	0.2495111
24	0xbe2e9d34	-0.17052156
25	0x3e2feede	0.17180964
26	0x3c18ee46	0.009334153
27	0x3c9f47d7	0.019443436
28	0xbe22cbc5	-0.15898044
29	0x3e4242e6	0.18970832
30	0x3dc664eb	0.09687217
31	0x3db8a784	0.09016326
32	0x3eba371d	0.36370173
33	0x3dddce3b	0.10830351
34	0x3d400170	0.04687637
35	0xbf25a62a	-0.6470667
36	0x3c615380	0.013752818
37	0x3e6dfa57	0.23240028
38	0xbf08e377	-0.53472084
39	0x3e3e1e5c	0.18566269
40	0x3e860008	0.261719
41	0x3e671bf9	0.22569264
42	0xbd18f626	-0.03734412
43	0xbe4c8fb6	-0.19976696
44	0x3decbcba	0.11559434
45	0x3d594b3b	0.05305026
46	0xbca4e800	-0.020130157
47	0xbf5fd6c7	-0.874371
48	0x3dc13970	0.094347835
49	0xbf11a670	-0.5689459
50	0xbf09510d	-0.536393
51	0x3eb2d57d	0.34928504
52	0xbe33e7a7	-0.17568837
53	0x3f186d79	0.5954204
54	0xbf045ded	-0.5170582
55	0xbe707821	-0.23483326
56	0xbd9dbc12	-0.07701887
57	0xbf253ca6	-0.6454567
58	0x3e1dc3d1	0.1540673
59	0x3dc2bfb5	0.095092215
60	0xbd66c620	-0.05634129
61	0x3eef1b3e	0.46700472
62	0x3dbd6314	0.09247413
63	0x3d3f8a12	0.046762533
64	0xbe9ee060	-0.3103056
65	0x3c7b140b	0.015324603
66	0xba2dc0d7	-0.00066281616
67	0x3d92d25a	0.071690276
68	0xbd9df83c	-0.077133626
69	0x3e9e50c5	0.30920997
70	0xbbb46b3a	-0.0055059465
71	0x3f442f6e	0.7663487
72	0xbe342827	-0.17593442
73	0x3dc90680	0.09815693
74	0xbd985b01	-0.074392326
75	0xbe157454	-0.14595157
76	0xbc98077d	-0.018558258
77	0x3f294a36	0.6612886
78	0x3c9606e8	0.01831384
79	0xbd079a53	-0.03310616
80	0xbe83cc54	-0.25741827
81	0xbe163622	-0.14669088
82	0x3d8448cb	0.06459197
83	0x3cdc267f	0.026873825
84	0x3d6aa60c	0.05728726
85	0x3f1d9de4	0.61569047
86	0x3eb6a41b	0.35672078
87	0xbd134df1	-0.035963003
88	0x3cf633fc	0.030054085
89	0x3e5f30a6	0.21795902
90	0x3db600c5	0.088868655
91	0xbe55a32f	-0.20863031
92	0xbe35cad4	-0.17753154
93	0x3e9d9fc4	0.30785954
94	0xbde1ac10	-0.110191464
95	0x3ef0f3f2	0.47061116
96	0xbd386bea	-0.04502479
97	0x3eb29dd1	0.3488603
98	0xbebaf56e	-0.36515373
99	0xbe3345b3	-0.17507057
100	0x3e46849c	0.19386524
101	0x3ea4678e	0.32110256
102	0xbec49f55	-0.3840281
103	0x3e4c267d	0.19936557
104	0x3f08dd53	0.53462714
105	0x3d0a5099	0.03376827
106	0x3e3f7386	0.18696412
107	0x3eec170c	0.46111333
108	0x3eae33f8	0.34024024
109	0xbe95d438	-0.29263473
110	0xbed0ffa2	-0.40820032
111	0x3b380e87	0.002808483
112	0xbe608b90	-0.21928239
113	0x3e50a396	0.20374903
114	0xbe33d0b1	-0.17560078
115	0xbd53822f	-0.051637825
116	0xbdcd332c	-0.10019526
117	0x3ec3a312	0.3821035
118	0x3f1205f4	0.57040334
119	0xbd9b792e	-0.075914726
120	0xbd6da799	-0.05802116
121	0x3e45da96	0.19321665
122	0x3de5f6cf	0.11228716
123	0x3c75e192	0.015007393
124	0xbe1f2edb	-0.15545218
125	0xbe5bc1be	-0.21460626
126	0x3c2390dc	0.009983268
127	0xbe30b10d	-0.1725504
128	0xbe3e2a65	-0.1857086
129	0x3ead2fb1	0.33825448
130	0xbda43185	-0.080172576
131	0x3d8f03d1	0.0698315
132	0xbd7cf554	-0.0617574
133	0xbd8bd017	-0.06826799
134	0xbc47917a	-0.01218068
135	0xbe77ef71	-0.24212433
136	0xbdafdb6e	-0.08586775
137	0xbdda0014	-0.10644546
138	0xbd28c7c2	-0.04120613
139	0x3dd4d440	0.10392046
140	0xbe9137ef	-0.28362986
141	0x3db20602	0.08692552
142	0x3e62c24b	0.2214443
143	0xbe3fbc7d	-0.18724246
144	0x3d24cbdb	0.040233474
145	0xbe0a1b21	-0.13486911
146	0x3e165527	0.1468092
147	0x3d5a5bd5	0.053310234
148	0xbd9c0dae	-0.07619797
149	0xbd8ea7d1	-0.06965602
150	0x3efe48f4	0.49665034
151	0x3d5f2d38	0.054486483
152	0x3f0aa11a	0.5415207
153	0xbd466001	-0.0484314
154	0xbf03ad4e	-0.51436317
155	0xbdf600a9	-0.12011845
156	0x3c50c87b	0.012743111
157	0xbc33e89b	-0.01098075
158	0x3cb09498	0.02155523
159	0x3e046290	0.12928224
160	0xbdf249a0	-0.11830449
161	0xbd8c97fc	-0.06864926
162	0x3e229b78	0.15879619
163	0xbe8be735	-0.27324834
164	0x3da603a9	0.08106167
165	0xbeabb7c1	-0.3353863
166	0xbe86f328	-0.26357388
167	0x3ea9bb9d	0.3315095
168	0x3b46169d	0.003022588
169	0xbdd3558b	-0.103190504
170	0x3e2a6f60	0.16644049
171	0xbdd82c9e	-0.10555385
172	0xbd0ed355	-0.03486951
173	0xbf0ad75e	-0.54234874
174	0xbeb6f444	-0.35733235
175	0x3cd14e30	0.025549978
176	0xbd09b0cd	-0.033615876
177	0x3f14e688	0.5816426
178	0xbee09b94	-0.43868697
179	0x3e34a93a	0.1764268
180	0x3eaf71c3	0.3426648
181	0xbcb6fc27	-0.022337032
182	0x3d3e35de	0.04643809
183	0x3e847b35	0.2587525
184	0x3dc877fe	0.09788512
185	0x3ec46276	0.3835637
186	0xbde49280	-0.11160755
187	0x3f14f647	0.5818829
188	0xbd1a4c50	-0.037670434
189	0x3e0070b5	0.12542994
190	0x3d5c5c81	0.053799156
191	0xbea7003d	-0.3261737
192	0x3ea19d5d	0.3156537
193	0x3f0ee01c	0.55810714
194	0xbe825a9f	-0.25459763
195	0xbeddc439	-0.43313769
196	0xbd9cd782	-0.07658292
197	0xbdfdba97	-0.12389105
198	0xbc237f10	-0.0099790245
199	0x3e664d56	0.22490439

weight_hh_l0_reverse f4 [100, 100]
0	0x3e8d7ac6	0.2763273
1	0x3dcec95d	0.10097001
2	0x3dcafd89	0.09911639
3	0x3efeb0c8	0.49744248
4	0x3d187bb8	0.037227362
5	0xbe2c7174	-0.16840154
6	0xbc1be827	-0.009515799
7	0x3e7499d6	0.23886809
8	0x3eeda673	0.46416053
9	0xbe81c0fc	-0.25342548
10	0x3e90e318	0.2829826
11	0xbde80e6f	-0.11330878
12	0xbb94ef5b	-0.004545135
13	0xbe31b34a	-0.1735355
14	0x3c23dc95	0.010001321
15	0xbd903ac2	-0.07042457
16	0xbe55871d	-0.20852323
17	0x3bb6169d	0.005556895
18	0xbd8de210	-0.069278836
19	0x3caf0de5	0.02136893
20	0x3ed4e2a6	0.4157917
21	0xbbd5e064	-0.0065269936
22	0x3cdb7828	0.026790693
23	0xbd914808	-0.07093817
24	0x3d996011	0.07489026
25	0x3db019e6	0.0859869
26	0xbdcf1543	-0.10111477
27	0xbe0a48cd	-0.13504334
28	0xbddae0b7	-0.10687392
29	0xbe2bc38e	-0.16773817
30	0x3e222766	0.15835342
31	0x3e82d984	0.25556576
32	0xbe22bd83	-0.15892605
33	0xbdcb3f24	-0.099241525
34	0x3d6567cc	0.05600719
35	0xbdb75609	-0.08951957
36	0xbe1c35d6	-0.15254912
37	0x3e5f5db9	0.21813096
38	0x3cdfc90e	0.02731755
39	0x3e61343f	0.21992587
40	0xbd8ca832	-0.06868018
41	0xbe54d5d2	-0.20784691
42	0x3c0e6048	0.008689947
43	0x3e27eb7d	0.16398425
44	0xbc4d80eb	-0.0125429435
45	0x3e7cedc5	0.24700077
46	0xbd7a8936	-0.06116601
47	0xbc1232b1	-0.008923219
48	0x3e61a37e	0.22035024
49	0xbe0a59a6	-0.1351076
50	0x3d5dbabb	0.05413316
51	0xbdc6b76f	-0.09702956
52	0x3c599f73	0.013282645
53	0x3e227cd1	0.15867926
54	0x3e2a285b	0.16616957
55	0xbdae534b	-0.085119806
56	0x3cc459a1	0.02396852
57	0xbd9a8e78	-0.07546705
58	0xbeb5ed18	-0.3553245
59	0xbde812d6	-0.11331718
60	0x3d69598a	0.056970157
61	0x3e231e9b	0.15929644
62	0xbd0559ce	-0.032556348
63	0xbe12efd7	-0.14349304
64	0xbd3685f8	-0.044561356
65	0x3dca19d7	0.0986821
66	0xbe092072	-0.13391283
67	0xbe16faa6	-0.14744052
68	0x3d3f7360	0.04674089
69	0x3ac9b3fb	0.0015388721
70	0xbe24892e	-0.16067955
71	0xbd312d74	-0.043256238
72	0x3cca4aa4	0.024693795
73	0xbdbd34d6	-0.09238593
74	0xbe6a4831	-0.22879101
75	0xbc897f70	-0.0167844
76	0x3e77c9ab	0.24198024
77	0xbe6b7549	-0.2299396
78	0x3eae7e60	0.3408079
79	0x3c7af91f	0.015318184
80	0xbe13a7ce	-0.14419481
81	0xbe1ddcfe	-0.15416333
82	0xbe7821ec	-0.2423169
83	0x3ec55270	0.38539457
84	0x3e553561	0.20821144
85	0xbd332324	-0.043734685
86	0xbc89e60f	-0.016833333
87	0x3d8adb62	0.06780125
88	0xbddc5cc1	-0.10759879
89	0x3e43aad5	0.19108136
90	0x3d24d634	0.040243343
91	0xbe2bda7a	-0.16782561
92	0xbd06564a	-0.032797135
93	0x3e374e98	0.17901075
94	0xbe9a1f87	-0.30102178
95	0x3cdea819	0.027179765
96	0xbc4964e5	-0.012292122
97	0x3e15e00d	0.1463625
98	0x3e347e13	0.17626218
99	0xbe0d04ff	-0.13771437
100	0xbde955e6	-0.11393337
101	0xbeb5cdd8	-0.3550861
102	0x3c13ade1	0.009013624
103	0xbda5267f	-0.08063983
104	0x3e29bdc2	0.16576293
105	0x3e0af053	0.13568239
106	0x3c0102fc	0.007874247
107	0xbd0af2d2	-0.033922978
108	0xbc605fbd	-0.013694701
109	0x3dfe2740	0.1240983
110	0xbe5f0b06	-0.21781549
111	0xbd698300	-0.057009697
112	0xbdfc2e03	-0.123134635
113	0x3d615f36	0.05502244
114	0xbdc3e604	-0.095653564
115	0x3c74b632	0.014936017
116	0x3d2f72e4	0.042834178
117	0x3da1e1cd	0.07904396
118	0x3d963ff2	0.07336415
119	0xbb962f6b	-0.0045832894
120	0x3e02046a	0.12696996
121	0xbe20420b	-0.15650193
122	0x3d9ad0be	0.07559346
123	0xbd1763df	-0.03696048
124	0x3d48a211	0.048982684
125	0xbe367d83	-0.17821316
126	0xbe1b1fdd	-0.15148874
127	0x3dfaf666	0.12254028
128	0x3cd5895f	0.02606648
129	0xbdf9e4cd	-0.122018434
130	0x3dd2499c	0.10267946
131	0xbb74d4aa	-0.0037358203
132	0x3d098de6	0.03358259
133	0x3d875491	0.06607927
134	0xbd37b2ec	-0.044848368
135	0xbd9b35d8	-0.07578629
136	0x3c829d1e	0.01594406
137	0xbe0c56ee	-0.13705036
138	0x3e126615	0.14296754
139	0x3e29e774	0.16592199
140	0x3e0db5ae	0.13838837
141	0x3d8fd9e9	0.07023985
142	0xbd48f3af	-0.04906052
143	0xbd148fc7	-0.03626993
144	0xbd5bb1d1	-0.053636376
145	0xbd3a7390	-0.045520365
146	0xbd573875	-0.052544076
147	0xbd843010	-0.0645448
148	0xbe1455a4	-0.14485794
149	0xbe148f04	-0.14507681
150	0xbc90eab1	-0.017690035
151	0xbd5e9f31	-0.054351036
152	0xbda5ff54	-0.081053406
153	0x3d7e6d85	0.062116165
154	0xbd32bec0	-0.043638945
155	0xbdaf91e4	-0.08572748
156	0xbdc43acc	-0.09581527
157	0x3da63408	0.08115393
158	0xbd87e330	-0.066351295
159	0xbd15d251	-0.036577526
160	0xbdd18fcc	-0.10232505
161	0x3c7fa5e6	0.015603518
162	0xbd8a56e0	-0.06754851
163	0x3e1e6f7a	0.15472212
164	0x3cb7a39d	0.022416884
165	0x3dd589d9	0.10426683
166	0x3d9830f8	0.07431215
167	0x3e495a18	0.19663274
168	0xbe33c326	-0.17554912
169	0xbad426c7	-0.0016185873
170	0xbd45c869	-0.04828683
171	0x3ca33f38	0.019927606
172	0xbb1d631e	-0.0024015377
173	0x3dd2a0c3	0.10284569
174	0x3dfbb7c3	0.12290909
175	0xbcb7c886	-0.022434484
176	0x3e179beb	0.14805572
177	0xbe0b8df2	-0.13628367
178	0x3e8c371c	0.27385795
179	0xbd7b9006	-0.06141665
180	0x3dffff1e	0.124998316
181	0x3e075e0c	0.1321947
182	0x3e3962b1	0.18104054
183	0xbd238cbe	-0.039929144
184	0xbd6f59ad	-0.05843513
185	0xbc9953b7	-0.018716676
186	0x3c9ea69a	0.019366551
187	0xbe809aa7	-0.2511799
188	0xbdcc4bc0	-0.09975386
189	0xbde54b81	-0.11196042
190	0xba06e021	-0.0005145092
191	0x3b4e7ff4	0.0031509371
192	0x3e284e49	0.16436113
193	0x3d38c86e	0.04511302
194	0xbd41217e	-0.04715108
195	0x3d8ef2a3	0.06979873
196	0x3d133610	0.03594023
197	0xbe1f609d	-0.15564199
198	0x3e06e467	0.13173066
199	0xbd009a2c	-0.03139703
200	0x3e1a3825	0.1506048
201	0xbd795625	-0.06087317
202	0x3eebedb1	0.46079782
203	0x3d8ea98a	0.06965931
204	0xbc778fea	-0.015109995
205	0x3d92695f	0.07149004
206	0x3e3412af	0.17585252
207	0xbdcdbc8b	-0.10045727
208	0x3baf0822	0.0053415457
209	0x3de0c9cc	0.1097599
210	0xbe5ca95a	-0.21548977
211	0x3e2c17f1	0.16806008
212	0x3bd9a80a	0.0066423463
213	0x3d4381a2	0.04773105
214	0x3db1badd	0.086782195
215	0xbcc801a6	-0.024414849
216	0xbdb978a9	-0.09056217
217	0x3ca1e841	0.019764068
218	0x3d681b15	0.056666452
219	0x3d82dba5	0.0638955
220	0x3d141f00	0.036162376
221	0xbd8a7583	-0.06760695
222	0x3df207de	0.11817907
223	0xbddde440	-0.10834551
224	0xbe8931ce	-0.2679581
225	0x3d44c8b3	0.048042964
226	0x3e883539	0.26603106
227	0x3e26f154	0.16302997
228	0xbe62e51f	-0.22157715
229	0xbc9c52be	-0.019082423
230	0x3e27db8c	0.16392344
231	0xbeadd71b	-0.33953175
232	0x3e125189	0.14288916
233	0x3ec6a141	0.38794902
234	0x3eb48825	0.3526012
235	0x3d9c2914	0.076250225
236	0x3cbd0c8c	0.023077272
237	0x3c885107	0.0166402
238	0x3e535167	0.20636521
239	0xbe29ca1b	-0.16581003
240	0x3e725315	0.23664506
241	0x3cf1834d	0.029481554
242	0x3e5fcfd6	0.21856627
243	0xbebc2fc1	-0.36755183
244	0x3e8fb553	0.28068027
245	0xbd0073fa	-0.031360604
246	0x3e688f2d	0.22710867
247	0x3efe459b	0.4966248
248	0x3e1f3a6e	0.15549633
249	0xbc96098b	-0.018315097
250	0x3e2f8245	0.17139538
251	0x3dd1b422	0.10239436
252	0xbe395ff7	-0.18103014
253	0x3e55cbef	0.20878576
254	0xbdc06f27	-0.093962006
255	0x3e4eb8d4	0.20187694

bias_ih_l0_reverse f4 [100]
0	0x3eab5ecf	0.3347077
1	0xbe93bff7	-0.28857395
2	0x3e7b4bf4	0.24540693
3	0x3e142a05	0.14469154
4	0xbe98fe23	-0.2988139
5	0x3d0e8536	0.03479501
6	0x3e09d043	0.13458352
7	0xbd8ede32	-0.06975974
8	0x3c035b72	0.008017408
9	0xbc4a00e5	-0.012329315
10	0x3c1a19ce	0.009405566
11	0x3e5b3b7f	0.21409415
12	0x3d988cdf	0.07448744
13	0xbe8fd37c	-0.28091037
14	0x3eb782de	0.3584203
15	0xbcacadc9	-0.021078961
16	0xbec64443	-0.38723955
17	0xbe1383a8	-0.14405692
18	0xbe298a20	-0.16556597
19	0xbd2002c9	-0.039065156
20	0x3eda7e58	0.42674518
21	0x3e355ef9	0.1771201
22	0x3ee32de9	0.44370964
23	0x3e52fe14	0.20604736
24	0xbe8ac0c6	-0.271002
25	0x3d69d696	0.05708941
26	0xbd21ded5	-0.03951915
27	0x3e1fca19	0.15604438
28	0x3e25ac2e	0.16178963
29	0x3db93810	0.09043896
30	0x3d39df14	0.04537876
31	0xbe478bb4	-0.19486886
32	0x3db6f48d	0.08933363
33	0xbe2459c4	-0.16049868
34	0x3eadc037	0.3393571
35	0x3ea721b9	0.32642916
36	0x3e3297ae	0.17440674
37	0x3df51a29	0.1196788
38	0x3e500a4c	0.20316428
39	0xbcc80c3f	-0.024419902
40	0x3e022744	0.12710291
41	0x3cfa4b4b	0.03055348
42	0x3def34eb	0.11680015
43	0x3cc97723	0.024592942
44	0x3dbafba2	0.091300264
45	0xbe51792b	-0.20456378
46	0x3f033ded	0.51266366
47	0x3e5d7fe8	0.21630824
48	0x3ebf6951	0.37385038
49	0xbe338ebd	-0.17534919
50	0x3e23177a	0.15926924
51	0x3dad807b	0.08471771
52	0x3e37d75a	0.17953244
53	0x3e1fc16b	0.15601127
54	0xbd4b9885	-0.049706
55	0xbe0aeffc	-0.1356811
56	0x3dcc3e28	0.09972793
57	0xbe0b18fb	-0.13583748
58	0xbecf13bf	-0.40444753
59	0x3d2bb7fd	0.04192351
60	0x3dd696b1	0.10477961
61	0x3ead63f4	0.3386532
62	0xbc9014ec	-0.017588101
63	0xbf03c004	-0.5146487
64	0xbda9b1a3	-0.08285835
65	0x3e729f2a	0.23693529
66	0x3e286b34	0.16447145
67	0xbec2d66c	-0.38054216
68	0x3f0a6493	0.54059714
69	0x3ec8f672	0.39250523
70	0x3ddbb661	0.107281454
71	0xbce2fdc6	-0.0277089
72	0xbdeb90da	-0.115022376
73	0xbeacdc45	-0.33761802
74	0xbeaa9ec8	-0.33324265
75	0xbd501be8	-0.050807863
76	0xbe0e1fc2	-0.13879302
77	0xbd8c8ceb	-0.068628155
78	0x3c96647b	0.01835846
79	0x3eaf1c2d	0.34201184
80	0x3dcfa7a1	0.101393946
81	0xbe5188a0	-0.20462275
82	0xbdfb86bf	-0.1228156
83	0xbb2c58dd	-0.0026298084
84	0xbd958c23	-0.073021196
85	0x3e6b7e50	0.22997403
86	0xbe270da2	-0.16313794
87	0x3e8975e1	0.26847747
88	0x3e8e6467	0.27810976
89	0xbdbcb672	-0.09214486
90	0xbd74c3d8	-0.059757084
91	0xbeacf539	-0.3378084
92	0xbe3bd13f	-0.1834154
93	0xbd61a249	-0.055086408
94	0x3ce5facd	0.028073693
95	0xbec7323a	-0.38905507
96	0xbe05940f	-0.13044761
97	0xbde59983	-0.11210921
98	0xbe35a851	-0.17739989
99	0x3dde8752	0.10865654

bias_hh_l0_reverse f4 [100]
0	0x3e3326aa	0.17495218
1	0xbe8b7d92	-0.2724424
2	0x3e862179	0.26197413
3	0x3e2c77a5	0.16842516
4	0xbeb3dbc0	-0.35128593
5	0x3d2dae7e	0.042402737
6	0x3e8610f8	0.2618482
7	0xbd89f3de	-0.06735967
8	0x3da51823	0.08061244
9	0xbd9bd4dc	-0.07608959
10	0x3b789ac8	0.0037934054
11	0x3dd297de	0.102828726
12	0x3da31cff	0.07964515
13	0xbe9eba08	-0.31001306
14	0x3e657636	0.22408375
15	0x3d5ae78f	0.053443488
16	0xbf0117aa	-0.50426733
17	0xbe541586	-0.20711336
18	0xbea9f830	-0.33197165
19	0x3be42907	0.0069628987
20	0x3eaff2b3	0.34364852
21	0x3ea6f497	0.32608482
22	0x3ec90c54	0.39267218
23	0x3e557394	0.20844871
24	0xbe7a60e4	-0.24451023
25	0x3e0a0928	0.13480055
26	0xbe18f5cf	-0.14937519
27	0x3e19ba5a	0.15012494
28	0x3dd08eed	0.10183511
29	0xbd284c09	-0.041088138
30	0x3e21fbd6	0.15818724
31	0xbe0d8016	-0.13818392
32	0x3e1868d7	0.14883743
33	0xbe3e0ef8	-0.18560398
34	0x3ec2c901	0.3804398
35	0x3e81d951	0.25361112
36	0x3d2bc3ac	0.041934654
37	0x3db669c5	0.08906893
38	0x3e88ad13	0.26694545
39	0xbe2f050f	-0.17091773
40	0x3dcd0114	0.10009971
41	0xbc3e41d9	-0.011612379
42	0x3e7b1772	0.24520662
43	0x3b256c17	0.0025241429
44	0x3d1fedec	0.03904526
45	0xbe6b73ca	-0.22993389
46	0x3ee01ed1	0.4377351
47	0x3e1eddd7	0.15514313
48	0x3ead14f6	0.33805054
49	0xbda4e6a5	-0.080518045
50	0x3e6fbaa4	0.23411041
51	0x3dfe7b9b	0.124259196
52	0x3e5b89dd	0.2143931
53	0x3e08d62e	0.13362953
54	0x3d50623e	0.05087494
55	0xbdca6623	-0.09882762
56	0x3e2b6517	0.16737781
57	0xbe4910ed	-0.19635363
58	0xbecf190f	-0.40448806
59	0xbcc383ce	-0.02386656
60	0xbcaa4420	-0.020784438
61	0x3ee7a756	0.45244855
62	0x3c95fc84	0.018308885
63	0xbee81038	-0.45324874
64	0xbe47789f	-0.19479607
65	0x3e7cf007	0.24700938
66	0x3e54225f	0.20716237
67	0xbf04b998	-0.51845694
68	0x3f0d228c	0.5513084
69	0x3ef66e91	0.4813123
70	0x3dedfa6b	0.11620029
71	0xbcd722e4	-0.026261754
72	0xbdcd30d3	-0.10019078
73	0xbebdcd11	-0.37070516
74	0xbeb47d36	-0.35251778
75	0xbdd2061e	-0.10255073
76	0xbe3c3a7a	-0.18381682
77	0x3d2c1938	0.042016238
78	0x3cf20137	0.029541595
79	0x3e8bb821	0.27288917
80	0xbca70b37	-0.02039109
81	0xbe9127ef	-0.2835078
82	0xbe4eeeb7	-0.2020825
83	0xbdc2066e	-0.094738826
84	0xbd27852b	-0.040898483
85	0x3eb6edb7	0.35728237
86	0xbe93727e	-0.28798288
87	0x3e53cf72	0.20684603
88	0x3e7c7660	0.24654531
89	0xbbebb3c9	-0.007193063
90	0xbe8082e0	-0.2509985
91	0xbe81cd6a	-0.2535203
92	0xbeb972d0	-0.36220407
93	0xbe10be6b	-0.14135139
94	0xbc17b06e	-0.009258373
95	0xbe764e67	-0.24053346
96	0xbe42a30b	-0.19007508
97	0xbdc5e119	-0.096620746
98	0xbda457de	-0.08024572
99	0x3e576f0c	0.21038455

weight_ih_l1 f4 [100, 200]
0	0x3d5f340e	0.054493003
1	0x3e0740ca	0.13208309
2	0x3e273624	0.16329247
3	0xbd0702d4	-0.03296168
4	0xbde16385	-0.1100531
5	0xbe58dea3	-0.21178679
6	0xbe5fe22b	-0.2186362
7	0xbe0292ce	-0.12751314
8	0x3e03fc18	0.12889135
9	0xbd1d8a35	-0.038461883
10	0x3e52299a	0.20523682
11	0x3ed3df5d	0.4138135
12	0x3e8695c5	0.2628614
13	0x3e63afa5	0.22234972
14	0x3dff4dd9	0.1246602
15	0x3e1958cb	0.14975278
16	0x3da57fd7	0.08081024
17	0xbdb10531	-0.08643568
18	0xbe4a446a	-0.1975266
19	0x3e3a2814	0.18179351
20	0xbe60f9be	-0.21970269
21	0xbe763eb8	-0.24047363
22	0x3e35a00d	0.17736836
23	0x3ca217a6	0.019786667
24	0x3e41df7e	0.18932912
25	0x3d46df63	0.048552882
26	0x3ce13ab4	0.027493812
27	0xbd1b4415	-0.037906725
28	0xbde1f8f8	-0.11033815
29	0x3e1d6e62	0.15374139
30	0x3dd0ea01	0.10200883
31	0x3d17b44c	0.03703718
32	0x3d87cb31	0.066305526
33	0x3d034e27	0.032056954
34	0x3d795f7e	0.060882084
35	0xbd989e37	-0.07452052
36	0xbe4ecf4a	-0.20196262
37	0xbea878fe	-0.3290481
38	0xbd8461fe	-0.06464003
39	0xbe2af87e	-0.16696355
40	0xbd322dc7	-0.043500688
41	0x3d56eb75	0.052470643
42	0x3d6e74df	0.058216926
43	0x3e060062	0.13086084
44	0x3e221d51	0.15831496
45	0x3eab984b	0.33514628
46	0x3dd3bc02	0.10338594
47	0xbcb885cf	-0.022524742
48	0x3cea5be5	0.028608272
49	0x3b848971	0.0040447046
50	0xbe0a8c34	-0.13530046
51	0xbd8ccd37	-0.06875079
52	0x3e931f7a	0.28734952
53	0x3d211a89	0.039331947
54	0xbcc4dfb9	-0.02403246
55	0xbe3d32db	-0.18476431
56	0xbaea8d8c	-0.0017894967
57	0x3e13c8c1	0.1443205
58	0xbe88ac39	-0.26693895
59	0x3e8434e0	0.2582159
60	0xbd9c21af	-0.07623612
61	0xbe1994b0	-0.14998126
62	0x3d524684	0.05133678
63	0x3ea367ab	0.3191503
64	0x3d90068d	0.070324995
65	0x3d8e1750	0.0693804
66	0xbbcdedd6	-0.006284456
67	0x3c8ecf6a	0.017432887
68	0x3d0b0c6f	0.033947404
69	0x3dab0fa7	0.08352595
70	0x3e174800	0.1477356
71	0xbec61f5b	-0.38695797
72	0xbdc6ba75	-0.097035326
73	0xbd7d8a4b	-0.061899465
74	0xbe30c2bb	-0.17261784
75	0xbcdb5fc9	-0.026779072
76	0x3d8f0de0	0.06985068
77	0x3eacb5a9	0.33732346
78	0xbe1a1d25	-0.1505018
79	0x3d97177c	0.07377526
80	0xbd9b8acb	-0.07594832
81	0x3db9c09e	0.09069942
82	0x3c6df47b	0.014523621
83	0xbe959324	-0.29213822
84	0xbe222803	-0.15835576
85	0x3cbbe7c2	0.02293766
86	0x3e5b61d4	0.21424037
87	0xbdf1a95b	-0.1179988
88	0x3e07e59f	0.13271187
89	0x3e1df4db	0.15425436
90	0xbd83ceef	-0.06435954
91	0xbd5b3e30	-0.053526103
92	0x3df47b2c	0.11937556
93	0xbe41320e	-0.1886675
94	0xbd61edb2	-0.055158325
95	0xbe3c2a4c	-0.1837551
96	0xbe99f4e6	-0.30069655
97	0x3e1c0b9f	0.15238808
98	0x3dac337f	0.084082596
99	0x3de8fda8	0.11376506
100	0xbefe2e0a	-0.496445
101	0x3f0e8bf5	0.5568231
102	0x3dd856f7	0.10563462
103	0xbe7a3ebd	-0.24437995
104	0x3de70a04	0.11281207
105	0xbd734c1c	-0.059398755
106	0xbe89863a	-0.2686022
107	0x3de34d42	0.1109872
108	0x3e297afb	0.1655082
109	0xbf0511bf	-0.51980203
110	0x3d370f88	0.044692546
111	0xbe8de7c1	-0.27715877
112	0x3b26ca56	0.0025450191
113	0x3b615798	0.0034384485
114	0xbe6de628	-0.23232329
115	0xbea25ade	-0.3170995
116	0x3e32c1a2	0.17456678
117	0x3da8bb83	0.0823889
118	0xbe55e046	-0.20886335
119	0xbe59dc13	-0.21275358
120	0x3e9c4d16	0.30527562
121	0x3ddc838a	0.107672766
122	0xbe60fb15	-0.2197078
123	0x3d966e8b	0.07345303
124	0x3e9be2b0	0.30446386
125	0xbef8f8b8	-0.48627257
126	0x3c2a223e	0.010384141
127	0xbc29eafd	-0.010370967
128	0x3df53ad7	0.119741134
129	0x3d5ea12c	0.054352924
130	0xbdc991bd	-0.098422505
131	0xbe71a8fb	-0.23599617
132	0xbe51b9c4	-0.2048102
133	0xbea4049e	-0.32034773
134	0xbe3f9301	-0.18708421
135	0x3d18ed7a	0.03733585
136	0x3d2d49ec	0.042306826
137	0x3ef3cc20	0.47616673
138	0xbce0705c	-0.027397327
139	0x3e86fc66	0.2636444
140	0x3e0a6b43	0.1351748
141	0x3e81a38f	0.25320098
142	0xbdca46e3	-0.09876802
143	0x3e00424d	0.12525292
144	0x3dc545e5	0.09632472
145	0x3ed7527a	0.42055112
146	0xbe5f69e8	-0.21817744
147	0xbe399273	-0.18122272
148	0xbe43d3e2	-0.19123796
149	0x3dd664aa	0.10468419
150	0x3de98884	0.114029914
151	0x3ca2e1b6	0.019883018
152	0x3e396343	0.18104272
153	0xbe477418	-0.1947788
154	0x3efb401b	0.49072346
155	0xbe620661	-0.22072746
156	0xbeabd301	-0.3355942
157	0x3d34fcd0	0.044186413
158	0xbd3eef6c	-0.04661505
159	0x3d57a0e8	0.052643687
160	0xbec94ac7	-0.39314863
161	0x3e1090ad	0.1411769
162	0x3ea94f15	0.33068147
163	0x3d693a05	0.056940097
164	0xbe1613e2	-0.14656022
165	0xbe87a2c8	-0.2649138
166	0xbe84a3a7	-0.25906107
167	0x3d3f41fa	0.04669378
168	0xbcc62f69	-0.024192529
169	0xbe092ece	-0.13396761
170	0xbe0dfb82	-0.13865474
171	0xbd0d1155	-0.034440357
172	0x3e348b2a	0.17631212
173	0x3dd8f524	0.10593632
174	0x3d4ec922	0.050484784
175	0x3ea2075e	0.31646246
176	0x3cba9951	0.022778185
177	0xbcbe2461	-0.023210706
178	0x3e4152d9	0.1887926
179	0xbe3f9fe1	-0.18713333
180	0x3dd17c0d	0.10228739
181	0x3ece3c42	0.40280348
182	0x3ed6b8c5	0.41937843
183	0xbecab555	-0.3959147
184	0xbe86161d	-0.26188746
185	0x3de7ce0d	0.11318598
186	0xbdaee7bc	-0.085402936
187	0xbe8830a3	-0.26599607
188	0x3e34ea31	0.17667462
189	0xbea49f52	-0.32152802
190	0xbd9d4bcd	-0.076804735
191	0xbcc2ec30	-0.023794264
192	0xbd995709	-0.07487304
193	0xbea81361	-0.32827285
194	0xbe80d013	-0.25158748
195	0x3ed2bc3d	0.4115924
196	0xbd38d46a	-0.04512445
197	0xbe08d22a	-0.13361421
198	0x3e9c8f32	0.30578
199	0xbec573e4	-0.3856498
200	0x3d9d4ec4	0.07681039
201	0x3e7ed943	0.24887566
202	0xbe1a4bb4	-0.15067941
203	0xbd738109	-0.05944923
204	0x3dd4b53a	0.10386129
205	0x3da66a62	0.0812576
206	0x3e2d756d	0.16939326
207	0x3deb727b	0.11496445
208	0x3dacc376	0.08435719
209	0xbdc7c43d	-0.09754226
210	0x3de0c164	0.10974386
211	0x3e3bd4c8	0.18342888
212	0xbdd2a01c	-0.10284445
213	0xbe1d0215	-0.15332825
214	0x3c963ccf	0.018339543
215	0xbe63af70	-0.22234893
216	0xbe11daf6	-0.14243683
217	0xbe8dc5c4	-0.27689946
218	0x3d36d2da	0.044634677
219	0x3c6dab58	0.014506184
220	0x3e17cc8b	0.1482412
221	0x3da6a1a2	0.08136298
222	0x3e9694f1	0.29410508
223	0xbe0d3af5	-0.13792022
224	0x3d02dd42	0.03194929
225	0x3e91d910	0.28485918
226	0x3e8e5adb	0.27803692
227	0xbd883b94	-0.066519886
228	0x3d9b9c13	0.07598128
229	0xbd1b5ddc	-0.03793131
230	0xbea060ad	-0.31323758
231	0x3e2889a4	0.16458756
232	0x3d2ff3e4	0.0429572
233	0x3e3e337e	0.1857433
234	0x3e618ff9	0.22027577
235	0xbe1a7314	-0.15082961
236	0xbd9b8b2e	-0.07594906
237	0x3dc637b6	0.09678595
238	0x3e240834	0.16018754
239	0xbddf5eed	-0.109067775
240	0x3ea1a7e1	0.31573394
241	0xbe225d73	-0.1585596
242	0xbe73d5d1	-0.23812033
243	0x3d51d79f	0.051231023
244	0xbc15542c	-0.009114306
245	0xbd00823e	-0.03137421
246	0x3e0ebbbf	0.13938807
247	0xbe033769	-0.12814106
248	0xbe07a218	-0.13245428
249	0xbe22a7d4	-0.15884334
250	0xbcacb405	-0.021081934
251	0x3c9ec10a	0.019379158
252	0xbe1d4de6	-0.15361747
253	0xbdf80e9d	-0.12112162
254	0xbe2a6d2e	-0.16643211
255	0xbd0e6211	-0.034761492

weight_hh_l1 f4 [100, 100]
0	0x3faa0ec8	1.3285761
1	0x3ccb4ac7	0.02481593
2	0xbe60ca68	-0.21952212
3	0xbd10f812	-0.03539283
4	0xbe96c80d	-0.29449502
5	0xbe299644	-0.16561228
6	0x3da54c8c	0.08071241
7	0x3de3ab0a	0.111166075
8	0x3cd3a47c	0.025835268
9	0xbcd27888	-0.02569224
10	0x3ee0ed97	0.43931267
11	0x3c82bd11	0.015959295
12	0xbe935717	-0.28777382
13	0x3dc68755	0.09693781
14	0x3dc2861c	0.094982356
15	0xbe7e6ec7	-0.24846946
16	0x3d9d6a9e	0.07686351
17	0x3d49a7fc	0.049232468
18	0x3b36f980	0.002791971
19	0xbd4ed398	-0.05049476
20	0xbe5a8fc5	-0.21343906
21	0x3e5d21a0	0.21594858
22	0x3d9cef0d	0.07662783
23	0x3c3c0e6c	0.011478048
24	0x3e2f217a	0.17102614
25	0xbe54d2c2	-0.20783523
26	0x3e3a3f49	0.18188204
27	0x3d818e0f	0.06325924
28	0x3e682dd0	0.22673726
29	0x3cce53e4	0.025186487
30	0xbdfa4dc3	-0.12221863
31	0x3e59fecc	0.21288604
32	0xbe208c62	-0.15678552
33	0x3dbd4bb0	0.09242952
34	0xbda07006	-0.07833867
35	0xbc8b11bb	-0.016976228
36	0x3ddb302a	0.10702546
37	0x3e16f90d	0.14743443
38	0xbc76bef0	-0.0150601715
39	0x3d4e9759	0.050437305
40	0xbd484e71	-0.048902933
41	0x3e177d92	0.14793995
42	0x3dc635ed	0.09678254
43	0xbea46355	-0.32107034
44	0x3e6cb4e7	0.23115884
45	0xbddeedc8	-0.10885197
46	0xbdc0f484	-0.09421638
47	0xbda3c1f4	-0.07995978
48	0x3e13b7c5	0.14425571
49	0x3a5c5ca6	0.00084061397
50	0x3da891ce	0.08230935
51	0xbd71e4b1	-0.059055988
52	0x3d69bf10	0.057066977
53	0xbd101c68	-0.03518334
54	0xbe83fee8	-0.25780416
55	0x3c83d33f	0.01609194
56	0xbd073731	-0.03301162
57	0x3e4027c3	0.18765168
58	0xbc774cde	-0.01509401
59	0xbdd739ea	-0.10509093
60	0x3da473d9	0.08029909
61	0xbe4278b6	-0.1899136
62	0x3d3c44b4	0.045963958
63	0x39a73a2f	0.00031896072
64	0x3d0c19c2	0.034204252
65	0xbedd2c44	-0.43197834
66	0xbc51c49d	-0.012803224
67	0xbd584a74	-0.05280538
68	0x3da7b44f	0.08188688
69	0xbde5fad0	-0.11229479
70	0x3d495635	0.04915448
71	0xbdea3106	-0.11435132
72	0xbda99822	-0.0828097
73	0xbe11d51a	-0.14241448
74	0xbd484c9b	-0.04890118
75	0xbd26a6d0	-0.04068643
76	0xbc6ffc86	-0.014647609
77	0xbda4de4c	-0.08050212
78	0xbda51ae6	-0.08061771
79	0x3c2e3700	0.01063323
80	0x3d50fdea	0.0510234
81	0x3d33fd99	0.04394302
82	0xbe4667a1	-0.19375469
83	0x3dab8da8	0.08376628
84	0xbd16147e	-0.036640637
85	0x3ea72da3	0.32652006
86	0x3c151df4	0.00910138
87	0x3a3508d0	0.0006905915
88	0x3e1941df	0.14966534
89	0x3dd4f1d0	0.103976846
90	0xbe5a1362	-0.21296456
91	0x3c8f3144	0.017479546
92	0xbd95a5dd	-0.073070265
93	0x3e56238c	0.20911998
94	0xbd79090f	-0.060799655
95	0xbe65f451	-0.2245648
96	0x3e433e07	0.1906663
97	0x3c3a2258	0.011360727
98	0x3e465941	0.19369985
99	0xbbd8e116	-0.006618629
100	0x3ddc865d	0.10767815
101	0x3fa666b8	1.3000097
102	0xbc564e22	-0.013080152
103	0x3eb6574f	0.35613486
104	0xbe53fc77	-0.20701776
105	0xbe0ab8fa	-0.13547125
106	0xbebb8495	-0.3662459
107	0x3ef47856	0.4774806
108	0xbe0dd70a	-0.13851562
109	0x3ee2b6f3	0.44280204
110	0xbcd85c44	-0.026411183
111	0xbe238eb2	-0.15972403
112	0xbe0e70f2	-0.13910273
113	0xbd62c6a5	-0.055365223
114	0xbdc3fc42	-0.09569599
115	0xbd3b6581	-0.0457511
116	0xbeaad4df	-0.33365533
117	0x3e47f754	0.19527942
118	0x3eb0def3	0.34545097
119	0xbe8a5539	-0.27018145
120	0xbe632f7a	-0.2218608
121	0xbe86a917	-0.2630088
122	0xbe85f372	-0.26162297
123	0x3e0a1dfb	0.13487999
124	0xbcbce1a3	-0.02305681
125	0x3dda4102	0.106569305
126	0x3bf60e45	0.0075090253
127	0x3e9e268c	0.30888784
128	0x3de0420d	0.10950098
129	0x3e4d12ae	0.20026657
130	0xbd0b30e2	-0.033982165
131	0xbdf3ab39	-0.118978925
132	0x3e29fca4	0.16600281
133	0x3ccb8a40	0.024846196
134	0xbd102bf0	-0.035198152
135	0x3c63c72d	0.013902468
136	0xbe81bfb3	-0.25341567
137	0xbec43147	-0.38318846
138	0x3e84e1d7	0.25953552
139	0x3ebec40a	0.3725894
140	0x3d78a189	0.060700927
141	0x3e86f425	0.26358142
142	0xbcb9f2a5	-0.02269871
143	0x3eb864a4	0.36014283
144	0x3eea310e	0.4574055
145	0x3e9501f6	0.2910306
146	0xbe758192	-0.23975208
147	0xbd2cf8a9	-0.04222933
148	0xbeaedb32	-0.34151608
149	0xbdb02390	-0.08600533
150	0xbeafbf91	-0.3432584
151	0x3e02e2bd	0.12781806
152	0xbd95d1f7	-0.07315438
153	0xbe7ff75a	-0.24996701
154	0x3dcb3440	0.09922075
155	0x3dc32fb3	0.09530582
156	0xbe5244f8	-0.20534122
157	0x3e550ddb	0.20806067
158	0xbe4035db	-0.18770544
159	0x3b951e9e	0.004550769
160	0xbe04268d	-0.12905331
161	0x3ead278f	0.33819243
162	0x3de30937	0.11085742
163	0xbcfd7c52	-0.03094307
164	0xbe3b8a8b	-0.18314569
165	0xbed18765	-0.4092361
166	0x3e935e4b	0.28782877
167	0x3dff3cd6	0.124627754
168	0x3eca7cd2	0.39548355
169	0xbdc2f7e4	-0.09519938
170	0xbdd03353	-0.10166039
171	0x3e0eb838	0.13937461
172	0xbb69d024	-0.003567704
173	0xbe870699	-0.2637222
174	0xbe29cfc5	-0.16583164
175	0x3e673528	0.22578871
176	0xbc6e1098	-0.014530323
177	0x3d161024	0.036636487
178	0x3eb4cd86	0.35313052
179	0xbe816e38	-0.25279403
180	0x3e22da66	0.15903625
181	0xbc08e839	-0.008356147
182	0xbda224a2	-0.079171434
183	0xbebf05ed	-0.3730921
184	0x3e3ce258	0.18445718
185	0xbe073e04	-0.13207251
186	0x3da85f74	0.08221331
187	0xbea1fc35	-0.3163773
188	0x3ed50e6c	0.41612566
189	0x3c52923e	0.01285225
190	0x3d3c6dfd	0.04600333
191	0xbc0ee080	-0.008720517
192	0x3e57bb86	0.21067628
193	0xbe051024	-0.12994438
194	0x3c306b27	0.010767735
195	0x3e201ba7	0.15635549
196	0x3b435257	0.0029803717
197	0xbd6d8bbc	-0.05799459
198	0x3e8688b8	0.26276183
199	0xbc50d3b9	-0.012745791
200	0xbe3dcaf4	-0.18534452
201	0x3e174234	0.14771348
202	0x3d9d344a	0.07675989
203	0x3e2c99d9	0.16855563
204	0x3e7d5288	0.24738514
205	0x3ed538bc	0.41644847
206	0x3e94bb7e	0.29049295
207	0x3e2a0049	0.16601671
208	0x3eb28b09	0.348717
209	0x3e00ea8a	0.1258947
210	0x3dcd2c14	0.10018173
211	0xbe9c3906	-0.30512255
212	0xbe843422	-0.25821024
213	0xbd80726d	-0.06271825
214	0x3e82f9d7	0.25581238
215	0x3ea3a66d	0.3196291
216	0x3e83ddfa	0.25755292
217	0xbed6fe8d	-0.41991082
218	0xbdd76e7e	-0.105191216
219	0xbe1e283e	-0.15445039
220	0x3ac84b4a	0.0015281227
221	0x3e0d14b1	0.13777424
222	0xbe2eb904	-0.17062765
223	0x3cfc8d26	0.030829024
224	0xbd3451ad	-0.044023205
225	0xbd84725f	-0.06467127
226	0x3e5fd06a	0.21856847
227	0xbe119b5f	-0.14219426
228	0xbda3906d	-0.079865314
229	0xbd450a1a	-0.048105337
230	0xbda878f5	-0.08226196
231	0xbc043878	-0.008070104
232	0x3e30acf7	0.17253481
233	0x3e380847	0.17971908
234	0x3ebebfbb	0.37255654
235	0x3a81fdb1	0.0009917525
236	0x3ea6e3ff	0.32595822
237	0x3d9ad61f	0.075603716
238	0xbdad08f7	-0.084489755
239	0x3e6cc1fb	0.23120873
240	0x3e9940c1	0.29932216
241	0xbe475b07	-0.19468318
242	0x3c948b89	0.018132942
243	0x3eb2d42f	0.34927508
244	0x3e592e93	0.21209173
245	0x3e91de8f	0.2849011
246	0x3e6f37fa	0.23361197
247	0xbdfec5f0	-0.12440097
248	0x3c8893b3	0.016671991
249	0xbd040ab8	-0.032236785
250	0x3ebfd05e	0.3746366
251	0xbdb0ce42	-0.086330906
252	0x3de634fc	0.11240575
253	0x3d9ea34c	0.0774599
254	0x3e97a884	0.29620755
255	0x3d9ce1b0	0.07660234

bias_ih_l1 f4 [100]
0	0x3e80bca6	0.25143927
1	0xbdda473c	-0.10658118
2	0x3de57621	0.11204172
3	0x3c2b6600	0.01046133
4	0x3da9e923	0.082964204
5	0xbcf0aa04	-0.029377945
6	0x3df32cbc	0.11873767
7	0xbd8f08af	-0.06984078
8	0x3d54d4d1	0.05196077
9	0x3d6aecaa	0.057354607
10	0x3ea2c1e8	0.31788564
11	0xbe526241	-0.20545293
12	0x3d44eb71	0.048076097
13	0x3f2629cf	0.64907545
14	0x3e1b937d	0.15192981
15	0xbe5dca86	-0.21659288
16	0x3e6709f4	0.2256239
17	0x3d09ab4f	0.03361064
18	0x3e442137	0.19153295
19	0xbd9d4bea	-0.07680495
20	0xbf1cf893	-0.61316794
21	0x3f1dd8cc	0.6165893
22	0x3e528e68	0.20562136
23	0x3df6f34f	0.12058126
24	0x3e90f49c	0.28311622
25	0xbd00db38	-0.031459063
26	0x3e709527	0.23494397
27	0xbe33ba11	-0.17551447
28	0x3d07e28b	0.033175033
29	0x3ee3cd0c	0.44492376
30	0xbe077aad	-0.13230391
31	0x3ed4c46d	0.4155611
32	0xbe1e079a	-0.15432587
33	0x3e519cc4	0.20469958
34	0x3ddcee77	0.10787671
35	0x3e09cc17	0.1345676
36	0x3e8c245e	0.27371496
37	0x3e576d3f	0.21037768
38	0xbd38fbbe	-0.045161955
39	0xbce895ea	-0.028391797
40	0x3e368066	0.17822418
41	0xbdf972c3	-0.12180092
42	0x3e1659f8	0.14682758
43	0xbd35ae5a	-0.044355728
44	0x3e082ef1	0.13299157
45	0xbd9730d0	-0.07382357
46	0x3df94427	0.12171202
47	0x3d291ee0	0.04128921
48	0xbd8e9fb4	-0.06964055
49	0xbd431b15	-0.04763325
50	0x3e83d4f1	0.257484
51	0x3e56db42	0.20982078
52	0xbd06e5e7	-0.032934096
53	0xbc08e5ab	-0.008355538
54	0x3e21c44a	0.15797535
55	0xbe75b174	-0.23993474
56	0x3e3cb644	0.18428904
57	0x3e11c21b	0.14234202
58	0x3e0e33e8	0.13886988
59	0x3d648ce7	0.055798437
60	0xbe1c1193	-0.15241079
61	0x3d30ae7c	0.04313515
62	0xbdba9f9c	-0.09112474
63	0x3cb7d8e2	0.022442285
64	0xbe110927	-0.14163648
65	0xbdabf10d	-0.08395586
66	0xbd751929	-0.059838448
67	0x3e0f9ef2	0.14025477
68	0xbd85357e	-0.065043435
69	0x3d6ee553	0.05832417
70	0x3e083b18	0.13303792
71	0x3e13e39a	0.14442292
72	0x395b8188	0.00020933722
73	0xbe88c1b5	-0.26710287
74	0xbdad84a0	-0.08472562
75	0x3e25619e	0.16150519
76	0xbb39c1ed	-0.0028344349
77	0x3e242503	0.16029744
78	0xbe1418b1	-0.14462544
79	0x3df90043	0.12158253
80	0xbc9a3157	-0.018822355
81	0x3c9dd59d	0.019266898
82	0x3e255125	0.16144235
83	0x3d4bc75e	0.04975068
84	0x3e959c7d	0.29220954
85	0x3e61970d	0.22030278
86	0xbd8996b5	-0.06718198
87	0x3e289ce8	0.16466105
88	0x3cb9b630	0.022669882
89	0xbe058998	-0.13040769
90	0x3e5caf39	0.21551217
91	0xbea43605	-0.32072464
92	0x3da1d618	0.07902163
93	0x3d936faa	0.071990326
94	0x3ead23a9	0.3381627
95	0xbe0e1dd6	-0.13878569
96	0xbdca2066	-0.09869461
97	0x3a90e3dd	0.0011054237
98	0xba529c80	-0.00080341846
99	0x3cbb2b5f	0.02284783
