Models/Norm_95 models (Feb)/norm_95_max(16.02).pth (torch, 132626 bytes, 18 tensors)

weight_ih_l0 f4 [120, 5]
00000000: 1a8a ad3b cbf7 083d bf21 ae3e ee6b fbbd
00000010: 8153 80be a38a 80be 596c c5bd 983b 133f
00000020: 1c23 78be e87d e03e 94cf 11bd 6f05 6f3d
00000030: c24e 8f3f 7605 61be 35ec 27be 2bc2 693d
00000040: dde3 feba 4534 cfbe 235e a8be 5d80 cfbe
00000050: d875 513c 1e88 51bd 16b1 e9be 02fa b13d
00000060: 8f12 913e c7af 153e 19c4 193c cc81 77be
00000070: 286b 7fbd 710d b0bd 5893 30bd 87ec c03c
00000080: 1cf3 f33e 88cd 0cbd c5d1 ba3e 5c8b a7bd
00000090: f169 0cbd 5929 8abe 6a22 48be 4b01 dbbd
000000a0: 6bdf 103e 0d11 c6bd ce6b bebe 452c 573d
000000b0: 3da8 31bc f936 40bd 0d7a 643d 4377 de3d
000000c0: 39ff b33d c6bc 5a3e b0b5 ebbc 978a b73d
000000d0: b438 f33e 918b f4be 0c41 09bf 7994 19be
000000e0: 72a3 13bd 5114 73bd 8199 693d a7fa 8c3d
000000f0: 4902 0ebd d44b 483d c1ed 60be 81ab 663d
00000100: 2ecd c63e beed 9e3d d8c8 55bd 683c 9fbe
00000110: 9a2e aebd dbe8 2a3f e320 f0bc 7bd8 d5bb
00000120: e0e1 103f d2dc 53be 4e31 adbe d97d 3fbe
00000130: c1a6 b23d dee9 2ebe 4529 b8be 19bb 8cbd
00000140: 0c42 0abd 07c0 b7bd 72a0 3cbe 356b 793d
00000150: be1f a1bd a4bb 9e3b f9f6 34bd 370c dabe
00000160: 1b4d 8d3e 40a9 343e 87db f4bd 5b68 5ebd
00000170: 450e 2cbf e083 1a3e c66b f43d 086e c1bd
00000180: fae2 223e d2f1 033f 0f5a f23d acf6 fdbe
00000190: 9433 9dbe 71fe 5b3e a0bb 31bf 4583 28be
000001a0: dac8 913e ce22 233e 5426 063d 41cd 55bc
000001b0: cbf3 b33d e361 f9bc 56a3 893e bf8b 8b3e
000001c0: ff48 a83e 3f75 2c3e eab5 a6bc 9984 593e
000001d0: 7856 f4bd 8503 e7be 4083 063e e02f a1bd
000001e0: 9493 04bd e1d4 9b3d 1555 3ebe 30e9 34bd
000001f0: 4f3a 3ebe fcac 0abe 8cab f73d a5db 233d
00000200: 2063 93be 802c 293e d96d d4bd f8b3 85bd
00000210: f0cf 693e e1ac 153e 0158 873d 221d 4f3e
00000220: 6a2b aabd 5219 73be 5ed0 94be 3892 753d
00000230: 3f5d da3d 0068 773d 83d8 18bf 8ad1 073e
00000240: 42d8 29be 0339 57bd 7030 6fbc 1f5a 6dbd
00000250: e09a 163e 019f 04bd 30c6 0d3d 2829 cb3c
00000260: f5fa a6bd 9907 763e d974 fc3d 35c6 e63d
00000270: b4f6 f73d ab26 8fbe 309e 023e 2f67 41be
00000280: f42a 233c b198 b0bd a0c2 23bf c871 023d
00000290: 2624 483e 95cc 063d 8c33 313d aa6e dc3e
000002a0: 84e9 353e 369c 11bd 28bf c03d e4ef 953e
000002b0: 77d7 b9be 0d5e 8d3d 5de7 8cbe 83b0 fabd
000002c0: 5d49 493c f89d acbe c112 8b3e c55d 74bd
000002d0: 4322 4b3e aeca 863d 1551 98bd 5688 99be
000002e0: 1f74 3cbe 7db6 843d 2641 a13d ee70 7a3b
000002f0: 04af 9fbe 3c53 25be 3bde 873c 7668 cfbd
00000300: 88ec b73d f32b 1c3d 2382 e73e eb2c 503d
00000310: 3783 98bd 36b6 b93e e709 853e d5e3 843c
00000320: 9a8e 33bc 77c6 85bd b160 0bbe bc01 d33e
00000330: 7070 5c3e 1d9a 993d 31c2 10bc 34ca 913e
00000340: f0d9 963e 1175 ec3d b30f 95bd 5d13 38bc
00000350: 3fc1 4ebe 753a 603d b088 34be c19a 3bbd
00000360: a825 0ebe b7bb 013e c6b0 4fbd e859 35bd
00000370: 7f33 bc3d 4cb6 91bd 6544 16bd 1535 05be
00000380: a32b a4be 8351 e33d 55ec ba3d 1d82 3abe
00000390: 6f0b dabd 297d 61be add4 90bd 1c28 8a3d
000003a0: b02d 6e3f 4de0 f5bd 3e50 b7bd 8492 fc3c
000003b0: 5354 24bd c4c7 06bf fe6f acbe 786e b7be
000003c0: f842 f23d a0ac 723d 07a1 69bb 774b 373b
000003d0: d030 303e 3948 1dbe e497 68bd 80df 8e3e
000003e0: eb94 143e 4a0c 02bd 8314 1e3e 9027 89be
000003f0: 3ab6 ae3e faca b8be 8490 afbe 3cd2 e33d
0.005296004 0.03343944 0.3401012 -0.12276445 -0.25063708 -0.2510577 -0.09639806 0.5751281
-0.24232143 0.4384606 -0.035598353 0.05835479 1.119591 -0.2197474 -0.163987 0.05706994
-0.0019446571 -0.40469566 -0.3288432 -0.4052762 0.012784444 -0.051155202 -0.45642918 0.08690263
0.28334472 0.14617835 0.009385132 -0.24170607 -0.06235805 -0.08596314 -0.043109268 0.023550285
0.47646415 -0.034375697 0.36488166 -0.081808776 -0.03428072 -0.2698467 -0.19544378 -0.10693606
0.14147727 -0.09671221 -0.37191623 0.052532453 -0.010843334 -0.046927426 0.05578046 0.10862591
0.08788914 0.21361074 -0.028773159 0.08961981 0.475042 -0.4776273 -0.5361488 -0.14998044
-0.036044545 -0.059345547 0.05703116 0.06883746 -0.034670148 0.04890044 -0.21965696 0.056315903
0.38828415 0.077601895 -0.052193493 -0.31100774 -0.08504982 0.6676156 -0.029312557 -0.0065260506
0.5659466 -0.20689705 -0.3382668 -0.18700351 0.08723212 -0.17081401 -0.35968986 -0.068716235
-0.033754393 -0.08972173 -0.1842058 0.060893256 -0.078673825 0.004844146 -0.044180844 -0.42587444
0.2759789 0.17642689 -0.11955934 -0.05429874 -0.67209274 0.15089369 0.11934619 -0.09444815
0.15906897 0.51540864 0.118335836 -0.49602258 -0.30703413 0.2148378 -0.6942692 -0.16456325
0.2847355 0.15931246 0.032751396 -0.013049425 0.08786734 -0.030442184 0.26882428 0.27255055
0.32868192 0.16841601 -0.020350415 0.21241988 -0.11930555 -0.45119873 0.13136005 -0.078704596
-0.032367304 0.07608963 -0.18587144 -0.044167697 -0.1857693 -0.13542551 0.12093267 0.04000439
-0.28786564 0.16520882 -0.10372514 -0.06528467 0.22833228 0.1461673 0.06608582 0.20225957
-0.08309062 -0.23740128 -0.29065222 0.0599539 0.106623165 0.060401917 -0.5970537 0.13263527
-0.16586402 -0.052544605 -0.014598951 -0.057947274 0.14707518 -0.0323782 0.034612834 0.024799898
-0.08153335 0.24026336 0.123269744 0.11268274 0.12107602 -0.2795919 0.12755656 -0.18887018
0.009958971 -0.086228736 -0.6396885 0.03184679 0.1954504 0.03290995 0.04326205 0.4305318
0.1776486 -0.035549365 0.0941146 0.29284585 -0.362972 0.069027044 -0.27520266 -0.12240698
0.012285558 -0.3371427 0.27162746 -0.059659738 0.19837289 0.06581627 -0.0743734 -0.2998683
-0.18403672 0.064801194 0.07873754 0.0038214284 -0.31188214 -0.16145033 0.01658546 -0.10127346
0.08980662 0.03812785 0.45216474 0.050824087 -0.07446902 0.36271828 0.25984117 0.01622192
-0.010959292 -0.06531995 -0.13611104 0.4121226 0.21527267 0.07500098 -0.008835361 0.2847458
0.29463148 0.11545766 -0.07278385 -0.011235085 -0.20190905 0.05474325 -0.17630267 -0.04580188
-0.13881552 0.12669264 -0.050705694 -0.044275194 0.091895096 -0.071148485 -0.03668632 -0.1300853
-0.32064542 0.110995315 0.09127108 -0.18213697 -0.10646712 -0.22020401 -0.07071815 0.067459315
0.93038464 -0.120056726 -0.08950852 0.030831583 -0.04011948 -0.5264857 -0.33679193 -0.35826468
0.118291795 0.05924666 -0.0035648958 0.0027968565 0.1720612 -0.15359582 -0.05678548 0.27904892
0.14509933 -0.03175 0.15437512 -0.26787996 0.34123403 -0.3609236 -0.34289944 0.111240834

weight_hh_l0 f4 [120, 30]
00000000: 5a27 26bd 5d55 5f3d adc6 f63c e1c0 8dbe
00000010: df17 e6be 661d 12be abb1 373e 007c 40bd
00000020: d019 24bd e474 d6bb b097 adbe 0589 843d
00000030: 5f18 523e 39b4 3abe b680 a23e 2f8b 3fbe
00000040: f725 093e 4bea 143e 1de6 14bf 448b abbe
00000050: ddfd 84be 9594 e23d d02b 693d 3132 4fbd
00000060: c71d ec3e 13b7 703e c4ca 8d3c 22be 9e3e
00000070: e9cb 8f3e 63d4 0ebe 478e 973e a5a7 b13e
00000080: 2888 213f 7191 88be 3089 993d c7c6 f03c
00000090: deb2 c93e d126 c43e 3f24 093d 84bd 29bf
000000a0: 79c0 b3bb c740 543e 39b0 943e ba64 c13e
000000b0: 6b72 85be 488b 82be fbdc a0bd 49ba bebe
000000c0: c420 21bf 6bbd 00bf 1bf5 c8be 0b38 4ebf
000000d0: 7152 7abd 296f fcbe acef 843e f181 72bd
000000e0: 3b7a babe fcdf e6be cc9a 93be 4caa 78be
000000f0: a8f8 b5ba 4b24 843e 2c72 3c3e 6c17 4cbd
00000100: f156 953d d259 00bf fbed 32be 7f27 043f
00000110: 81ff 123f dda5 213d f13a 5ebe aa58 b23e
00000120: 4837 a03d d658 523e 4575 f2bd 389f 003c
00000130: b9d4 b9bd 1587 21bd e2dc 9c3d e249 a7bd
00000140: bd0e 89bf 8325 c53e 5d67 523e 4b7c 4a3f
00000150: 7797 52be 227b 24bf de39 a43d 223e dd3e
00000160: 199e 923e ac4e 663e 7e3a 0ebe d38b 96be
00000170: b4fd 98bd 698c 06bd c66c b83e e951 06bf
00000180: d7cb 073f c0c7 353e 5c44 0d3e be09 2c3e
00000190: fd8a 55be 0d49 39be 57de 96be 399c 89be
000001a0: b4ca b0be d94d 263e bca1 3bbe 5f11 e63d
000001b0: 22a7 773e f128 953c 0d49 c5bc 6594 c1bd
000001c0: 604c 69bf ade9 1a3e 5ba2 103e bdfb fb3e
000001d0: ca7e 4b3e c81f e0be befa 863e bbad d33e
000001e0: 4732 243e ad5d 7e3e 9627 7ebe fdb1 4cbf
000001f0: e3de 7e3c 49c4 18be e119 b03e e960 c4bd
00000200: 5ff2 8c3d 22b4 ea3b 108f 5bbd c337 60be
00000210: 200e 36be 2686 933e 1138 8bbe ba2e 37bd
00000220: 3c1b 97bd 0613 e73c b174 2dbe 9e47 453c
00000230: 6514 8fbe 990f 28bd 2129 13bf 36b9 d03c
00000240: abda 2f3e 0ab4 eb3e 09da 333e fa36 bfbe
00000250: ca7a 90bd a628 353d 1feb 96be 8682 633e
00000260: b3af 243d a74a d1be 21e1 44be f60c 263e
00000270: ebe3 b23e cd34 d03d d849 06bf 809d 0cbd
00000280: dc18 e2bc e4f3 8e3e e08e 853e 531f c43c
00000290: 9e98 223d 4c50 e1be f8f0 c6bd d6d5 023d
000002a0: ee12 42bf 9951 85bd 4f80 1d3f efa3 05bf
000002b0: 8fbb 61be 2428 54be 0c90 2e3f 3b94 fd3e
000002c0: 612e c7bd 7af5 fcbd 2043 60be e7e7 a2be
000002d0: 6d29 b1be b170 f8be 6e66 b73d 6ed7 cabd
000002e0: 088b 8bbd dbf4 b53c 408f f23e 917c ec3e
000002f0: 7a7e 013e cae3 a83e 3e08 163f 8579 2d3e
00000300: 990a f0bd 74fe 02bf 2d5f e8be ff6b 68be
00000310: 1846 95be 5179 61be 48c4 a6be a9ca 683e
00000320: b847 8ebd 2327 bfbe f091 a93c f2e9 583e
00000330: 6280 183e cbff 823e c41c 36be 5407 8dbc
00000340: a948 12bc ea67 79b9 4510 adbe aaca 8d3e
00000350: 7880 683e 0fdc 98be cc2c 29be 315a f3bd
00000360: f89b 53be fd25 8e3e 8b61 9c3c 4e57 e6bd
00000370: 9205 40be e095 cf3e 013b 23bd 908a 6b3d
00000380: bdc3 ea3e eb6c 473e 6758 a03e 9630 943e
00000390: 60d7 cdbe 36ac fcbe 74f4 36be 8193 6f3e
000003a0: 0c5e 083e a134 43be 8de2 8c3d f2f1 c03e
000003b0: 4ead 96bc 25b5 123e 6af0 133e f87e 5b3e
000003c0: 4a66 1bbe a92a 2fbe 9384 9fbd a894 c0bc
000003d0: b996 03bd 8ab9 373d b2d5 bd3e 65fb 103e
000003e0: 2e25 59be 0604 633e 3201 883e 52c0 62be
000003f0: 7289 8ebd a2e5 63be 12c4 57be bfdf 5cbd
-0.040564872 0.05452477 0.030124033 -0.27686217 -0.44940087 -0.14269027 0.17938869 -0.046993256
-0.04006368 -0.006544696 -0.3390479 0.06471447 0.2051711 -0.18232812 0.31738824 -0.18705438
0.13393389 0.145425 -0.58163625 -0.3350469 -0.25974932 0.11063496 0.05692655 -0.050584976
0.46116468 0.23507337 0.0173086 0.31004435 0.2808526 -0.13948207 0.29600736 0.34698215
0.6309838 -0.26673463 0.074968696 0.02939166 0.39394277 0.38310865 0.033481833 -0.663048
-0.005485591 0.20727836 0.29040697 0.3777216 -0.26063856 -0.25496888 -0.07854649 -0.372515
-0.6294062 -0.5028903 -0.392495 -0.80554265 -0.06111378 -0.49303558 0.25964105 -0.059205953
-0.3642138 -0.45092762 -0.28829038 -0.24283713 -0.001388331 0.2580894 0.18402928 -0.049827024
0.072919734 -0.50137055 -0.17473595 0.51622766 0.5742112 0.03946482 -0.21702172 0.3483327
0.07823044 0.205417 -0.11838774 0.007850461 -0.09073777 -0.039435465 0.076593176 -0.08168389
-1.0707623 0.38505182 0.20547242 0.79095906 -0.20565592 -0.64250386 0.0801885 0.43211466
0.28636244 0.22490948 -0.138895 -0.29403552 -0.07470265 -0.03284875 0.36020488 -0.52468735
0.5304541 0.1775198 0.13795608 0.16800591 -0.20853801 -0.18094273 -0.29466507 -0.26877
-0.3452965 0.16240634 -0.18323416 0.11233782 0.2418485 0.018207999 -0.024082685 -0.09452132
-0.91132164 0.15128203 0.14124434 0.492155 0.19872585 -0.43774247 0.26363176 0.41343483
0.16034804 0.24840422 -0.24819788 -0.7995909 0.01555607 -0.14918627 0.34394744 -0.09588797
0.06882166 0.007162587 -0.053603232 -0.21896271 -0.17778826 0.28813285 -0.27191213 -0.044722296
-0.073782414 0.028207313 -0.16939045 0.012041001 -0.27945247 -0.0410305 -0.5748463 0.02547894
0.17173259 0.46035796 0.17563643 -0.3734663 -0.0705467 0.04422822 -0.29476258 0.2221776
0.040206622 -0.40877268 -0.19226505 0.16215882 0.34939513 0.10166321 -0.52456427 -0.03432989
-0.027599744 0.2792045 0.26085567 0.023940718 0.03969633 -0.44006574 -0.0971393 0.03194221
-0.75810134 -0.06509704 0.6152391 -0.5220327 -0.22044204 -0.20718437 0.6818855 0.49527153
-0.09725643 -0.123515084 -0.21900606 -0.31817552 -0.34601918 -0.48523477 0.08955084 -0.09904371
-0.068136275 0.022211483 0.47374916 0.46188787 0.12645903 0.3298629 0.58606327 0.16940887
-0.11720771 -0.51169515 -0.45385113 -0.22697447 -0.2915504 -0.22018935 -0.32571626 0.22733559
-0.06947273 -0.37334546 0.020699471 0.21182993 0.14892724 0.2558578 -0.1778441 -0.017215408
-0.008928456 -0.00023785201 -0.33801475 0.27693683 0.22705257 -0.2985539 -0.16520995 -0.11882437
-0.20664966 0.27763358 0.01908948 -0.11247121 -0.18752125 0.40544033 -0.039851192 0.05750519
0.4585246 0.19475143 0.31317446 0.28943318 -0.4020338 -0.49350137 -0.17866689 0.23396112
0.13317126 -0.19063045 0.06879149 0.3768459 -0.018393185 0.14326914 0.1444718 0.21435153
-0.15175739 -0.17106117 -0.077889584 -0.023508385 -0.032126162 0.04485468 0.370771 0.141584
-0.21205589 0.22169504 0.26563412 -0.22143677 -0.06959809 -0.22255567 -0.21070889 -0.05392432

bias_ih_l0 f4 [120]
00000000: 94fb 72be 8502 80be 4580 573e 5b1a babd
00000010: e66f c3bd 41fe 50be 5ac4 5c3c 0840 5f3e
00000020: 7adc 66be 2854 33be ee5a fcbd 03d4 34be
00000030: 15d8 54be b426 5c3e 10e6 cb3d 1180 003f
00000040: 0a5a 933d 2b0f 953e f0e6 0b3e 158b 21bd
00000050: 8476 083f b62f d03e 1937 5ebe b55d f83d
00000060: 4c07 51be 4c05 4abe c6ba be3a 84bd 573d
00000070: f37a 3c3d a0cc e4bb d050 8b3e ad1f cc3e
00000080: 16b2 f13d f295 c63e 890b 27be 9d16 7a3e
00000090: f730 dc3e fce7 923d e49d bc3e 76db 8c3e
000000a0: 425f dd3e 9d83 a53e 4c76 b53d 921b ad3c
000000b0: c995 a0bd 5216 763d 518f 5bbc e8b0 96be
000000c0: 77c6 903e 8a59 18bc 4ee0 a83d cae1 8dbd
000000d0: 41e2 cf3e c55a aa3d 701c 583e abef d93d
000000e0: 8539 74bd 774a babd a385 d43e bcf5 cb3e
000000f0: 1c68 2f3e c293 f63c 3f05 f83b 21f5 07be
00000100: cc66 dcb9 ad0f 583c 1a75 aa3c 3a54 663c
00000110: c3fb 093d e29e 46bc 02ec c23d beec 663d
00000120: 3d7f 443e f349 06bd ed91 773d bc20 f83d
00000130: af1e f23d 9d58 07be ee55 093e 5af0 bf3d
00000140: c8a8 30be 1d94 1f3d 9c1b f5bd 84af 773e
00000150: 4cc2 11be 3a07 d33c 64d3 e53d 51ff 863e
00000160: 52b5 e0bd 103d bd3d 056c a43e 1638 df3e
00000170: 2d5a 753e 0298 d23c aa6b 593d 8d5d 063f
00000180: 6283 223e a677 ca3e 49d6 12ba 07eb 1a3e
00000190: 9afe d73d 917f 4c3e 7fa4 6c3e adec 603e
000001a0: 559d 643e 3cb8 183e 7126 743d a304 053f
000001b0: 0ffe b53e 32f2 6a3e d025 283f 77ab 0e3f
000001c0: b525 3f3d c459 f4bd 5127 2e3e a55b b83e
000001d0: acfa 993e c880 34be 2492 843e 6918 693e
-0.23728782 -0.25001922 0.21045025 -0.09087058 -0.09542827 -0.2040949 0.013474548 0.2180177
-0.22545043 -0.17512572 -0.12322031 -0.17659001 -0.20785554 0.21499139 0.0995599 0.50195414
0.07194908 0.29113135 0.13662314 -0.03943928 0.5330584 0.406614 -0.21700706 0.12127248
-0.2041294 -0.19728583 0.0014551512 0.05267097 0.04601569 -0.006982401 0.27210093 0.39867917
0.11801545 0.38786274 -0.16312994 0.24422689 0.43006107 0.07173154 0.3683921 0.27511185
0.43236738 0.32326975 0.08860454 0.02113131 -0.07841069 0.06007988 -0.0134008685 -0.29431844
0.28276417 -0.0092986915 0.08245908 -0.069278315 0.40602306 0.08318094 0.21104598 0.10641416
-0.059625167 -0.09096234 0.41508207 0.39835918 0.17129558 0.030099753 0.0075689848 -0.13277103
-0.0004203826 0.013187331 0.020807792 0.014058167 0.033687364 -0.012122842 0.09517671 0.05637812
0.19189163 -0.032785367 0.0604419 0.121156186 0.11822259 -0.13217397 0.13411686 0.09372015
-0.17251885 0.03895961 -0.11968157 0.24188048 -0.14234275 0.025760282 0.1122196 0.26366666
-0.10972084 0.092401624 0.32113662 0.43597478 0.2396018 0.025707249 0.053081192 0.524865
0.15870431 0.3954441 -0.0005601389 0.15128718 0.10546608 0.19970538 0.23109625 0.21965285
0.22325642 0.1491403 0.059606973 0.519602 0.35545394 0.22943953 0.656827 0.55730385
0.04666682 -0.11931184 0.17007186 0.3600742 0.3007406 -0.17627251 0.25892746 0.22763218

bias_hh_l0 f4 [120]
00000000: c1aa 68be 4253 bbbe a3bd 93bb 1145 26be
00000010: ad11 0ebe d1a9 aebd 0e2d 6f3d 8f12 1c3d
00000020: 6c29 9dbe e597 ee3b 1dba 2bbe 0762 923d
00000030: 58db d6bd 5671 7d3c b4fc 463e 05f5 d33e
00000040: 36f1 2d3e c776 9c3d ff9f b6bb 06b1 693d
00000050: a59e 703e 60bb 0e3f 6a7b 8d3b 8f5c f43c
00000060: 3e05 b8bd 4446 92bd 71ec a2bd e776 13bc
00000070: 9a10 06be 07c0 fbbd 1a1c 903e a52f e93e
00000080: ebf7 0d3d 31db 6b3e 94fb 0dbe 0e9f f93e
00000090: 3229 e83e d907 ad3d 2b42 ac3e 8e80 713e
000000a0: 492b ec3e d0b2 1fbc 1937 383e c9c7 b53d
000000b0: a44f 2e3c e6ff 4e3d 79d3 493e 3e55 40be
000000c0: d0ec 433e ecc6 0abe f9af 3fbe 8288 18be
000000d0: c83b 1a3e 32a7 aabd f4dd 9d3e ba22 b33e
000000e0: e57a 51bd c259 6dbe d440 863e 09d8 033f
000000f0: 325a 5bbd cef3 6f3d 3035 f23d 7af6 edbc
00000100: 31cf 65be 3ec8 a53d 0834 63bb 6b28 95bd
00000110: 42f5 683d f5dc febd b326 10be d286 27be
00000120: c84f 263d 19fc 2f3d fa68 61be 0a08 41bd
00000130: 93c8 133e 4e3f 13be 2da6 c3bd 6730 4a3d
00000140: b093 1cbe c0bf 41be cfa9 90bd d3f8 273e
00000150: e873 68be fdf6 33be ad57 8dbd c68a 24bd
00000160: 5eff 653d ab0a 453e 5bb5 87bc 9f4c c73e
00000170: 4865 cd3e e7b2 3d3e 2e0a 293d 6728 193f
00000180: 2270 ac3e 8348 9c3e 7521 86bd c24c 733d
00000190: bc8f 8a3e 8ea4 313e 2928 633e 3bb2 b23d
000001a0: bb00 e23e 86a3 c73e f851 ce3d 30ed 113f
000001b0: 34b1 263d e88f 833e bc87 bf3e a06a 023f
000001c0: ac09 e93d bb21 e83d 0c56 403e 7e95 9a3e
000001d0: 93d7 6e3e a037 47be e472 2c3d 5288 c73e
-0.22721387 -0.36586958 -0.0045086904 -0.16237284 -0.1387393 -0.08528484 0.058392577 0.038103636
-0.30695665 0.007281291 -0.16770215 0.071476035 -0.10491055 0.015468916 0.19432336 0.41397873
0.16986546 0.076398425 -0.0055732722 0.05705359 0.23498018 0.5575466 0.0043176906 0.029829292
-0.08985375 -0.07142308 -0.07955254 -0.0090005165 -0.1309227 -0.12292486 0.2814644 0.45544162
0.03466026 0.23032834 -0.138655 0.48754162 0.4534393 0.084487624 0.33644232 0.23584196
0.46126774 -0.009747222 0.17989768 0.088759966 0.010639105 0.050537013 0.19709577 -0.18782517
0.19133306 -0.13552445 -0.18719472 -0.14895824 0.15061867 -0.08332671 0.308334 0.34987432
-0.051142592 -0.23178771 0.26221335 0.5150152 -0.053552814 0.05858212 0.11826551 -0.029048193
-0.22442318 0.08094834 -0.0034668464 -0.072831 0.05687452 -0.12444488 -0.14077263 -0.16360024
0.04060343 0.04296503 -0.22012702 -0.047126807 0.14431982 -0.14379618 -0.0955318 0.049362566
-0.15290713 -0.18920803 -0.070636384 0.16403513 -0.22700465 -0.17574687 -0.069014885 -0.040171407
0.05615174 0.19242351 -0.01656597 0.38925645 0.40116334 0.18525277 0.041269474 0.59827274
0.336793 0.30524072 -0.0654935 0.059399374 0.27062786 0.17347929 0.22183289 0.08725401
0.44141182 0.38991946 0.10074228 0.57002544 0.040696338 0.2569573 0.37408245 0.50943947
0.11378798 0.113345586 0.18782824 0.30192178 0.23324423 -0.19454813 0.042101756 0.38971192

weight_ih_l0_reverse f4 [120, 5]
00000000: f0d7 f8bc 8646 8d3e 78a4 39bf 6455 3abe
00000010: d344 373e 0ecf 9dbd 44a2 f43d 9404 7f3e
00000020: 6e2b 20bd a081 8dbd 381e 9f3a 3658 503e
00000030: 11ec 3dbe 21ee 8cbd 2424 a23c be83 08be
00000040: e694 48ba c315 44bf 83f4 543e 2c57 1f3f
00000050: 121e 873d 79a5 4dbd 6e07 28bf fa5a 1bbf
00000060: 095b 3f3e b76a a33d 939f d33d 6ad6 8f3e
00000070: f8e0 3abd fb92 043d c121 9b3d 5ff8 f8bd
00000080: 28f2 6d3f 276f 74be a654 7f3e dda4 03bd
00000090: eb08 8dbe fe46 50bf 2a6a 22be 3b8d 13bf
000000a0: 802c 81be 60ee 1cbc 53f9 94be 37e4 6a3d
000000b0: b782 a33e 4218 0ebc fe36 583d 8050 633f
000000c0: 101c a63e 565d e4bb 5528 7b3e d84d fdbd
000000d0: 2929 063f be07 243e 2a95 3c3e fa77 01bd
000000e0: eb62 8e3e df73 a9bb f28f 683e 7bb5 883f
000000f0: c1c1 013d 4df4 083e 1b88 a6bd 529b 633b
00000100: 3986 423e 0921 ed3d 45bd 55be d18c 8dbf
00000110: 06ca 223d b4a7 de3d 7436 2cbe c6be 0c3e
00000120: 4375 633f 2e9c a93d 89cc 183e 822d c53c
00000130: 70cd a53d e6a6 a53e ee09 763e 88a1 8a3e
00000140: bf6d 083e 9a9a a73c 64b9 3e3f 2428 873d
00000150: 96cf 673e 369b 953e 5026 5f3c 51c3 b03e
00000160: 8fde 0c3d de2e 193f 126b c8bd 64e7 81bd
00000170: 128c 60be e5f0 d6bc c9e3 e4be 9943 7e3e
00000180: ac8e 7dbd ce07 a8be 2c23 4ebf 28ba 16bd
00000190: 6159 5e3e 341c 113d 1d29 363f 36c0 92be
000001a0: af81 9c3e b18b d1bc 733e 843c 61ac 5d3b
000001b0: bbde c63e 8345 a1be 0838 703e 578d ab3e
000001c0: 7cf8 383e f936 053e a0a4 393e 3e40 643d
000001d0: bf59 143e 4f92 6c3f 9972 b8be 9b9b 2e3f
000001e0: fe32 3a3f 5913 0ebe 14db 2e3e a3bf 823e
000001f0: 47d8 d93e 677d debd 3a3a 0fbe f584 e3be
00000200: 77f2 bfbe c514 3bbe 49bf b9bd 0220 a43e
00000210: 5558 bbbe efa3 1abe 8744 d8bc 4f0e 153f
00000220: 2bfc 233c 4923 833d 7f31 783e 0b48 533e
00000230: a121 883c 37bc e53d 2e0e 4e3f 9154 47bd
00000240: d091 883e 9928 b53d dd86 e83d a6ad ef3d
00000250: de14 2cbe 9c46 b13d 9d71 803d 9cec c43d
00000260: da47 17be 992e b43e 0fd0 9d3e f0e3 893e
00000270: fd6e 933d 89e8 8cbe 124c 00be 99f5 7cbe
00000280: b10d dc3b 0d8c 06bd 5cbd 94be 5aa0 463f
00000290: ad57 57bd f888 573e cd7f 81bd b886 b9bd
000002a0: c7b0 6bbe 2514 cfbb 8351 ca3d 00a1 1a3e
000002b0: 1a28 20be 5d73 0dbf 4f03 cdbe c1a3 1dbe
000002c0: 3cee f63b 8668 a9be f8fb c23e 254a e13d
000002d0: 1763 53be 99fe 83bd 7602 933d 2b41 dcbe
000002e0: 60a5 cabe 9901 8abe 836d a13e 129a 823e
000002f0: be98 5a3e 4ee4 3e3e b00a 883b f604 12be
00000300: faa1 3dbe 6a43 833e 9bed b93d 46ca 293e
00000310: fa97 63be c6ee c33e 6a07 213e 90bc d9bc
00000320: 3b70 ed3d c837 84be 374c babd 364f 3f3d
00000330: fbd9 ed3d b77e 07bb 571c 14bd de75 993e
00000340: c7bf 073f b7ed 23bf 8f99 0a3e 45bd ef3c
00000350: fe68 b73e f41b 41be dc41 68be f5aa 6cbe
00000360: f93d 89bc a5da 8a3d f51d 203e 2e4c 93be
00000370: 033d e53d 9cc0 98bd 8952 953e 3462 b03e
00000380: fe8e b13d dc71 86bd a047 233d f1d6 463d
00000390: 086e 083e a9eb 06bd c262 8c3c 9539 a6bd
000003a0: a511 8d3e 76f5 073b 74c9 68be b16c cbbd
000003b0: 9ab0 9c3e aa73 173e 1ca5 e3be fb83 71be
000003c0: 5c1b 843d 2815 a7bc ae40 b03e 945c fb3e
000003d0: c943 423e 7415 9dbd bd90 b1bd da72 adbd
000003e0: 21f8 b03e b835 23bd ffed 083f 5a4c 483e
000003f0: a861 e23d 6247 50be e8a0 06bf 2d2b 61bd
-0.030376405 0.27592868 -0.72516584 -0.18196636 0.17897348 -0.07705508 0.11945012 0.2490409
-0.039103918 -0.0690949 0.0012139743 0.2034615 -0.18547083 -0.06881357 0.019792624 -0.13331506
-0.0007651582 -0.76595706 0.20796399 0.6224239 0.06597532 -0.050206635 -0.65636337 -0.60685694
0.18687071 0.079793386 0.10333171 0.28093272 -0.045624703 0.032366734 0.075747974 -0.12156748
0.92947626 -0.23870526 0.24934635 -0.032139648 -0.27545866 -0.81358325 -0.15860811 -0.57637376
-0.25229263 -0.009578317 -0.2909647 0.05734655 0.31935665 -0.008672776 0.05278682 0.8879471
0.32443285 -0.0069691343 0.24527104 -0.12368363 0.52406555 0.16018578 0.18416277 -0.03160856
0.27809843 -0.0051712836 0.22711161 1.0680383 0.03167892 0.13374443 -0.08131429 0.003473003
0.18996514 0.115785666 -0.20872982 -1.1058599 0.039743446 0.108718306 -0.16817647 0.1374465
0.888508 0.08281742 0.14921774 0.024069551 0.08095825 0.32353896 0.24027225 0.27076364
0.13323115 0.020459462 0.74501634 0.06599453 0.22637782 0.2921998 0.013619974 0.34524015
0.034391936 0.5983714 -0.09786047 -0.063429624 -0.21928433 -0.026237914 -0.44705036 0.24830474
-0.06190364 -0.32818455 -0.8052242 -0.036798626 0.21713783 0.035427287 0.71156484 -0.2866227
0.3056769 -0.025579305 0.01614306 0.003382467 0.38841805 -0.31498346 0.23458874 0.3350627
0.1806354 0.13009252 0.18129206 0.05572533 0.1448736 0.9241075 -0.3602493 0.68206185
0.7273406 -0.13874568 0.17075759 0.25536832 0.4254782 -0.10863762 -0.13987055 -0.44437376
-0.37489673 -0.18269642 -0.09069688 0.3205567 -0.3659083 -0.15101598 -0.026399864 0.5822496
0.010008852 0.064032145 0.24237631 0.20632951 0.016617598 0.1121754 0.80490386 -0.048664633
0.26673746 0.08845634 0.11353848 0.11703043 -0.16804835 0.08656046 0.0627167 0.09615442
-0.14773503 0.351918 0.308228 0.26931715 0.07198904 -0.2752116 -0.12529019 -0.24703063
0.0067154993 -0.032848407 -0.2905072 0.7758843 -0.05257385 0.21048343 -0.06323204 -0.09058899
-0.23016654 -0.00631954 0.098788284 0.15100479 -0.15640298 -0.55254155 -0.40041587 -0.15394498
0.007535724 -0.33087558 0.38082862 0.1100047 -0.20643269 -0.06445045 0.07178204 -0.4301847
-0.39579296 -0.26954344 0.31528863 0.2550817 0.21347329 0.18641779 0.0041516647 -0.14259705
-0.1851882 0.2563737 0.09078523 0.16581067 -0.22225943 0.38268107 0.15725484 -0.026579171
0.11593672 -0.25823808 -0.09096568 0.0467064 0.11613842 -0.0020674893 -0.03615984 0.29972738
0.53027004 -0.640346 0.1353514 0.029265055 0.3582229 -0.1885832 -0.22681373 -0.2311209
-0.016753184 0.067799844 0.15636428 -0.28769058 0.11193278 -0.07458612 0.29164532 0.34449923
0.08669852 -0.06564686 0.03986323 0.048544828 0.13323224 -0.032939587 0.017136935 -0.08116452
0.27552524 0.0020745671 -0.22733098 -0.099328406 0.30603486 0.14790216 -0.44461906 -0.23585503
0.06450531 -0.02039583 0.34424347 0.4909407 0.1897117 -0.076701075 -0.08670185 -0.08469172
0.34564307 -0.039846152 0.53488153 0.19560376 0.11053783 -0.2033973 -0.52589273 -0.054972816

weight_hh_l0_reverse f4 [120, 30]
00000000: 1da0 a63e 14ea 323e 2982 c3bd eacd f9be
00000010: ef28 8c3e e48e a3be 16cf 8a3e 770b 103d
00000020: 62f9 0bbe aba2 9c3e f6e0 bd3b d90f fa3d
00000030: 6d6a 26be df43 81be c707 e93e 085a ddbe
00000040: d805 87be 7142 fdbd 0a1a 4d3c 25d3 84be
00000050: ee03 de3e b531 8bbe 9693 7d3e 6111 ad3e
00000060: 7970 33be a943 933e c158 21bf d955 c33e
00000070: 20eb f3be 3b43 20be 6e4b 09bf f907 573e
00000080: 8abd 85be 1d73 213e 63f2 1cbf a2a0 39bf
00000090: cc9e 30bf 474b 8cbe f595 ca3c 5db5 c23e
000000a0: 330e 8ebe 1f4e 6abf 4f95 d8bd 1159 6f3d
000000b0: 349b 073f 3dbe 433e 90e9 e83e c293 d33e
000000c0: 06cb 71bf 5471 d7bd 95a4 583e 698f 4dbd
000000d0: 77fd 2d3b 6f12 86be 1423 a33d 78f1 99bd
000000e0: 7edd 56be ad33 dbbc d5b6 ce3d 97a4 043f
000000f0: ef7b 84be 95e8 b3be f81b fcbd 13e5 993e
00000100: 1581 b7be 1dd1 223d e115 3abe 2d64 8c3f
00000110: 5e4b dd3e 53a9 053f bccb 183f 5c60 33be
00000120: b15d 3c3d 3fae 343f a68f 513e 444b 793d
00000130: 8220 bd3e 7947 e63d 2937 d53e 4c02 a3bc
00000140: f7cf 433f 29f8 8cbe e9ba 30bf 9222 37bf
00000150: 8f1f 19bf 445f 9dbe e11d da3e 2f76 023f
00000160: 72f1 84be d423 dd3d 497f 003f 549f e6bc
00000170: 7b7b 863e d17a 9cbd 5a89 b0be 54e7 26bc
00000180: c026 81be 4535 afbd 18da b5be 7934 a63c
00000190: 815f 15bd bc3c 30bd e79e f5bc bbe4 a9be
000001a0: c12e acbd 8a72 ce3d f9c6 083e b5e6 4b3e
000001b0: ac2a 903e c132 633c 92b5 bb3e 3fcd 8ebd
000001c0: 45f7 be3e 8199 4c3e ac60 833d c1b9 423e
000001d0: a87a 923c 4502 0a3d 4aef afbe 6028 0fbd
000001e0: 097d d13e 5221 9c3e f2f9 8fbe a1e7 d13e
000001f0: ffe7 5d3d a212 f83e f981 963d 465c 123f
00000200: 6d1a 86bf 746e 3a3d dd73 0abf dc16 1f3f
00000210: effc 94be 2b55 433f af6b 063e 6f8d eebe
00000220: 93a7 b5be 8342 433e 7fb2 5ebe d264 c53e
00000230: f7da c3be 44fd 153e 0d1b 2c3f 777d 323f
00000240: 364b 003f 4090 6f3e 2f71 edbe 5777 0abe
00000250: a4f1 39bf e040 d9bc 217e 2abe 2708 ffbc
00000260: 587e 813c 0800 12bf 9316 2b3e 9b75 88be
00000270: 8ea6 f4be 3e7c e73e e7d6 e7be 8447 e53e
00000280: 9fba 1d3c f139 e8bd 9c00 6dbf da0b 803e
00000290: 214c 613f dbc2 01bf 2341 43bd c488 04be
000002a0: 4d44 6bbd 2f5e b3be b636 863f d750 9cbe
000002b0: 9a25 53be 0b7a b8be 0b53 fbbd e50a 30be
000002c0: 3e05 54bf 2ccb 81be d56b 23bf 328d 893c
000002d0: a598 8f3e f222 173f be0a 6d3e bbd4 fdbe
000002e0: 6d44 8d3e f104 07bf 05ef f6be f5fb 5abf
000002f0: e5d7 72bd f34a 0b3f 0101 97be a020 1bbf
00000300: 95e1 babc 38d3 9cbe b502 593f 41d4 adbe
00000310: d844 d73e c1f1 183f 21c3 e9be ed1e 7f3e
00000320: 4458 4a3f 3c76 b33e 43d4 02be 704b 2bbf
00000330: 136a 783e bccc 033c 385b 94bf 8688 863e
00000340: 9c2b 36bd b800 463f f94d 073f f0b0 e7be
00000350: c777 a13e 4952 05bf 7420 913e c217 11bf
00000360: ba8e 0f3e 1c10 ffbe 557f a93e b8bd 9e3c
00000370: e12d 1f3f 5b2f eb3d 5297 a0bd 97fa c3be
00000380: d33a 0f3f bffc d2be f243 043d 5508 cebe
00000390: 6902 a4bd dd8a 3f3e eafd f43e 3089 05be
000003a0: e85a b5be 2acf b9bd da69 0ebf adcd 473d
000003b0: f9da 02bf 9de7 0e3f 7a6a 5abf 20b6 8bbd
000003c0: 268d 5e3e 2b81 b3be b263 b8be 4355 6abd
000003d0: 887f bebd d5cb 9bbe 41e6 a0be 5b46 27be
000003e0: a5ea c53c 7be0 4bbd c569 5dbb 42a3 d6bd
000003f0: 29b4 783e 1115 e13c 8c37 b8bb 57bc d4be
0.32544032 0.17472106 -0.095463105 -0.48789912 0.2737498 -0.31944954 0.2711112 0.035167184
-0.1366935 0.30592856 0.0057946397 0.12210054 -0.16251536 -0.25247094 0.45513746 -0.4323275
-0.26371646 -0.12366188 0.012518415 -0.2594234 0.43362373 -0.2718636 0.24763331 0.33802322
-0.17523374 0.28762558 -0.6302605 0.38151434 -0.47640324 -0.15650646 -0.5363072 0.20999135
-0.2612117 0.15766568 -0.6130735 -0.7251073 -0.68992305 -0.27401182 0.024729708 0.38028994
-0.27745208 -0.91525453 -0.10575353 0.05843455 0.52971196 0.19115539 0.45490694 0.41323668
-0.94450414 -0.105196625 0.21156533 -0.050185595 0.0026548782 -0.2618594 0.07965675 -0.0751676
-0.2098293 -0.02675804 0.10093466 0.51813644 -0.25875804 -0.35138384 -0.12310022 0.30057582
-0.3584067 0.039750207 -0.18172409 1.0968071 0.43221563 0.52211493 0.59685874 -0.17517227
0.04598779 0.7057838 0.20464954 0.060862795 0.36938864 0.11244101 0.41643646 -0.019898556
0.76489204 -0.2753308 -0.690352 -0.71537125 -0.5981378 -0.30736744 0.4260092 0.50961584
-0.25965458 0.10797849 0.5019422 -0.028152145 0.26266083 -0.07640613 -0.3447979 -0.010186989
-0.25224876 -0.08555082 -0.35517955 0.020288693 -0.036468033 -0.04302667 -0.029982997 -0.3318232
-0.08407355 0.1008044 0.13357152 0.19912226 0.28157556 0.013867081 0.36661965 -0.06972741
0.37298027 0.19980432 0.06414923 0.19016172 0.017880753 0.03369357 -0.3436225 -0.034950614
0.40915707 0.3049417 -0.2812038 0.4099703 0.054176327 0.48451716 0.07349009 0.5717205
-1.0476815 0.045515493 -0.54083043 0.62144256 -0.29099223 0.7630183 0.13127016 -0.4659228
-0.3547941 0.19068341 -0.21747778 0.38553482 -0.38252994 0.14647394 0.67228776 0.69722694
0.5011476 0.23394871 -0.46375415 -0.13522087 -0.7263434 -0.026520193 -0.16649677 -0.031131817
0.015807316 -0.570313 0.1670783 -0.26652226 -0.4778332 0.45211977 -0.45281145 0.44781125
0.0096270135 -0.113391764 -0.92579055 0.25009042 0.8800679 -0.5068795 -0.04766954 -0.12942797
-0.057438184 -0.35032794 1.0485446 -0.30530426 -0.20619813 -0.3603061 -0.122716986 -0.17191656
-0.828205 -0.2535032 -0.63836414 0.01679096 0.28046146 0.590377 0.23148629 -0.49576363
0.27591267 -0.52741915 -0.48229232 -0.85540706 -0.059287924 0.5441124 -0.29492953 -0.60596657
-0.022812644 -0.30629897 0.84769756 -0.33951 0.4204471 0.5974389 -0.45656684 0.24914141
0.7904093 0.35051143 -0.12776284 -0.66911983 0.24259214 0.008044418 -1.1590338 0.26276034
-0.044475183 0.77344847 0.5285335 -0.4525218 0.31536695 -0.5207868 0.28345072 -0.56676877
0.1401929 -0.49816978 0.3310496 0.019377574 0.6217938 0.11483642 -0.07841362 -0.38277122
0.55949134 -0.41208455 0.03229136 -0.40240732 -0.08008272 0.18705316 0.4784997 -0.13040614
-0.35420918 -0.090727165 -0.55630267 0.048780132 -0.51115376 0.55822164 -0.8531872 -0.06821847
0.21733531 -0.35059485 -0.3601356 -0.05721022 -0.093016684 -0.3042895 -0.3142567 -0.16335432
0.024159739 -0.049774628 -0.0033784967 -0.10480358 0.24287476 0.027475866 -0.005621856 -0.41549942

bias_ih_l0_reverse f4 [120]
00000000: 6a55 7cbd a912 16bc ce9c 38be 0b9e 1f3e
00000010: 4184 66be a874 e83d 9ed0 103e 648a 193c
00000020: 8bbf a93b 519c 84be c426 ac3d 5210 10be
00000030: 55c2 703d 0615 23bd bf61 83be 06d3 3d3b
00000040: d9ec 73be 723f 793e 9723 f9be 57ed 2dbe
00000050: d527 f7bd 22fd c03d c893 a2bd c007 97be
00000060: 5547 4b3d e12d 693e 09b3 92bc c20b 7f3e
00000070: 15e8 a2bd 4af3 e7bb 32a2 963e 709b 283e
00000080: 55ac 053e 9d03 60be d02c 0cbe 551b 853e
00000090: 128b 21be d188 133e 1fc5 aa3d 55e6 01be
000000a0: b23d 3dbd a368 bb3d f2c6 ce3e 0e56 8d3e
000000b0: fd10 06be d597 cb3d 4132 023e dfd7 843d
000000c0: 0df4 f73e 50c8 c83e 5579 053e 422d e53d
000000d0: 43ba db3e 3afd d4be 5f33 8d3e abdd cb3e
000000e0: 6a5f 533e 9be8 c83e beba a53e 1f10 e6bc
000000f0: d384 5e3e e5bc d73d de10 633e f4f0 79be
00000100: 2319 8d3e 5111 3abb 6861 7dbd 9da8 c2bd
00000110: 91fc 27bd 8c31 4abe f0fe f73d d899 a7bd
00000120: 6c5e 103d f1d4 bfbc 096b c3bd 30c6 3a3e
00000130: a4b3 ac3c b6e1 383e d46f 9ab8 82bb f53d
00000140: 66b1 223d d5b5 0fbd d9c3 1a3d fa68 153e
00000150: b506 323c b6e3 9ebd 3e52 9a3d 676b 703e
00000160: 5680 64bb ed2f 63bc be8e 39bd 147d 38bb
00000170: 7171 84be 6a72 4c3e 8f68 02bd 828e 633e
00000180: bd65 593e 05a0 803e 2a21 1d3d bae5 7a3c
00000190: 2c9d 11bd 9697 72bd 62ae fc3e 9f76 da3e
000001a0: 022f 373b 81ff 303c f6b8 b7bd c0b6 003f
000001b0: 8f52 253e 7754 f13d 4232 803e 7c09 993d
000001c0: fe4c 913b 024c 6b3d 0679 12be 41f6 153e
000001d0: 8ea1 653e 3050 313b 53c6 593d 7364 ab3d
-0.061604895 -0.009159722 -0.18028566 0.15587632 -0.22511388 0.113503754 0.14142081 0.009371374
0.0051803044 -0.2590051 0.084058315 -0.14068726 0.05877908 -0.03981497 -0.25660512 0.002896489
-0.23820819 0.24340609 -0.48659965 -0.16985069 -0.12068144 0.09423281 -0.07938343 -0.294981
0.049628574 0.22771408 -0.017907636 0.24906829 -0.079544224 -0.007078563 0.2942062 0.16465545
0.1305402 -0.21876378 -0.1368897 0.25997415 -0.15775707 0.1440766 0.08338379 -0.12685521
-0.046201415 0.09150817 0.40386158 0.27604717 -0.13092418 0.09941069 0.12714483 0.06486487
0.48428383 0.39215326 0.13034566 0.11190273 0.42915544 -0.41599447 0.27578256 0.39817557
0.20641866 0.39239964 0.32369035 -0.028083859 0.21730356 0.10534076 0.22174403 -0.24408323
0.2755824 -0.002839167 -0.061860472 -0.09504817 -0.04101235 -0.19745463 0.12109172 -0.0818364
0.035246298 -0.023416968 -0.095419 0.18239665 0.021081753 0.18054852 -7.364122e-05 0.11998655
0.03971996 -0.035085518 0.03778443 0.14590827 0.010865857 -0.07758276 0.07535218 0.2347847
-0.0034866533 -0.013866407 -0.045302145 -0.0028150724 -0.258678 0.1996552 -0.031837996 0.22222331
0.21230216 0.25122085 0.038361706 0.01531356 -0.03555028 -0.059226595 0.49351794 0.42668626
0.0027951603 0.010803104 -0.089708254 0.50278854 0.16144775 0.117836885 0.25038344 0.07472512
0.004434227 0.057445534 -0.1430398 0.1464472 0.2242491 0.0027055852 0.053167652 0.083687685

bias_hh_l0_reverse f4 [120]
00000000: 0161 45bc 5d11 933d 0a7c eebe a952 e63d
00000010: b1c5 cdbd 5fa1 3a3e 9c38 893e bdda 86be
00000020: 572f ffbd 0d15 86be 12eb ca3d e060 34be
00000030: 293d f6bd 29ba f9bc 5e39 76be a614 a23d
00000040: 6302 82be 76aa 6b3e ac1c 2ebe c8b8 023e
00000050: ca5c cfbd 7b41 aabc 5ab3 bb3d 7fe7 ffbd
00000060: 2470 49be 46de 1d3d 7231 27be e172 86bc
00000070: ecc5 0139 8685 773e c9c2 8d3d 0ff6 1b3e
00000080: cade a13e ee8e 90be cf66 3bbe b3ed ae3e
00000090: d4c9 81bc 989c 883e 3280 5d3e 8403 853b
000000a0: 3d07 753c bcc5 fd3d 18ff b43e 3176 643e
000000b0: 4dfb 213d ba56 4abd 9601 96bc 3626 36be
000000c0: 4f19 723e 3f68 e13e ba80 8c3c 7c21 933e
000000d0: f4f4 b13e a70a 25be 082d f13d 60d9 b03e
000000e0: dd12 893e 14b7 b63e 4be1 3b3e e597 143d
000000f0: e302 263d 1e0e 2d3e c01a 623e 49d8 8fbd
00000100: 1e46 6c3e dc96 80bd 3285 3c3e f966 0a3d
00000110: 06bb 743c 6503 96be 3958 ebbd 4a9f 8ebc
00000120: 3b4d 9cbd 0840 45be c668 54bd 1887 9e3d
00000130: b640 76be 5510 803e dc15 993c f1d5 35be
00000140: 5048 623d 8b0d 9f3d e1ac 1ebe 4491 173e
00000150: 409d 0b3d d3f0 473e 5224 ae3c d091 0d3d
00000160: a08f 853d 0faf 38bd 5e6a 133e 6b57 253e
00000170: 6610 1dbe 6af3 0fbe 917b b4bd b7e2 f73d
00000180: 8aef a43e fa25 673e 2a47 c33d cb0a 153e
00000190: 6fe9 f83c 4e08 253d 4506 143f 698a a43e
000001a0: 6e37 2cbd 649b 333e cca4 35bd 3a07 d43e
000001b0: ccd8 113d fef4 8abc 6e88 ed3d 46ff 523b
000001c0: 674c 3bbd 29ad 0ebe c401 b3bd 6829 863e
000001d0: b1ac 8f3e d958 c63d 672d 893d 986d 9c3c
-0.012047053 0.07181046 -0.4657901 0.11246235 -0.10047472 0.1822562 0.26801002 -0.2633876
-0.12460201 -0.26187935 0.09908117 -0.1761508 -0.12023384 -0.030484276 -0.24045321 0.079140946
-0.25392446 0.23014244 -0.17003125 0.12765801 -0.1012512 -0.020783177 0.09165068 -0.12495326
-0.19671685 0.038542055 -0.16327456 -0.0164122 0.0001237613 0.24172029 0.06921918 0.15230583
0.31615287 -0.28234047 -0.18300937 0.34165725 -0.01584331 0.26681972 0.21630934 0.004059257
0.014955339 0.123912305 0.3535087 0.22310711 0.0395463 -0.049399115 -0.018311303 -0.17788014
0.23642467 0.44024846 0.017151225 0.28736484 0.34757197 -0.16117345 0.11776167 0.34540844
0.26772204 0.35686553 0.18347661 0.03627767 0.040530097 0.16899917 0.22080517 -0.07023675
0.23073623 -0.06278774 0.18410185 0.03378961 0.014937168 -0.29299465 -0.114914365 -0.01740994
-0.07631918 -0.19262707 -0.051857732 0.07740611 -0.24048123 0.2501246 0.018687181 -0.17757393
0.055244744 0.07766255 -0.15495636 0.14801508 0.034085512 0.19525461 0.021257553 0.034562886
0.06521535 -0.045088824 0.14396045 0.16146629 -0.15338287 -0.14057699 -0.08812631 0.12103789
0.32214004 0.2257308 0.09535058 0.14554898 0.030384747 0.040291123 0.57822067 0.3213685
-0.04204505 0.17539746 -0.044346616 0.41411763 0.035607144 -0.016962525 0.115982875 0.0032195612
-0.04572716 -0.13933243 -0.08740571 0.26203465 0.2806144 0.09684915 0.06698113 0.019095227

weight_ih_l1 f4 [120, 60]
00000000: 29c9 973d 1f31 50bd aa31 9cbe 55fd a03e
00000010: b0ed ad3e 7692 0bbe 733d 0fbf b0fd 3c3d
00000020: 602b 49be 8af6 1f3e a53d a33e 4b6b dc3c
00000030: 1ecc 81be 7488 9fbe e27c a9bd 09ad f13c
00000040: a406 8abd 44c2 4fbf 0355 88be 5176 c23e
00000050: 6b9e 96be 0d66 6abf 58bf 6ebe 5c45 8e3e
00000060: 6862 23be 7cb1 753e 3f51 34be a9a8 94be
00000070: 268c 373e b3df 673d 33fa bfbd 897f a73e
00000080: 647e debd 2a23 3a3f d365 30be bd67 883e
00000090: e785 1d3e 64ec 373e 15cd 82be 68ac 4cbe
000000a0: bf78 05be 6aef d43e be49 68be df75 ba3e
000000b0: 619d 313e 4783 913e 2ec8 26be 02b9 723e
000000c0: 26d9 11be 251f 30be 22fb 0fbf f239 103e
000000d0: da0d f73d a15e dc3e 4811 c93e f24b 253f
000000e0: 9db0 57bd 9e68 3c3e 766e a83d 1ff3 073d
000000f0: d19f 0c3f 468f 82be f1e0 fcbe f1cd 483d
00000100: fe05 033f f941 4dbd 952f 313c a54c 11be
00000110: 086b 4b3d 4c73 afbe 03f1 943e 4b89 5cbe
00000120: cc56 e4bd 5761 f43c 234f 1bbe 88a5 cc3e
00000130: 34c1 46bd ca33 8cbe 6cd3 923e 4c46 103e
00000140: 986c 0cbf 035f a9be 5ff1 bfbd d4b1 da3e
00000150: 50d7 063c 32ef c43d c7d0 183d 5703 6cbe
00000160: de38 0f3c 3071 623e 4ad7 f3be 0cad 31be
00000170: bdc0 2ebd 6dff d93e 8799 4cbf c110 5fbf
00000180: 7193 d03d 4da1 9cbe 9c8e a43e 6969 25bc
00000190: d01c b9be 5b35 08bd e7d0 c13e 6d0d 693e
000001a0: 5028 bb3e 746c d73d 6f2a 0cbe 0ff7 893e
000001b0: 53ec a93e 42d1 c43e 136b 853d ca9b 233f
000001c0: 57be 493d 0310 d7be b200 1f3e 8bb5 95be
000001d0: f4b9 cebd e5ac 8abe 4243 f83d dfb9 553e
000001e0: 2909 eb3e 629c 8dbd 0f04 2fbe 6a04 d33e
000001f0: 6139 c83e 379a 96bd 6baf 623d 59e0 8ebe
00000200: aee8 6c3e 13dc 9e3e 3080 ad39 d249 0ebe
00000210: 11d0 70be 6a03 cdbe d47b f3bd de5b c23c
00000220: 83e5 21be b994 30bd ac1c c0bd 4c11 da3d
00000230: f50c 5bbe 64f5 d63d 4045 97bc 9781 9f3e
00000240: e1a5 b1bd 56b1 60be 5ca7 c63e 6ee5 2ebd
00000250: 0f23 293d e3b9 ec3d 8e14 11be a4fc 68bd
00000260: 990a c3be f7a9 c9bc bec9 aabe e82a 1bbe
00000270: 1f98 9f3e 24d5 a23e 84f0 2cbe 9694 2e3e
00000280: 9006 9abe 80a4 6d3a ca67 e4ba 9271 903e
00000290: 09d5 9bbc 18e0 d3bc 9848 823d fd66 81bc
000002a0: 9133 d93d b95f 99bd 070c 6bbe 9d0f ce3e
000002b0: 583d f1bd be76 a9bd 0490 313e 7ea1 5cbe
000002c0: f183 023e 8dad 953e c08d 653e 128a b13c
000002d0: 43c0 e43e f73e c3be eecc 1ebf 4d75 a83d
000002e0: 5be3 a13c 74d6 363e 14ae 68bd d22c 9abe
000002f0: 0830 1fbe 05f0 3fbe 3b2b 403e 54c1 63bf
00000300: 43ed 2c3d 23f2 8ebd 0fd1 223e 7e6f 9fbd
00000310: 7fc6 59be 38ad 3a3e 7a73 0abe 157a b9bc
00000320: aa07 8abe 5070 b73c 595c bdbd ba23 123e
00000330: cc82 11bf 8e0e b3bd 9291 9fbd c78f d03e
00000340: cb50 13be 5a6a 4d3e f54f 6c3d 9a8e dbbd
00000350: d958 a13e ad62 66be 827d 803d 793b 0cbf
00000360: 9b64 99bf 817c b0bd a6ab 5a3e 6cb4 31be
00000370: 0395 aa3d 8d72 d2be f7ac 493e 3397 95bd
00000380: a40b 1a3e b1cc 9c3e d956 b93e 5129 503f
00000390: c9ef 7e3b 9d95 fc3e 9dc4 cfbd a234 923e
000003a0: e114 e1b8 45c8 36be 1199 a43d 758f 3ebc
000003b0: 531d 193e 4215 dc3d 40aa a63d 5ee6 df3d
000003c0: a896 7c3e d849 fbbe 654d 20be 3c7a dc3e
000003d0: 0524 a3bd 28ac f23d c674 9e3e 97d4 04bd
000003e0: f733 863c 7ef9 71bc 2f70 debe e78a 73bf
000003f0: cfff b1be 806f 48be 9162 6e3d 1e46 79be
0.07411415 -0.050828096 -0.3050664 0.31443277 0.33970404 -0.13630089 -0.5595314 0.046140373
-0.19645452 0.15621391 0.3188297 0.02690663 -0.25351042 -0.31158793 -0.08275773 0.029501455
-0.06739548 -0.811558 -0.2662736 0.37980893 -0.29417738 -0.9156197 -0.2331518 0.27787292
-0.15955508 0.23993486 -0.17609118 -0.29034927 0.17924556 0.05660982 -0.093738936 0.3271449
-0.10863951 0.72709906 -0.17226343 0.26641646 0.15383111 0.1796127 -0.2554709 -0.19987643
-0.13034342 0.41588908 -0.2268438 0.36418054 0.17345192 0.2842047 -0.162873 0.23703387
-0.14242992 -0.1719938 -0.56242573 0.14084604 0.12063189 0.43040946 0.39270997 0.6456901
-0.052658666 0.18399283 0.08224194 0.033190843 0.5493136 -0.25499934 -0.49390367 0.049024526
0.5118102 -0.050111745 0.010814567 -0.14189394 0.04966262 -0.34267652 0.29090127 -0.21536748
-0.11149368 0.029831572 -0.15166907 0.3997004 -0.048524097 -0.27383262 0.28676927 0.14089316
-0.548532 -0.330803 -0.0937221 0.42713797 0.008230045 0.096159354 0.03730848 -0.23048149
0.008741586 0.2211349 -0.4762519 -0.17351168 -0.04266428 0.42577687 -0.79921764 -0.8713494
0.10184372 -0.30591813 0.32140052 -0.0100959325 -0.36154795 -0.03325401 0.37854692 0.22759028
0.36554193 0.10518733 -0.13688062 0.26946303 0.33188114 0.384409 0.065145634 0.6390959
0.049253788 -0.42004403 0.15527609 -0.2924007 -0.100940615 -0.27085033 0.121222034 0.20871685
0.45905426 -0.06914593 -0.17091392 0.41214305 0.39106277 -0.07353633 0.055343073 -0.2790554
0.23135635 0.31027278 0.00033092638 -0.13895348 -0.23516871 -0.40041667 -0.11888853 0.023725446
-0.15810208 -0.043110583 -0.09380469 0.1064783 -0.21391661 0.10496023 -0.018465638 0.31153557
-0.08674217 -0.21942648 0.3879956 -0.04269927 0.0412932 0.115588926 -0.14167997 -0.056881562
-0.38094023 -0.024617178 -0.33357042 -0.15153086 0.31170747 0.31803238 -0.16888624 0.17048869
-0.30083132 0.0009065345 -0.0017425951 0.28211647 -0.019022482 -0.025863692 0.063615024 -0.015796179
0.10605539 -0.07488961 -0.22953807 0.40246287 -0.117792785 -0.082746014 0.17340094 -0.2154598
0.12745644 0.2923397 0.22417355 0.021672282 0.44677934 -0.38133976 -0.6203145 0.08225498
0.019761732 0.17855245 -0.05680664 -0.3011232 -0.15545666 -0.18743904 0.18766491 -0.8896687
0.042218458 -0.06979778 0.15900062 -0.07784937 -0.21267127 0.1823014 -0.13520613 -0.022641221
-0.26958972 0.022392422 -0.092461295 0.14271441 -0.56840205 -0.087430105 -0.07791437 0.40734693
-0.14386289 0.20060101 0.05769344 -0.107205585 0.31513098 -0.2249858 0.06273939 -0.5477825
-1.1983827 -0.08617497 0.21354541 -0.17353982 0.08329203 -0.4110302 0.19694887 -0.073042296
0.15043503 0.30624917 0.36199072 0.81313044 0.0038900247 0.49332896 -0.10144923 0.2855578
-0.00010732725 -0.17849834 0.080370076 -0.0116308825 0.14952593 0.10746242 0.08137941 0.10932611
0.24666846 -0.49079776 -0.15654524 0.43062007 -0.079658546 0.118492424 0.30948466 -0.032429304
0.0163822 -0.014768956 -0.43444964 -0.95133823 -0.3476548 -0.19573784 0.05819947 -0.24343154

weight_hh_l1 f4 [120, 30]
00000000: 2c33 7e3b 2feb 9abd 8d23 c2be 1afd 10be
00000010: 23d9 55be 7c4d 2ebd 7166 ffbe caf7 853e
00000020: 9336 e83c c712 c93e 4882 3dbd 7c48 5a3e
00000030: 5260 bfbd 16e8 ca3d 7807 40bd 3a50 7bbe
00000040: 213e 403e f853 863e 6851 c63e b928 f43d
00000050: 0d35 1dbc 24e0 433e 4b03 d73e 6035 843e
00000060: 56c7 edbe 26f5 143f adc2 96be f8bb cb3d
00000070: fbb0 11bd edca 12bd ab19 8a3e 4aff 263d
00000080: 6825 98bd 631a b8be 423e 45bd f7ac a8be
00000090: 3d6e 95be 68ba e9bd 2ec4 61be 0678 93bd
000000a0: 6c4f da3e 1111 28bd 9f26 9bbe 41ca 1fbd
000000b0: 6222 ccbd d1b6 e0be b7d5 1c3e a928 9e3e
000000c0: 6b19 74be fa1f c9be 08d8 523e ea87 673d
000000d0: 96b8 2cbe 031c a2bd afce 153f f200 0d3e
000000e0: 8701 8a3d bdc9 023f fac2 84bd 5003 0f3e
000000f0: 47fe a2bd b70f bdbc 9e20 643d 9071 96be
00000100: 051f ab3c c289 0ebf 86db da3e e1eb f73d
00000110: fa14 6b3e 6d71 81bd a0a8 9b3e c7a6 f33e
00000120: 8baf d5be ce8a e63c d2ad 2e3d cee4 d4be
00000130: d4ce 323e 01ca b73e 9304 b33d 5d55 39bd
00000140: 179c bd3e 9af9 343e 4501 fd3e 853c b83d
00000150: 78f4 2ebe 73e1 823e dca6 edbd ede5 e83e
00000160: 097f 783e 2c56 883d 9a47 54bd 543d fe3d
00000170: 6246 093e 570e 3dbe 684a 953b f5e8 24be
00000180: 2115 e03e 6f7a e43c 9049 3abe 1fe0 9a3e
00000190: 0c90 de3d 9ba2 313c 7199 b9bd b149 753e
000001a0: 2116 0d3e d908 adbd 2233 493e 7c46 ad3e
000001b0: e0a1 16bd bafb 4f3e 20ae 1f3d f1bf a43e
000001c0: f4f3 adbe dd13 8fbe 36b5 9f3e 1218 7c3e
000001d0: 7ac4 c93d c3f9 92bc 6164 1b3d 0c66 f9bd
000001e0: 6aca 80be a62d 283e 858b 6d3e 0ecd 90be
000001f0: d5d5 af3e a52a 1abe d27a af3e d990 1d3e
00000200: c7d5 e9bd 4cd9 ae3e af1f ff3d bd76 023f
00000210: f501 2bbd 36b6 09be ae97 c3bd 9f19 3ebe
00000220: a63e 813e 35bb 8bbe d4b5 f13e 3cf6 c33b
00000230: d1be 883e 42f5 86bf d8a2 a5bd 916c c9bb
00000240: 2fa4 21bf 56bb f0bd 9af4 a03e 32e2 a43d
00000250: 5b2b 573e ebf5 85be 5292 8abe ab50 9d3e
00000260: d0f5 8b3e 01e3 e7be 1de5 d2bd 4e5d 903e
00000270: c08b 893e f848 74be d3b8 9abe 05fe 91be
00000280: 2577 9b3e a5cc abbd be1c e33e c107 5e3e
00000290: fb93 073e 165c 8d3e 3c30 84be a9f3 79be
000002a0: a53d 0cbe cc75 913e 1333 17bf b8b1 d53e
000002b0: 4a35 013e ee3a d8be bc9e 883e ba1b 01be
000002c0: 9075 f4bc 12ad 6ebe 855a 08bc 1ece 96be
000002d0: 539d 7dbe 3e9b 4fbd 9526 72be a82d 3bbf
000002e0: 898b 563e adc0 d7be 1e2a 243f 36de 843d
000002f0: ec76 f43d 5800 8a3d d805 f73d e3d5 073f
00000300: aa00 0bbf b7a9 df3d 8b7b 613e e3bf ecbe
00000310: c0c6 003f cde5 133e efa1 073e 74b8 d5be
00000320: 39e0 2b3f fcf9 633e eb29 743e 05c9 b73d
00000330: a9c2 693e 371b c23e 69f2 75bd b15b e13e
00000340: e1b1 aa3e 3194 56bc 67f1 b8be 324a ebbe
00000350: f4da 553c e168 8c3e 5c0b a63e 35b3 c1bc
00000360: 131d d7bc ba69 053e 7e14 bc3d 1960 42bc
00000370: c567 0f3d d830 eabe f18c 5f3d 7631 dc3d
00000380: f435 66bd 27d0 ff3e 52ed 03be d983 e6be
00000390: 1eef 80be cd71 6ebd 03e9 f83d 7ea6 e5be
000003a0: b995 af3e e8f0 febc 9c2e 503d 2744 823e
000003b0: 8ec0 e9bd 90ed 83be 485c 5dbd ae3e 943e
000003c0: 6b03 34bc f922 88bd 37c4 2bbf 3010 b0be
000003d0: fcf9 2cbf 135f 8fbe e4d8 59bf 3f56 7c3d
000003e0: 8250 623e f381 5f3f 5a41 cabc 737a 3b3e
000003f0: 13d9 7ebd 3dcd 033f 121d 20be 075b 90be
0.0038787825 -0.07564389 -0.37917748 -0.1415905 -0.20883612 -0.042554364 -0.49882844 0.2616561
0.028346336 0.39272138 -0.046266824 0.21316713 -0.093445435 0.09907548 -0.046882123 -0.24542323
0.187737 0.26235938 0.38733983 0.1192183 -0.009595168 0.19128472 0.419947 0.25821972
-0.46441144 0.58186567 -0.294454 0.099479616 -0.035569172 -0.035838056 0.26972708 0.040770806
-0.0742901 -0.3595763 -0.048155077 -0.32944462 -0.29185668 -0.11412507 -0.22047493 -0.07200627
0.4263872 -0.0410319 -0.30302903 -0.039011244 -0.099674955 -0.43889478 0.153159 0.30890396
-0.23837821 -0.3928221 0.20590222 0.056526102 -0.16867289 -0.07915499 0.585185 0.13769892
0.067385726 0.5108908 -0.06482501 0.13966107 -0.07958656 -0.023078782 0.05569517 -0.29383516
0.020888815 -0.5567895 0.42745608 0.12105537 0.2295722 -0.063204624 0.30402088 0.4758818
-0.4173549 0.02814236 0.042646237 -0.41580814 0.17461711 0.35896304 0.08741107 -0.045247424
0.3703315 0.1767334 0.4941503 0.08995918 -0.17085445 0.2556263 -0.116040915 0.4548792
0.2426721 0.06657061 -0.051826097 0.12414041 0.13405755 -0.18462501 0.004555989 -0.16104491
0.4376612 0.027890412 -0.18192124 0.30249116 0.108673185 0.010841991 -0.0906247 0.23953892
0.13777973 -0.08448953 0.19648412 0.33842838 -0.03677547 0.2031087 0.038984418 0.3217769
-0.33975184 -0.27944842 0.3119294 0.24618557 0.09851928 -0.017941361 0.037937526 -0.12177667
-0.2515443 0.16423663 0.23197754 -0.28281444 0.34342828 -0.1505533 0.34273392 0.15387286
-0.11417728 0.3415016 0.12457215 0.5096243 -0.041749913 -0.13448414 -0.09550415 -0.18564461
0.2524311 -0.27291265 0.47209036 0.005980281 0.2670808 -1.0543597 -0.080877006 -0.0061469753
-0.6314115 -0.117544815 0.31436616 0.08050956 0.21012633 -0.26164183 -0.2706476 0.30725607
0.27335978 -0.45290378 -0.10297606 0.28196186 0.26864433 -0.2385596 -0.30219135 -0.28514114
0.30364338 -0.08388642 0.44357866 0.21682645 0.13240044 0.27609318 -0.2581805 -0.24409355
-0.1369539 0.28410184 -0.5906231 0.4173715 0.12617984 -0.4223246 0.26683605 -0.12608233
-0.029841214 -0.23308209 -0.008322363 -0.2945413 -0.24767046 -0.05068516 -0.2364753 -0.7311654
0.20951666 -0.42139187 0.64126766 0.06487696 0.11936745 0.06738347 0.120616615 0.5306074
-0.5429789 0.109210424 0.22019784 -0.46240148 0.5030327 0.14443131 0.13245367 -0.4174229
0.6713901 0.2226333 0.23844115 0.08973888 0.22828163 0.37911388 -0.060045633 0.44015267
0.33338836 -0.013096855 -0.36121675 -0.45955044 0.013052691 0.27423766 0.32430542 -0.023645023
-0.02625898 0.13028613 0.09183596 -0.011863732 0.03501107 -0.4574039 0.05457777 0.107516214
-0.056203797 0.49963495 -0.128835 -0.45022467 -0.25182432 -0.058213998 0.121538185 -0.44853586
0.34293917 -0.031120732 0.0508257 0.2544262 -0.1141368 -0.25767183 -0.054043084 0.2895407
-0.010987143 -0.066472955 -0.67096275 -0.3438735 -0.67568946 -0.28002223 -0.85096574 0.06160569
0.22101024 0.8730766 -0.024689365 0.1830843 -0.062218737 0.51485044 -0.1563609 -0.28194448
