Models/Norm_95 models (Feb)/norm_95_max(10.02)_50epochs.pth (torch, 481696 bytes, 26 tensors)

weight_ih_l0 f4 [180, 5]
0	0xbdd657cd	-0.104659654
1	0x3da9bb09	0.08287627
2	0xbe0ce150	-0.13757825
3	0xbe521d07	-0.20518886
4	0xbd3ed29e	-0.04658758
5	0xbcaab228	-0.020836905
6	0x3acad816	0.0015475776
7	0xbd96bf7a	-0.0736074
8	0x3dea1385	0.11429504
9	0x3dc8095f	0.097674124
10	0x3e3cf747	0.18453704
11	0x3b34deb7	0.0027598569
12	0xbf13e6d9	-0.5777412
13	0x3e478173	0.19482975
14	0x3e6a112f	0.22858118
15	0xbd9ab091	-0.075532086
16	0xbbad8aa5	-0.0052960687
17	0xbe1d8957	-0.15384422
18	0x3d5d982a	0.054100193
19	0x3c4b721c	0.0124173425
20	0x3deee36a	0.116644695
21	0x3e332bbb	0.1749715
22	0x3f3450bc	0.7043569
23	0x3d4d74d1	0.050160233
24	0xbd28772f	-0.041129287
25	0x3d806103	0.062685035
26	0x3ccc4e4d	0.02493968
27	0xbf2309aa	-0.6368662
28	0x3e2096f4	0.15682584
29	0x3e8c178f	0.27361724
30	0xbdd7fa89	-0.10545833
31	0xbdbb713e	-0.091524586
32	0x3e85d4ae	0.26138824
33	0x3f5ee0b4	0.8706162
34	0xbed3ac4d	-0.41342393
35	0x3d0b915f	0.034074184
36	0xbd961d93	-0.073298596
37	0xbf0154d4	-0.5052006
38	0xbe14bc44	-0.14524943
39	0x3e42d6a3	0.1902719
40	0xbd4b978e	-0.04970508
41	0xbde476a6	-0.11155443
42	0xbe2124b8	-0.15736663
43	0x3df42dcf	0.119228
44	0x3ec1f313	0.37880763
45	0x3d05e1e0	0.032686114
46	0x3cf6d8d0	0.030132681
47	0xbebf74b5	-0.37393728
48	0x3db5f74a	0.08885057
49	0x3eb5ac75	0.35483137
50	0xbbbe7eec	-0.00581347
51	0xbd0d4962	-0.03449381
52	0xbf3abfaa	-0.72948706
53	0x3e666b25	0.2250181
54	0xbc7947a4	-0.015214834
55	0xbc62a017	-0.013832114
56	0xbda4045a	-0.080086425
57	0x3d8c7547	0.068583064
58	0xbe2ec4da	-0.1706728
59	0x3e9236c6	0.28557414
60	0x3d594e76	0.05305334
61	0xbb34f536	-0.0027611977
62	0xbf03c1e8	-0.5146775
63	0x3db5ec26	0.08882932
64	0x3e2fb461	0.17158653
65	0x3dbbea10	0.09175503
66	0x3d0cc17e	0.034364216
67	0xbf3c0fe2	-0.73461735
68	0x3f42413e	0.758808
69	0x3d4bb02d	0.04972856
70	0xbe05993f	-0.1304674
71	0x3dd2b47b	0.1028833
72	0xbd738650	-0.059454262
73	0xbe4995d6	-0.19686064
74	0x3d5782f3	0.052615117
75	0x3dca5af8	0.09880632
76	0xbdaee4fb	-0.08539768
77	0x3e0c3754	0.13692981
78	0xbe3d650a	-0.18495575
79	0x3e21dbb3	0.15806465
80	0x3e8ba980	0.27277756
81	0xbd4dd953	-0.050256085
82	0x3f3925d0	0.7232332
83	0x3f13712e	0.57594573
84	0xbd38c97e	-0.045114033
85	0x3d159898	0.036522478
86	0x3e113c22	0.14183095
87	0x3ed466b9	0.4148462
88	0xbd263d4f	-0.040585812
89	0x3e34fa8a	0.17673698
90	0xbe296ca4	-0.1654535
91	0xbdc94948	-0.098284304
92	0x3d5873dc	0.052844867
93	0x3d42b035	0.047531325
94	0x3ec7ed96	0.3904845
95	0x3d8c5edb	0.0685403
96	0xbe30e435	-0.17274554
97	0x3e1b572b	0.1516997
98	0x3f0258fa	0.5091702
99	0xbee8efab	-0.45495352
100	0x3db1f08f	0.08688461
101	0x3c5baeed	0.013408405
102	0xbe1a94a1	-0.1509576
103	0xbd10d725	-0.035361428
104	0x3e718fc1	0.23589994
105	0xbc9ac902	-0.018894676
106	0xbc623fe4	-0.013809178
107	0x3dbf55d2	0.09342541
108	0x3e72ba9e	0.23704001
109	0x3daf3d5e	0.08556627
110	0x3dcf7c2e	0.10131107
111	0xbe22da73	-0.15903644
112	0xbe0e17d8	-0.13876283
113	0x3e82a25a	0.2551449
114	0x3d895e0c	0.06707391
115	0xbdad299b	-0.08455201
116	0xbd4e2544	-0.050328508
117	0xbebc33b4	-0.36758196
118	0xbdac7543	-0.084208034
119	0x3e5ff596	0.21871027
120	0x3d94b3e5	0.07260875
121	0xbc6dcb20	-0.014513761
122	0x3e74a12b	0.23889606
123	0xbe57d23d	-0.21076293
124	0x3e680989	0.22659887
125	0x3e21a703	0.15786366
126	0x3cd0c066	0.025482368
127	0xbea3383d	-0.31878844
128	0xbe2d6602	-0.16933444
129	0x3e74e120	0.23914003
130	0x3daa7e20	0.08324838
131	0xbc836fed	-0.016044581
132	0x3c27ab4c	0.010233711
133	0xbe97e963	-0.29670247
134	0x3dba87e8	0.09107953
135	0x3e113581	0.14180566
136	0xbd70f727	-0.058829453
137	0xbd1e7a66	-0.038690947
138	0xbe1710e3	-0.14752536
139	0x3e9e985f	0.30975625
140	0x3dba68de	0.09102033
141	0xbb7a4bfc	-0.0038192263
142	0xbeda9550	-0.4269204
143	0xbe5922ac	-0.21204633
144	0xbd632653	-0.05545647
145	0x3dea7742	0.11448528
146	0x3daebc6b	0.085320316
147	0xbf7e0647	-0.9922833
148	0xbe3cd729	-0.18441452
149	0xbe92dd2b	-0.28684363
150	0x3d054304	0.032534614
151	0x3c772f80	0.0150870085
152	0xbf35ca36	-0.71011674
153	0x3cc42a0a	0.023945827
154	0x3eee423b	0.46534905
155	0xbdc75aca	-0.097341135
156	0xbddd9382	-0.108191505
157	0x3f3bf667	0.73422855
158	0x3eaa7d9d	0.3329896
159	0xbcd42447	-0.025896205
160	0x3a9ac4ce	0.001180792
161	0xbda672aa	-0.08127339
162	0x3e2f9960	0.17148352
163	0xbf405e41	-0.7514382
164	0x3e416a8d	0.18888302
165	0xbdc965a7	-0.09833842
166	0x3c273525	0.010205542
167	0xbdb73a8b	-0.08946713
168	0x3de55ee7	0.11199742
169	0xbd563806	-0.052299522
170	0xbbff0484	-0.0077825207
171	0xbe10fd23	-0.14159064
172	0xbe87ef85	-0.26549926
173	0x3d8bcd3f	0.06826257
174	0xbecfc7f2	-0.40582234
175	0xbd84b70e	-0.064802274
176	0xbd84a7b0	-0.06477296
177	0xbef54b2d	-0.47908917
178	0x3e26c199	0.16284789
179	0xbe8b7060	-0.27234173
180	0x3d961870	0.0732888
181	0xbd8319b7	-0.06401389
182	0x3e5bbcd9	0.21458758
183	0xbe597741	-0.21236898
184	0x3ee0fa82	0.43941122
185	0x3c834e81	0.016028645
186	0xbd4bdfee	-0.049774103
187	0x3da96c81	0.082726486
188	0xbe6b7589	-0.22994055
189	0x3e2081b4	0.15674478
190	0x3db6dbb7	0.08928626
191	0xbe2a213f	-0.16614245
192	0xbd5c412c	-0.05377309
193	0xbe52c5a5	-0.20583208
194	0x3e069bab	0.1314532
195	0xbdb28a3f	-0.087177746
196	0xbd99af5e	-0.07504152
197	0xbd86e864	-0.06587294
198	0x3e8696bb	0.26286873
199	0x3d808138	0.062746465
200	0x3de2bbc0	0.11070967
201	0x3dbc8d82	0.09206678
202	0x3ec15150	0.3775735
203	0xbd1c7f3c	-0.038207278
204	0x3e1d8beb	0.15385406
205	0xbce561b6	-0.028000694
206	0x3d8fd506	0.07023053
207	0xbf009f33	-0.5024292
208	0xbd879c6d	-0.06621633
209	0x3e326984	0.17423064
210	0xbe15c42d	-0.14625616
211	0xbdaaf5fe	-0.083477005
212	0xbe593bdb	-0.2121424
213	0xbd58a684	-0.052893177
214	0xbee1f77d	-0.4413413
215	0x3dd94c93	0.106103085
216	0xbe0b73d5	-0.13618405
217	0x3e364638	0.17800224
218	0x3e20f113	0.15716963
219	0xbfc39ec6	-1.5282829
220	0x3d8f2292	0.06989016
221	0xbcf5609b	-0.029953292
222	0xbd7d8125	-0.06189074
223	0x3e0f6e47	0.14006911
224	0x3e1108e1	0.14163543
225	0x3bc0faae	0.0058892583
226	0xbe7f828b	-0.24952142
227	0xbd85da8d	-0.06535826
228	0xbe1face9	-0.15593304
229	0xbd19e954	-0.037576035
230	0xbd7f469f	-0.06232321
231	0x3bf689bb	0.007523743
232	0x3f0693c4	0.5256922
233	0x3ed9aaa3	0.42512998
234	0xbd4a3f56	-0.049376808
235	0x3cbabe68	0.02279587
236	0x3dfbf32a	0.12302239
237	0xbd17aca9	-0.037029896
238	0x3d88bc73	0.06676569
239	0x3e77bef0	0.2419393
240	0x3db358a2	0.0875714
241	0x3d6ad33c	0.057330355
242	0x3e92ac79	0.2864721
243	0x3ea04467	0.31302187
244	0x3d99cf0c	0.07510194
245	0x3d39664c	0.045263574
246	0xbe066509	-0.1312448
247	0xbc8ea368	-0.017411903
248	0xbdccb9d2	-0.0999638
249	0x3e83bd23	0.25730237
250	0x3d662901	0.056191448
251	0x3debd294	0.11514774
252	0x3b1e1e07	0.0024126784
253	0xbe730565	-0.23732527
254	0x3dea81a1	0.11450506
255	0xbe16a154	-0.1470998

weight_hh_l0 f4 [180, 45]
0	0xbc389a5d	-0.011267272
1	0xbf0c1da0	-0.54732704
2	0x3e7f9a5f	0.24961232
3	0xbed472b3	-0.4149376
4	0x3d67caa7	0.05658975
5	0xbd4659b5	-0.048425395
6	0xbf1f03ac	-0.6211498
7	0xbe34df4a	-0.17663303
8	0xbf096fc6	-0.5368618
9	0x3ee7a7aa	0.45245105
10	0xbe1fa83c	-0.1559152
11	0x3dda1b93	0.106497906
12	0x3ee3cf2e	0.44494003
13	0xbeaf703b	-0.34265313
14	0x3eabd8e1	0.33563903
15	0xbe81e159	-0.2536724
16	0x3e4523cf	0.19251941
17	0x3d0aeb2b	0.03391568
18	0xbecf399e	-0.40473646
19	0x3e686860	0.22696066
20	0x3e4e2e47	0.20134841
21	0x3e30fd93	0.17284231
22	0x3eb08185	0.34473816
23	0xbebe662b	-0.37187323
24	0xbe6cc70b	-0.23122804
25	0xbf161d1f	-0.58638185
26	0xbe2987fb	-0.16555779
27	0xbe9590d4	-0.29212058
28	0xbd551ab1	-0.052027408
29	0xbeb16480	-0.34646988
30	0x3e56161d	0.20906873
31	0x3f68d212	0.9094554
32	0xbe404ba2	-0.18778852
33	0xbcd15651	-0.025553854
34	0x3ee98619	0.4561012
35	0x3e0e75e6	0.13912162
36	0xbe9fdcc4	-0.31223118
37	0x3c9ed4e0	0.019388616
38	0x3e3ed905	0.18637474
39	0xbee2b8b1	-0.44281533
40	0xbe5f14ae	-0.21785232
41	0x3dbed806	0.09318547
42	0xbdaa7a45	-0.08324102
43	0x3e59eeee	0.2128255
44	0x3ee4b9cf	0.4467301
45	0xbe8d4942	-0.27594954
46	0x3d7d7de7	0.061887648
47	0xbdeffb9f	-0.11717915
48	0x3e7a4b7e	0.2444286
49	0xbe595499	-0.21223678
50	0xbe2d6fd2	-0.16937187
51	0xbddafc91	-0.106927045
52	0xbe902e7f	-0.28160474
53	0x3e1810ed	0.14850207
54	0xbe605732	-0.21908262
55	0x3dac1646	0.08402686
56	0xbe90668e	-0.28203243
57	0xbe0a350c	-0.13496798
58	0x3e0e53a9	0.13899101
59	0xbe51a0ba	-0.20471469
60	0x3e8dd714	0.27703154
61	0x3ea799d2	0.32734543
62	0x3e65498e	0.2239134
63	0xbe8b1aa6	-0.2716877
64	0xbe4630bb	-0.19354527
65	0xbe2b6690	-0.16738343
66	0x3dc5f338	0.09665531
67	0xbd9265ca	-0.07148321
68	0xbd43f72e	-0.04784315
69	0xbc85ea2c	-0.016347013
70	0x3e80367d	0.2504157
71	0x3df0976c	0.117476314
72	0xbdc0199b	-0.09379884
73	0xbe66da62	-0.22544244
74	0x3dc98852	0.09840454
75	0xbef2f93f	-0.47455785
76	0xbe8f97e6	-0.28045577
77	0xbe17909e	-0.14801261
78	0xbdfb397a	-0.12266822
79	0xbd724571	-0.059148256
80	0xbe21c39e	-0.15797278
81	0xbe1006ff	-0.14065169
82	0xbca28eaa	-0.019843418
83	0xbd4ed618	-0.050497144
84	0x3e8b8ce5	0.27255931
85	0x3edb2181	0.42799
86	0xbe9a11ef	-0.30091807
87	0x3e4998bd	0.19687171
88	0x3e560d03	0.20903401
89	0xbdef23fb	-0.116767846
90	0xbc50fd44	-0.012755696
91	0xbd608e2b	-0.054823082
92	0xbdc1a55e	-0.094553694
93	0xbe5a2382	-0.21302608
94	0xbe043546	-0.12910947
95	0xbe10030a	-0.1406366
96	0xbebbb1e3	-0.36659154
97	0x3e64dd0a	0.22349945
98	0xbf08d2ec	-0.5344684
99	0x3ef159cc	0.47138822
100	0x3d97200c	0.07379159
101	0x3e5122aa	0.2042338
102	0x3ec5cf9c	0.38634956
103	0xbe8f4ac1	-0.2798672
104	0x3e1b92b0	0.15192676
105	0xbe38a3fa	-0.18031302
106	0xbf318dea	-0.6935717
107	0x3e6fb976	0.23410591
108	0xbf0f7a9e	-0.56046474
109	0x3e9ff614	0.3124243
110	0x3f0e14d3	0.55500525
111	0xbe5cd152	-0.21564224
112	0x3d8a6d23	0.067590974
113	0xbdccfeca	-0.10009535
114	0xbe013422	-0.12617543
115	0xbe8ce6d3	-0.27519855
116	0xbeba2c98	-0.36362147
117	0xbe1fae9a	-0.15593949
118	0xbef64db0	-0.48106146
119	0xbc8962ac	-0.016770683
120	0x3e818374	0.25295603
121	0x3d5d11e5	0.053972144
122	0xbeb83968	-0.35981297
123	0x3d8ed40c	0.069740385
124	0xbdd574e7	-0.10422688
125	0xbe31d8ed	-0.17367907
126	0x3dbe0ea6	0.09280138
127	0xbf17aa06	-0.5924381
128	0xbea1d740	-0.31609535
129	0xbe45970d	-0.19295903
130	0x3e4934c0	0.19649029
131	0x3c6c3960	0.014417976
132	0x3ee5e4da	0.44901162
133	0x3e3098cd	0.17245789
134	0x3f1059d9	0.56387097
135	0xbe329bbe	-0.17442223
136	0xbe950072	-0.29101902
137	0x3e2a74bc	0.16646093
138	0xbe5c0239	-0.21485223
139	0xbd7e0690	-0.062017977
140	0xbe2f7b29	-0.17136826
141	0xbf16c726	-0.58897626
142	0xbd6daf82	-0.058028705
143	0xbe9a6cd1	-0.30161145
144	0x3e05c7fa	0.13064566
145	0x3e56a223	0.20960288
146	0x3d46c960	0.04853189
147	0x3d7e3b5f	0.06206834
148	0x3d818d5d	0.06325791
149	0x3d09054b	0.033452313
150	0xbd3f8e58	-0.04676661
151	0xbf200e4e	-0.6252183
152	0x3ee0c2d1	0.43898633
153	0x3cb7a2b0	0.022416443
154	0x3e9db780	0.30804062
155	0x3eb59b2a	0.35469943
156	0x3d4a3fd4	0.049377277
157	0xbd5b686f	-0.053566393
158	0xbe233865	-0.15939482
159	0xbd8275b7	-0.063701086
160	0xbe8be07f	-0.27319714
161	0xbe4ce921	-0.20010807
162	0x3e1f84e2	0.15578035
163	0xbe9091d6	-0.28236264
164	0x3e9c1e80	0.3049202
165	0xbe31d7ca	-0.17367473
166	0x3e013b2b	0.12620227
167	0xbe3f4c41	-0.18681432
168	0x3d13c75c	0.036078796
169	0x3e2a4ecf	0.16631626
170	0xbe640596	-0.22267756
171	0x3d0ff7cd	0.03514843
172	0x3e324763	0.17410044
173	0x3e83436d	0.2563738
174	0x3b8688b8	0.0041056536
175	0xbc4bccd4	-0.012438972
176	0x3d9dd7e0	0.077071905
177	0x3ea213e8	0.31655812
178	0x3e530612	0.20607784
179	0x3eb8c773	0.36089668
180	0x3d56c902	0.05243779
181	0xbe2e4d56	-0.17021689
182	0x3e367e2f	0.17821573
183	0xbe35defd	-0.17760845
184	0x3d8c83ea	0.06861098
185	0x3df6a0ba	0.12042375
186	0x3d01d3cf	0.031696137
187	0x3e382bc6	0.17985448
188	0xbe924899	-0.28571013
189	0x3e16bf45	0.14721401
190	0xbd89353b	-0.06699606
191	0xbd1c40c8	-0.038147718
192	0xbdfc95a0	-0.12333226
193	0xbe2b3c22	-0.16722158
194	0x3e02992c	0.12753743
195	0xbe10f183	-0.1415463
196	0xbeb6350e	-0.35587353
197	0x3d098aa7	0.033579495
198	0xbe019087	-0.12652789
199	0x3d3e2490	0.046421587
200	0x3e4722c4	0.19446856
201	0x3dd22ea2	0.10262801
202	0xbd8ae7f6	-0.06782524
203	0x3d94023f	0.07226991
204	0xbd04d410	-0.0324288
205	0xbe6d01f7	-0.23145281
206	0xbd9de479	-0.07709593
207	0xbe2de606	-0.16982278
208	0xbe1ebaff	-0.15501021
209	0x3e32f2f9	0.17475499
210	0xbd3ca58e	-0.046056323
211	0x3e94bc86	0.29050082
212	0xbc7dd9ec	-0.015493851
213	0x3d1db1da	0.03849969
214	0x3dd08359	0.101813026
215	0x3db134d9	0.08652658
216	0xbb10cc64	-0.0022094483
217	0x3dd1e48e	0.102486715
218	0x3bc7f7de	0.006102546
219	0xbe1bd96a	-0.15219656
220	0xbe29744d	-0.16548271
221	0x3e44be21	0.19213153
222	0xbc661487	-0.01404298
223	0x3dd5f3a0	0.104468584
224	0x3e17a5c2	0.14809325
225	0xbe334a3d	-0.17508788
226	0xbd9d57aa	-0.07682736
227	0x3e25924e	0.16169092
228	0x3ba5a471	0.0050550033
229	0x3df2e6a2	0.11860396
230	0xbea42a1e	-0.32063383
231	0xbe2ec395	-0.17066796
232	0x3ea4971c	0.32146537
233	0x3bedfc8a	0.007262771
234	0xbe277d43	-0.16356377
235	0x3e5a3f38	0.21313179
236	0xbe197787	-0.14987002
237	0x3eaa1026	0.33215445
238	0xbe168609	-0.14699568
239	0xbdb4372e	-0.08799587
240	0xbe532905	-0.20621116
241	0x3c202640	0.0097747445
242	0xbbe95b70	-0.007121496
243	0xbe4e1d94	-0.2012847
244	0xbed2b050	-0.4115014
245	0x3e8d6c9f	0.27621934
246	0xbebe9d93	-0.37229595
247	0xbd3efbee	-0.046626978
248	0x3ef2046c	0.47269
249	0x3d75ca35	0.060007293
250	0xbdafeb2b	-0.085897766
251	0x3dcf3bf9	0.10118861
252	0xbe0d9bb1	-0.13828923
253	0xbf04f4f7	-0.51936287
254	0x3dcdf83a	0.10057111
255	0xbe7cf8c7	-0.24704276

bias_ih_l0 f4 [180]
0	0xbe208d73	-0.15678959
1	0xbec681a3	-0.3877078
2	0x3de430c9	0.111421175
3	0x3da41323	0.080114625
4	0x3e3f8db7	0.18706404
5	0x3dc2bf55	0.0950915
6	0x3f1ac687	0.6045918
7	0xbe0ceec4	-0.13762957
8	0xbe71a3ed	-0.23597689
9	0xbe78e315	-0.24305375
10	0xbccb6286	-0.024827253
11	0xbd3ec253	-0.04657204
12	0xbe309d17	-0.17247425
13	0x3f163c28	0.5868554
14	0xbe09a7f6	-0.13442978
15	0xbe69c7b0	-0.22830081
16	0x3f4eae6e	0.8073491
17	0x3e012b68	0.12614214
18	0xbea214cd	-0.31656495
19	0x3f58159a	0.8440796
20	0xbdc6f472	-0.09714593
21	0x3d687614	0.056753233
22	0xbd90916d	-0.07058988
23	0xbe106b80	-0.14103508
24	0xbe96727e	-0.29384226
25	0xbdd8191b	-0.105516635
26	0xbea53a7c	-0.32271183
27	0xbeb53763	-0.3539382
28	0xbec89d18	-0.39182353
29	0xbe120e9d	-0.14263387
30	0xbcf6040b	-0.030031225
31	0xbda35e30	-0.07976949
32	0xbf13478f	-0.57531065
33	0x3db21eb0	0.086972594
34	0x3e71cd2d	0.23613425
35	0x3e01a521	0.12660648
36	0xbec54064	-0.3852569
37	0xbbe306dd	-0.0069283084
38	0xbe6b30aa	-0.22967783
39	0x3e995d02	0.29953772
40	0xbe7f1757	-0.24911247
41	0xbc62b236	-0.013836434
42	0x3e1cc838	0.15310752
43	0x3f375446	0.71612966
44	0xbeb2ce78	-0.34923148
45	0x3dd4a3f5	0.10382835
46	0x3e8683fa	0.26272565
47	0xbdadf394	-0.084937245
48	0x3e82e7cb	0.2556747
49	0xbe691310	-0.22761178
50	0xbdd93544	-0.10605863
51	0xbdf755cf	-0.120769136
52	0xbe8aa9bc	-0.27082622
53	0x3e4f25f5	0.20229323
54	0x3e12f5fb	0.14351647
55	0xbcc608ec	-0.024174176
56	0x3e87fc98	0.265599
57	0xbe76b0a8	-0.24090827
58	0xbd4a0fb7	-0.049331393
59	0x3e528f5a	0.20562497
60	0x3e4f08c9	0.20218195
61	0xbe143653	-0.14473848
62	0x3d72b69e	0.05925619
63	0x3ec3fcf0	0.38278913
64	0xbed5b02f	-0.4173598
65	0xbdfa8cfc	-0.12233922
66	0x3dbe219c	0.09283754
67	0xbe0e8a7d	-0.13920017
68	0x3d8a5587	0.06754594
69	0x3dadc844	0.08485463
70	0x3e68aebf	0.2272291
71	0x3ed0dbb2	0.40792614
72	0x3d9abbc8	0.07555348
73	0xbe8fc9bd	-0.28083602
74	0x3c826040	0.015915036
75	0x3e02a670	0.12758803
76	0xbd329883	-0.043602478
77	0x3b411c04	0.0029466162
78	0x3d284a1b	0.041086297
79	0xbe73ae9d	-0.23797078
80	0xbed1b7a8	-0.4096043
81	0x3eef0e47	0.4669058
82	0x3e3d82e7	0.18506967
83	0x3e8c8822	0.2744761
84	0x3cde1fc2	0.027114753
85	0x3e2135dc	0.15743202
86	0x3e4db63e	0.20089051
87	0xbe81c2e5	-0.25344005
88	0xbe8fb27a	-0.28065854
89	0x3e6abe1d	0.22924085
90	0x3dc86d63	0.09786489
91	0x3e2633b5	0.16230662
92	0x3e0c44cd	0.1369812
93	0xbe6b389d	-0.22970815
94	0xbe76cce0	-0.24101591
95	0x3e0fee0e	0.14055654
96	0xbdc1633c	-0.094427556
97	0x3ca8a7a1	0.020587744
98	0xbddb7a26	-0.10716657
99	0xbc9172da	-0.01775496
100	0xbe2cdd4a	-0.1688129
101	0x3e17d1e5	0.14826162
102	0xbc09cf98	-0.008411311
103	0xbcbbbdd8	-0.022917673
104	0x3c641601	0.013921262
105	0xbe3f8bd4	-0.18705684
106	0x3a951659	0.0011374458
107	0x3cc207ef	0.023685424
108	0x3db284ed	0.0871676
109	0xbe11c8de	-0.14236781
110	0x3d417663	0.047232043
111	0x3d01c870	0.031685293
112	0xbe80f541	-0.25187114
113	0xbdb27002	-0.0871277
114	0x3d613cca	0.054989614
115	0x3dad5cf5	0.08464996
116	0xbe1d562e	-0.15364906
117	0xbbf2ba6b	-0.0074074767
118	0x3e046e7e	0.12932774
119	0x3d977881	0.07396031
120	0x3dab4575	0.08362857
121	0x3b2fa002	0.0026798253
122	0xbd2fb9e8	-0.042901903
123	0x3dbcfe34	0.09228173
124	0x3cab92a1	0.020943942
125	0x3e01630f	0.12635444
126	0xbe167ce7	-0.14696084
127	0xbd4d127c	-0.050066456
128	0xbdeb5e73	-0.11492624
129	0xbd6f184a	-0.058372773
130	0xbdcfb076	-0.10141079
131	0xbdb8be43	-0.090206645
132	0x3dc58be3	0.09645822
133	0xbe733159	-0.23749293
134	0x3c7c2517	0.015389702
135	0xbe03ba69	-0.12864079
136	0x3c981d8e	0.01856878
137	0x3e3eeccc	0.18645018
138	0x3e98ef8f	0.2987027
139	0x3d81305f	0.06308054
140	0x38a09b60	7.6583354e-05
141	0x3f316245	0.6929057
142	0xbdfa0931	-0.12208784
143	0x3e6b6bb5	0.22990306
144	0xbdaf9a88	-0.08574396
145	0x3d925421	0.071449526
146	0xbd2e6497	-0.0425764
147	0xbd345213	-0.044023585
148	0x3f6cd265	0.92508537
149	0x3d9cc0ac	0.07653937
150	0xbe010151	-0.12598158
151	0x3f974625	1.1818281
152	0x3e3a832c	0.182141
153	0x3dfa2c66	0.122154996
154	0x3f3903d5	0.7227147
155	0xbd72ec4e	-0.05930739
156	0xbc26908d	-0.0101662995
157	0xbe6d6c59	-0.23185863
158	0xbe409f0f	-0.18810676
159	0xbe8e997b	-0.2785147
160	0xbdef4932	-0.11683883
161	0x3dec165d	0.11527703
162	0xbe83e66a	-0.2576173
163	0xbe16ecc2	-0.14738753
164	0x3e19601b	0.14978068
165	0x3e662b64	0.2247749
166	0x3e6b17d3	0.22958307
167	0xbe5becfa	-0.21477118
168	0x3db5785c	0.08860847
169	0x3e5cd801	0.21566774
170	0x3dd0c9ff	0.10194778
171	0x3db5383a	0.08848615
172	0x3d403e25	0.046934266
173	0xbdb7bfe0	-0.08972144
174	0x3c98bf38	0.018645868
175	0xbbeea763	-0.0072831376
176	0x3e7ae1ee	0.24500248
177	0x3da81773	0.082075976
178	0x3f5c73c3	0.8611414
179	0xbd8435bf	-0.06455564

bias_hh_l0 f4 [180]
0	0xbc809270	-0.015694827
1	0xbe940812	-0.28912407
2	0x3e47ad28	0.19499648
3	0xbca84b1d	-0.02054363
4	0xba181649	-0.00058016606
5	0x3e02e4f0	0.12782645
6	0x3f298a6f	0.6622686
7	0xbeab181b	-0.3341683
8	0xbeaae284	-0.33375943
9	0xbea1e124	-0.3161708
10	0x3e50f18a	0.2040464
11	0xbe836db6	-0.2566964
12	0x3d70c931	0.05878562
13	0x3f3ec298	0.74515676
14	0xbda2b837	-0.079452924
15	0xbdec77a4	-0.11546257
16	0x3f726f01	0.9470063
17	0xbdc6c55a	-0.097056106
18	0xbe6bcf58	-0.23028314
19	0x3f3578c8	0.7088742
20	0xbe1d7b00	-0.15378952
21	0x3cd9e194	0.026596822
22	0xbaac038f	-0.0013123619
23	0xbde91e67	-0.11382752
24	0xbea43a7e	-0.32075876
25	0xbe0b61c9	-0.13611521
26	0xbe2fc201	-0.1716385
27	0xbe7c7b6d	-0.24656458
28	0xbe1f292c	-0.1554305
29	0xbe6c2ea8	-0.23064673
30	0xbe24dd6d	-0.16100092
31	0x3db6743c	0.08908889
32	0xbeb47a81	-0.35249713
33	0x3e4eef2a	0.20208421
34	0x3e7c5cdc	0.24644798
35	0x3e179c99	0.14805831
36	0xbe7865f1	-0.24257638
37	0xbe6168e6	-0.22012672
38	0xbe68c8ae	-0.22732803
39	0x3c3e12ad	0.011601132
40	0xbe4509a9	-0.19241966
41	0x3d1673cd	0.03673153
42	0x3dc72133	0.09723129
43	0x3f1e8471	0.6192084
44	0xbe80d54a	-0.25162727
45	0xbd78f489	-0.060780082
46	0x3e5f3fe3	0.21801715
47	0xbe1d3d5c	-0.15355438
48	0x3dab068f	0.0835086
49	0xbe50f80a	-0.2040712
50	0xbd6e2109	-0.058136974
51	0xbeb399c7	-0.3507826
52	0xbe60e3a7	-0.21961842
53	0x3ed94fc4	0.4244367
54	0xbd502938	-0.05082056
55	0xbd488fd8	-0.048965305
56	0x3ea7a07a	0.3273962
57	0xbe82f792	-0.25579506
58	0xbe11b4ba	-0.14229098
59	0x3dde7afc	0.10863301
60	0xbc9249e5	-0.017857501
61	0xbe7e6aa0	-0.24845362
62	0xbdcfdfbe	-0.10150097
63	0x3ee71d6d	0.45139638
64	0xbe6a445d	-0.22877641
65	0xbd43a570	-0.047765195
66	0xbe1f1588	-0.15535557
67	0xbba43526	-0.0050112186
68	0x3e250d97	0.16118465
69	0xbde45be2	-0.11150338
70	0x3e841f7e	0.25805277
71	0x3eb429d9	0.35188177
72	0x3e5501c7	0.20801459
73	0xbdfba316	-0.122869655
74	0x3a7e265d	0.00096950476
75	0x3daf8dbc	0.085719556
76	0x3d591267	0.052996065
77	0xbc928db2	-0.017889831
78	0x3ddbb3bd	0.10727642
79	0xbd4ff7ce	-0.050773434
80	0xbe1439dc	-0.14475197
81	0x3f154ab8	0.58317137
82	0x3e014a97	0.1262611
83	0x3db39fa4	0.087706834
84	0x3e47703f	0.19476412
85	0x3db2d412	0.087318555
86	0x3e0118a9	0.12607063
87	0xbda3d107	-0.07998853
88	0xbdf9cb84	-0.12197021
89	0x3e0a9cfa	0.13536444
90	0x3d3f34d2	0.046681233
91	0xbd847cbf	-0.06469106
92	0x3bd72622	0.006565825
93	0xbd0ea527	-0.03482547
94	0xbe3f499a	-0.1868042
95	0x3e8aab8b	0.27084002
96	0xbd8fe55c	-0.07026169
97	0xbcc20d45	-0.023687968
98	0xbd56c749	-0.052436147
99	0x3e560159	0.20898952
100	0xbe48a0e7	-0.1959263
101	0xbbb71ff8	-0.005588528
102	0x3deb4ac4	0.1148887
103	0x3d47f1b3	0.048814487
104	0x3d8e378f	0.06944191
105	0x3b8d303b	0.004308728
106	0xbd30aa3e	-0.043131106
107	0x3d43f4a8	0.047840744
108	0xbe09680a	-0.13418594
109	0x3dd40168	0.10351831
110	0x3e42c03c	0.19018644
111	0xbe06eb77	-0.1317576
112	0xbe49bcf9	-0.19700994
113	0xbe45f5fb	-0.19332115
114	0x3d9ec75a	0.07752867
115	0xbc8ec607	-0.017428411
116	0x3dc10261	0.09424282
117	0x3ca6cf2c	0.02036246
118	0x3d566659	0.0523437
119	0x3da6ec4e	0.0815054
120	0x3e520886	0.20511064
121	0x3de24f53	0.11050286
122	0x3e352dfb	0.17693321
123	0xbdc0a838	-0.09407085
124	0x3e778269	0.24170841
125	0x3dded197	0.1087982
126	0x3dc49a3b	0.095997296
127	0x3d2478e0	0.040154338
128	0xbe30a61b	-0.17250864
129	0x3ceec829	0.029148178
130	0x3d65b93b	0.056084853
131	0x3d2ccfe3	0.042190444
132	0x3da093d0	0.07840693
133	0xbe0026cb	-0.12514798
134	0x3e04dabd	0.12974067
135	0x3a0ded83	0.0005414115
136	0xbe1fce55	-0.15606053
137	0x3e8be262	0.27321154
138	0x3e8d2394	0.27566206
139	0x3db8d74a	0.09025438
140	0x3e17e5cc	0.14833754
141	0x3f170ea3	0.5900671
142	0xbe329b5c	-0.17442077
143	0x3e361bc4	0.17784029
144	0xbdfed791	-0.1244346
145	0x3e220d14	0.15825301
146	0xbd7fc3c9	-0.062442575
147	0x3dc5cbd4	0.09658018
148	0x3f68e6ef	0.90977377
149	0xbd971ccd	-0.0737854
150	0xbe0d446f	-0.13795637
151	0x3fbc1c3e	1.4696119
152	0x3dc4b379	0.09604544
153	0xbcd71a6d	-0.026257718
154	0x3f2f88df	0.68568224
155	0xbe1fb721	-0.15597202
156	0x3d17827d	0.036989678
157	0xbe688bef	-0.2270963
158	0xbe6dd9c2	-0.232276
159	0xbda6d06c	-0.08145222
160	0xbe1d91ef	-0.153877
161	0xbd2fb76c	-0.042899534
162	0xbd25e575	-0.04050203
163	0xbe909e14	-0.28245604
164	0x3b806c7c	0.0039191823
165	0x3c9ba3c1	0.018998982
166	0xbcdf36d5	-0.027247826
167	0xbee3db6e	-0.4450335
168	0x3e84cd03	0.25937662
169	0x3e41841b	0.1889805
170	0x3e27c78d	0.16384716
171	0xbd703d85	-0.05865242
172	0xbe31ca73	-0.17362384
173	0x3e079468	0.13240206
174	0x3e83e7c6	0.25762767
175	0xbded6e11	-0.11593259
176	0x3ecee1c5	0.40406623
177	0x3e8d7949	0.27631596
178	0x3f3b742b	0.73224133
179	0xbe93c227	-0.28859064

weight_ih_l0_reverse f4 [180, 5]
0	0xbb4d9204	-0.003136755
1	0x3e8beddb	0.27329907
2	0xbf748764	-0.9551909
3	0xbef40ad9	-0.47664526
4	0x3dc6c4fc	0.097055405
5	0x3dc2732a	0.09494622
6	0xbdd23222	-0.10263468
7	0x3f362bf3	0.7116081
8	0xbe89f5df	-0.26945397
9	0x3edfea1f	0.43733308
10	0xbc7a6892	-0.015283721
11	0xbdd5b708	-0.10435301
12	0xbf102fcb	-0.56322926
13	0xbd279472	-0.040913053
14	0x3eec20cb	0.4611877
15	0x3e3fd694	0.18734199
16	0xbda0d14a	-0.07852419
17	0xbdbac22c	-0.091190666
18	0xbe8e3e04	-0.2778169
19	0x3d553159	0.052049015
20	0xbdf807f8	-0.12110895
21	0xbe624bb3	-0.2209919
22	0xbf2e6b09	-0.6813207
23	0xbe762ab6	-0.2403973
24	0x3de78678	0.11304945
25	0x3de9b380	0.1141119
26	0xbdceadc1	-0.10091735
27	0xbdcfec90	-0.101525426
28	0xbe2b80db	-0.16748373
29	0x3e0bb130	0.1364181
30	0x3db4f9f5	0.08836738
31	0x3e4c1563	0.19930033
32	0x3ef3978d	0.47576562
33	0xbf516547	-0.8179516
34	0x3d9931c5	0.07480196
35	0xbd005ba5	-0.0313374
36	0xbe0ab043	-0.13543801
37	0x3f260a26	0.64859235
38	0x3e2cff85	0.16894348
39	0xbe93aaea	-0.28841335
40	0x3e90582f	0.2819228
41	0xbd8435cc	-0.064555734
42	0x3f5ed931	0.8705016
43	0xbebf9ebf	-0.374258
44	0xbe4546ad	-0.19265242
45	0x3ddc74a7	0.10764437
46	0x3e7128de	0.23550746
47	0x3f9cba2d	1.2244316
48	0xbe2a4908	-0.16629422
49	0xbcb48190	-0.022034436
50	0x3e059a39	0.13047113
51	0x3ececd57	0.40391037
52	0x3ecdac98	0.4017074
53	0xbfae3ac2	-1.3611681
54	0xbe182f99	-0.14861907
55	0x3c4eec0c	0.01262952
56	0xbd3a08a4	-0.045418397
57	0x3eb926da	0.36162454
58	0xbf0c32c2	-0.5476495
59	0x3e810f51	0.25206998
60	0xbd3eb2f2	-0.046557374
61	0x3dd66592	0.10468592
62	0x3e94c8ef	0.2905955
63	0xbf54ce7a	-0.8312756
64	0x3eae5d9a	0.34055787
65	0xbd8832d3	-0.06650319
66	0xbeab4157	-0.33448288
67	0xbdb8cf53	-0.09023919
68	0xbf3e9d93	-0.7445919
69	0x3e0c44af	0.13698076
70	0xbe13b9e8	-0.14426386
71	0xbe82da05	-0.2555696
72	0x3e84eace	0.25960392
73	0x3e5dc7b8	0.21658218
74	0x3e99eb0b	0.30062136
75	0x3c23661f	0.009973078
76	0x3e2e3d30	0.17015529
77	0x3eeb1888	0.45917153
78	0xbe31ff16	-0.17382464
79	0x3ef427e3	0.4768668
80	0xbd3229e7	-0.043496992
81	0xbdf24017	-0.118286304
82	0xbea32274	-0.31862223
83	0xbe919150	-0.28431177
84	0x3ed1e48f	0.4099469
85	0xbb57e559	-0.0032943098
86	0x3d895261	0.06705166
87	0xbf1c681b	-0.6109635
88	0xbf14852f	-0.5801572
89	0xbf244b95	-0.6417783
90	0xbcff2504	-0.03114558
91	0xbdaec129	-0.08532936
92	0xbeb276d0	-0.34856272
93	0xbe1a6b19	-0.15079917
94	0xbdc0d978	-0.09416479
95	0xbd1aaaa5	-0.037760396
96	0x3eb10811	0.34576467
97	0x3e857549	0.26066044
98	0x3e8f2bcf	0.2796311
99	0x3ec47243	0.38368425
100	0x3d71a9f6	0.058999978
101	0xbe83c619	-0.25737074
102	0xbdb31a0c	-0.087452024
103	0xbe5d3dc1	-0.21605588
104	0x3e68c7a9	0.22732414
105	0xbd0047b4	-0.03131838
106	0x3ebce14e	0.36890644
107	0x3db9f56b	0.09080013
108	0xbcde83b4	-0.02716241
109	0x3e357615	0.17720826
110	0x3dede395	0.116156735
111	0x3e82d4f1	0.25553086
112	0xbdb3ee64	-0.08785704
113	0xbb8cadd4	-0.004293183
114	0xbd3996e9	-0.045309935
115	0x3db2c867	0.0872963
116	0xbe46753a	-0.19380656
117	0xbc5b7750	-0.013395146
118	0xbe81d93f	-0.25361058
119	0x3df79d72	0.12090577
120	0x3e01ce93	0.12676458
121	0x3c0fecab	0.008784453
122	0x3eade69a	0.33964998
123	0x3eda2fc2	0.4261456
124	0x3c76b22a	0.015057126
125	0x3d7d24d7	0.06180271
126	0xbe210610	-0.15724969
127	0x3e8eec6b	0.27914748
128	0xbe492d98	-0.19646299
129	0x3d40f417	0.047107782
130	0xbd53d21c	-0.051714048
131	0x3d00f25b	0.03148113
132	0x3f09b05b	0.5378472
133	0xbefce378	-0.49392295
134	0x3d5cdbcd	0.053920556
135	0xbe64d1f5	-0.22345717
136	0x3ea437af	0.32073733
137	0x3dd10254	0.10205522
138	0xbefd41d5	-0.49464288
139	0xbd9a771c	-0.075422496
140	0xbe29e170	-0.16589904
141	0x3e5fb834	0.21847612
142	0x3f3a88c4	0.7286494
143	0xbe8715fe	-0.26383966
144	0xbb803adc	-0.0039132666
145	0x3e8ffdd3	0.2812334
146	0x3d5867a9	0.052833233
147	0x3f8c4de2	1.0961268
148	0xbe62c5f4	-0.22145826
149	0x3eac2e50	0.33629084
150	0xbe98dae2	-0.29854494
151	0xbe08b3fe	-0.13349912
152	0x3d5c7b4f	0.053828534
153	0xbf1c1c4f	-0.60980695
154	0x3d1598f8	0.036522835
155	0xbd2bb98a	-0.04192499
156	0xbe0751f4	-0.13214856
157	0x3e8b973a	0.27263814
158	0x3dcf7dbe	0.10131405
159	0x3e773477	0.24141107
160	0x3e004a75	0.12528403
161	0x3e95a64e	0.29228443
162	0x3f1e613f	0.61867136
163	0xbd8ee0f1	-0.06976498
164	0x3ed230f0	0.4105296
165	0x3ca74492	0.020418439
166	0xbdac179d	-0.084029414
167	0x3f4f2164	0.80910325
168	0xbe15a22c	-0.14612645
169	0xbe835f10	-0.25658464
170	0x3f3de062	0.74170506
171	0x3d69267d	0.05692147
172	0xbf97c88a	-1.1858075
173	0xbd1044c8	-0.035221845
174	0xbccb1c7a	-0.024793852
175	0xbd894f5e	-0.06704591
176	0xbd3324ba	-0.043736197
177	0xbec91246	-0.39271754
178	0xbedc81b9	-0.4306772
179	0x3e500eda	0.20318165
180	0x3e21a4bd	0.15785499
181	0xbdc9b564	-0.09849051
182	0x3f0f1ee9	0.5590654
183	0xbea4052e	-0.32035202
184	0xbbf46ccd	-0.007459259
185	0xbe82f2c8	-0.25575852
186	0xbe502047	-0.20324813
187	0x3f17cb0e	0.5929421
188	0xbf011ed4	-0.50437665
189	0x3e17c0c5	0.1481963
190	0x3e8e3905	0.27777877
191	0x3dea862a	0.11451371
192	0x3dec5303	0.11539271
193	0xbf4485a3	-0.76766413
194	0x3ef4276b	0.47686324
195	0xbcc269de	-0.023732122
196	0xbe59c4ca	-0.21266475
197	0xbd73bdd3	-0.059507202
198	0xbc4af45a	-0.0123873595
199	0x3ea0c4a0	0.31400013
200	0xbdc1f1c3	-0.094699405
201	0x3e7c8d32	0.24663237
202	0xbe37fbb9	-0.17967118
203	0xbe6e130f	-0.23249458
204	0x3e065343	0.131177
205	0xbc8bdf86	-0.017074358
206	0x3db0ae64	0.08627012
207	0x3f3a8aaa	0.72867835
208	0xbdeaf5c0	-0.11472654
209	0x3e640b7d	0.22270007
210	0x3e226bda	0.15861455
211	0x3e404d05	0.1877938
212	0xbdc5725c	-0.09640953
213	0x3d7eb08b	0.062180083
214	0x3e93367f	0.28752515
215	0x3e819c41	0.25314525
216	0x3d59599d	0.053063978
217	0x3eaede92	0.34154183
218	0xbe4e3457	-0.20137154
219	0xbe5719fa	-0.21006003
220	0xbc8fcbc9	-0.017553227
221	0xbe9f2e57	-0.31090042
222	0x3edaf010	0.42761278
223	0xbf1f3e1e	-0.6220416
224	0x3e182bae	0.14860412
225	0x3f300754	0.6876118
226	0xbe804910	-0.25055742
227	0x3e68aba1	0.22721721
228	0xbe6da186	-0.23206148
229	0xbc843d52	-0.016142521
230	0x3ebd47a7	0.3696873
231	0xbd81279f	-0.06306385
232	0xbd78b619	-0.060720537
233	0xbe35e279	-0.17762174
234	0x3e0631ce	0.13104936
235	0x3e5674b6	0.20942959
236	0x3e347b2f	0.17625116
237	0xbce8a830	-0.02840051
238	0x3e4e13e7	0.2012478
239	0x3d00ed98	0.031476587
240	0x3e111a57	0.14170204
241	0x3df1ad31	0.11800612
242	0xbe8f2c65	-0.27963558
243	0xbe81f87c	-0.2538489
244	0xbe30b03e	-0.17254731
245	0xbef19647	-0.47184965
246	0x3e1c0f35	0.15240176
247	0xbe162629	-0.14662994
248	0xbe38fc08	-0.18064892
249	0xbe5dc7e0	-0.21658278
250	0xbdc3b297	-0.09555548
251	0x3d1e828a	0.03869871
252	0xbec4d272	-0.38441807
253	0x3e2266e3	0.1585956
254	0xbe884084	-0.26611722
255	0xbe569f43	-0.20959191

weight_hh_l0_reverse f4 [180, 45]
0	0x3ee8ece0	0.4549322
1	0xbdcb8c9f	-0.09938931
2	0x3f2e53a6	0.6809639
3	0xbf2b3780	-0.6688156
4	0xbe8ff16a	-0.28113872
5	0x3e581dd3	0.21105127
6	0xbebed4f6	-0.3727185
7	0xbe1b3f01	-0.15160753
8	0x3e47c3d2	0.19508293
9	0x3ee636f0	0.4496379
10	0x3dfc0df7	0.12307351
11	0x3e8f11f5	0.27943388
12	0xbdc158da	-0.09440775
13	0xbe3782eb	-0.17921035
14	0xbe2b6cfd	-0.16740794
15	0xbe61d44e	-0.22053644
16	0x3ee68b1b	0.45028004
17	0x3d4ff1f7	0.050767865
18	0xbe59a6dc	-0.21255058
19	0xbd0e4c78	-0.034740895
20	0xbd8a7cf4	-0.06762114
21	0x3e06d07e	0.13165471
22	0x3f08cef9	0.53440815
23	0xbf2d94a6	-0.67804945
24	0x3e9d64dd	0.30741015
25	0xbde22e82	-0.11044027
26	0xbeb561c3	-0.3542615
27	0xbd871e00	-0.06597519
28	0x3e574962	0.21024087
29	0xbf09ac73	-0.5377876
30	0x3d859047	0.06521659
31	0x3ed55200	0.41664124
32	0xbf0c3387	-0.54766124
33	0x3ee16f95	0.44030443
34	0x3e1d6982	0.1537228
35	0xbd8208a3	-0.063493036
36	0x3ea1f30c	0.31630743
37	0x3d71f3fa	0.059070565
38	0xbdddebb5	-0.10835973
39	0xbe965311	-0.2936025
40	0x3dec5e58	0.11541432
41	0x3ea134e2	0.3148566
42	0xbe6d96e8	-0.23202097
43	0xbe4266d7	-0.18984543
44	0x3f08ee43	0.5348856
45	0xbeed9554	-0.4640299
46	0x3c952be4	0.018209405
47	0x3dad5efa	0.08465381
48	0xbe963c7a	-0.29343015
49	0x3da50297	0.080571346
50	0x3e9bf98a	0.3046382
51	0xbdccb30f	-0.0999509
52	0xbe54962f	-0.20760415
53	0xbe81bab6	-0.25337762
54	0x3e701c42	0.2344828
55	0xbe603aaa	-0.21897379
56	0x3ee0ac72	0.43881565
57	0x3ad4fb88	0.0016249279
58	0xbe62d850	-0.22152829
59	0x3e1ebea2	0.15502408
60	0x3e85ba7e	0.26118845
61	0x3cbe54ba	0.02323376
62	0x3e9df18c	0.30848348
63	0xbda6d6ca	-0.081464365
64	0xbd66c8a8	-0.056343704
65	0x3da57ab6	0.08080046
66	0x3e6f9d57	0.23399864
67	0xbe65223c	-0.2237634
68	0x3e00c723	0.12575965
69	0x3db375ed	0.08762727
70	0xbeb694eb	-0.3566049
71	0xbdd98e07	-0.10622793
72	0xbec3b2cd	-0.38222352
73	0x3ef35fd6	0.47534055
74	0xbe975ddb	-0.29563794
75	0x3ea66f2b	0.3250669
76	0xbea06d59	-0.31333426
77	0x3e9622d4	0.29323447
78	0xbd93e296	-0.07220952
79	0xbea64a4a	-0.32478553
80	0xbf5289a4	-0.8224127
81	0xbc671509	-0.014104136
82	0x3efecb71	0.49764588
83	0x3e9a4308	0.30129266
84	0xbe44416a	-0.19165578
85	0xbe00a8cc	-0.12564391
86	0xbe41f5ca	-0.18941417
87	0x3e0b0109	0.13574614
88	0xbebec3df	-0.37258813
89	0x3d85292a	0.06501992
90	0xbe9c9172	-0.30579716
91	0xbdf0ccf3	-0.11757841
92	0x3dc48f9e	0.09597705
93	0x3d4b0b23	0.049571168
94	0x3dd399c3	0.10332062
95	0x3e1c248b	0.15248315
96	0xbe4ec8a7	-0.2019373
97	0x3def4c4f	0.116844766
98	0x3e7d85fe	0.24758145
99	0x3e957162	0.29188067
100	0x3e84608c	0.2585491
101	0x3d81e507	0.063425116
102	0xbcde274b	-0.027118346
103	0xbe142617	-0.14467655
104	0xbe16c706	-0.14724359
105	0xbda41767	-0.08012276
106	0xbe3f657a	-0.18691054
107	0xbe81a66a	-0.25322276
108	0x3d39fa38	0.045404643
109	0x3ed65567	0.41862032
110	0xbcf69356	-0.030099552
111	0x3ee323c4	0.44363225
112	0xbd2950dd	-0.041336883
113	0xbddba5de	-0.10724996
114	0x3dec0844	0.11525014
115	0xbcd93bd9	-0.026517795
116	0xbed6279f	-0.41827103
117	0x3dda4e7c	0.10659501
118	0x3da50005	0.08056644
119	0x3d5f9054	0.054581
120	0x3eb662b7	0.35622188
121	0x3de1d367	0.1102665
122	0xbe8aa760	-0.27080822
123	0x3e55b72f	0.2087066
124	0xbe7ae0b9	-0.24499787
125	0xbf2a2527	-0.6646294
126	0x3ea9f869	0.33197334
127	0x3e01d64d	0.12679406
128	0x3e57bd9f	0.21068428
129	0xbe803f40	-0.25048256
130	0x3be15825	0.0068769627
131	0x3e9d1cae	0.30685943
132	0x3d644de9	0.055738363
133	0x3e9533f7	0.2914121
134	0x3e9729d9	0.29524115
135	0xbe3d42fa	-0.18482581
136	0x3d74b06b	0.059738558
137	0x3d7b0c78	0.061291188
138	0x3df2437a	0.118292764
139	0xbe78b44c	-0.24287528
140	0x3db5196c	0.088427395
141	0x3ed3aa81	0.41341022
142	0xbe60eea4	-0.21966034
143	0x3e4636fb	0.19356911
144	0xbe0feb12	-0.14054516
145	0xbe1f2e22	-0.15544942
146	0x3e8efb97	0.27926323
147	0xbdb7e1cc	-0.08978614
148	0xbe2af86d	-0.1669633
149	0x3d2eb4ca	0.042652883
150	0x3e83af97	0.25719902
151	0x3d25467c	0.040350422
152	0x3d4209a5	0.04737248
153	0x3e38b2a5	0.18036897
154	0x3ecd4cc4	0.4009763
155	0x3e7216d0	0.23641515
156	0xbc741142	-0.014896693
157	0x3e3d8699	0.18508376
158	0xbdf90903	-0.12159922
159	0xbea145c9	-0.31498554
160	0xbe32dd2f	-0.17467187
161	0xb82e542e	-4.156323e-05
162	0x3e0ea96d	0.13931818
163	0xbe8abc7a	-0.2709692
164	0x3d9125f0	0.07087314
165	0x3e9cbb77	0.30611774
166	0x3a1a2f7b	0.0005881709
167	0x3e07075b	0.131864
168	0xbd6d1dbf	-0.057889696
169	0xbd233aba	-0.039850928
170	0xbe8f4d2a	-0.2798856
171	0x3db5d51f	0.0887854
172	0x3ef2035f	0.47268197
173	0x3e3eed94	0.18645316
174	0xbc9d3b7f	-0.019193409
175	0x3d1faaf9	0.03898141
176	0xbdf8493b	-0.121233426
177	0x3e1a1b9d	0.15049596
178	0xbdbc77e7	-0.09202557
179	0x3bbb5341	0.0057167117
180	0xbedc0d17	-0.42978737
181	0xbf435cd9	-0.7631355
182	0x3e2fde9f	0.17174767
183	0x3dc1e0e2	0.09466721
184	0x3d4c9725	0.04994883
185	0x3e593b5d	0.21214052
186	0xbde7c431	-0.113167174
187	0x3e4029ac	0.18765897
188	0x3e7c7ebd	0.24657722
189	0x3f2bc0b3	0.6709091
190	0x3e94f1cc	0.29090726
191	0x3f065693	0.5247585
192	0xbdca5ca9	-0.09880955
193	0xbe15e435	-0.14637835
194	0xbdcba142	-0.09942867
195	0xbebd6151	-0.3698831
196	0x3cad2695	0.021136561
197	0x3d3422e0	0.043978572
198	0x3d7f9989	0.062402282
199	0x3f1469f0	0.5797415
200	0x3ed30df3	0.4122158
201	0x3ea9a0d6	0.3313052
202	0xbca7aaba	-0.020467151
203	0xbe049237	-0.12946402
204	0x3eb652ff	0.35610196
205	0xbec7bb92	-0.39010292
206	0xbf4cd1fa	-0.800079
207	0x3df1b99a	0.11802979
208	0x3eed09bb	0.46296486
209	0xbf2ee434	-0.6831696
210	0x3ec7f702	0.3905564
211	0x3ef8eb7b	0.48617157
212	0xbf190f23	-0.5978872
213	0x3e9859d7	0.29756042
214	0x3d5e5c56	0.054287277
215	0xbf589c81	-0.84613806
216	0x3f0e8d85	0.5568469
217	0xbbca68b5	-0.006177033
218	0x3f0460e2	0.5171033
219	0xbf3b89ed	-0.73257333
220	0x3f18f4a2	0.5974828
221	0x3f2a46fe	0.66514575
222	0x3e10c179	0.14136304
223	0x3f4852e2	0.7825147
224	0x3e990b55	0.29891458
225	0x3cfe180f	0.031017331
226	0xbde491ea	-0.111606434
227	0x3d5e6895	0.054298956
228	0xbe2567c7	-0.16152869
229	0xbd7fe8ac	-0.062477753
230	0x3d2c6376	0.04208704
231	0xbdb47922	-0.08812167
232	0xbe7741db	-0.24146216
233	0x3e5a85d2	0.21340111
234	0xbe8eb9b8	-0.27876067
235	0xbe3b3dcc	-0.18285292
236	0x3d94e914	0.072710186
237	0x3d440e27	0.04786506
238	0xbe3b1af2	-0.18271998
239	0x3d093f34	0.03350754
240	0xbe2ab8c4	-0.16672045
241	0x3d8f6eb2	0.07003535
242	0x3e5eb75c	0.21749634
243	0x3dd97d6f	0.10619628
244	0x3da88509	0.082284994
245	0xbdaeaa2d	-0.08528552
246	0xbebe5275	-0.37172285
247	0x3deb0757	0.11476009
248	0xbe2a1646	-0.16610059
249	0xbeafeb4d	-0.34359208
250	0xbd7bf319	-0.061511133
251	0x3dc0d4a6	0.094155595
252	0xbe922ffd	-0.28552237
253	0x3cdd187e	0.026989218
254	0x3d9a47e5	0.07533244
255	0xbcc02170	-0.023453444

bias_ih_l0_reverse f4 [180]
0	0xbeb7244c	-0.3576988
1	0xbeeead26	-0.46616477
2	0xbe86351e	-0.262124
3	0xbc77a892	-0.015115874
4	0xbf09017b	-0.53517884
5	0xbe73c06f	-0.23803876
6	0xbef5c68a	-0.48003036
7	0xbdee4cd4	-0.116357476
8	0xbc9bc62e	-0.019015398
9	0x3e65ae18	0.22429693
10	0x3d23bda1	0.039975766
11	0xbe9d2c87	-0.30698034
12	0xbf18afd0	-0.5964327
13	0xbef440f2	-0.477058
14	0xbc9a0311	-0.01880029
15	0xbec9cbee	-0.39413399
16	0xbe3789ce	-0.17923662
17	0xbe086fc8	-0.13323891
18	0xbe99e5ef	-0.30058238
19	0xbcb10afa	-0.02161168
20	0xbe9b7473	-0.3036228
21	0xbd92261e	-0.071361765
22	0xbea785bf	-0.32719228
23	0xbec17f73	-0.3779255
24	0x3e42024a	0.18946186
25	0xbe552702	-0.20815662
26	0xbe93c4b3	-0.28861007
27	0xbebc018e	-0.36719936
28	0xbd82be59	-0.06383962
29	0xbe9da21a	-0.30787736
30	0xbdcdaf17	-0.10043161
31	0xbda83faa	-0.08215268
32	0xbd058d43	-0.03260542
33	0xbdef4eb1	-0.11684931
34	0x3e0babd5	0.13639767
35	0xbe8dffdb	-0.27734265
36	0xbdc789de	-0.09743093
37	0xbe58d204	-0.21173865
38	0xbf2f2059	-0.68408734
39	0xbe554eee	-0.2083089
40	0xbedecbab	-0.4351476
41	0xbd94a78d	-0.0725852
42	0xbdbb1c41	-0.091362484
43	0xbe14ab11	-0.14518382
44	0xbeab31f9	-0.33436564
45	0x3e21d57a	0.15804091
46	0xbe54ef78	-0.20794475
47	0x3e114ad5	0.14188702
48	0x3db56033	0.08856239
49	0xbd082c9e	-0.033245675
50	0x3e918bcc	0.2842697
51	0xbe32fbb8	-0.17478836
52	0xbea3446f	-0.31888148
53	0xbe72f6af	-0.23726915
54	0xbefe99b0	-0.4972663
55	0xbf02033c	-0.50786185
56	0xbe020526	-0.12697276
57	0xbee766bd	-0.4519557
58	0xbe065dc3	-0.13121705
59	0xbe4c22ba	-0.19935122
60	0xbf11402c	-0.56738544
61	0xbeba720f	-0.36415145
62	0xbe9494f1	-0.29019883
63	0xbd7ae809	-0.061256442
64	0xbedc5114	-0.43030608
65	0x3ecf9acd	0.4054779
66	0xbf20facd	-0.6288269
67	0xbe3aad9d	-0.1823029
68	0xbe367218	-0.17816961
69	0xbed463fa	-0.41482526
70	0x3ec1c4f4	0.37845576
71	0x3d2da432	0.042392917
72	0xbd9174fb	-0.071023904
73	0x3dfcd0f9	0.12344546
74	0xbed64baf	-0.41854617
75	0x3e433603	0.19063573
76	0xbe541fb4	-0.20715219
77	0x3d1f7fd5	0.03894027
78	0xbe1bc0d0	-0.15210271
79	0xbe78bba0	-0.24290323
80	0x3e0f34a1	0.1398492
81	0xbea466cb	-0.32109675
82	0xbc81c3a6	-0.015840363
83	0xbeae752e	-0.34073776
84	0x3d7e170e	0.062033705
85	0xbf065876	-0.5247873
86	0xbe31d8a8	-0.17367804
87	0xbed52930	-0.41632986
88	0xbdec5384	-0.11539367
89	0xbd21607a	-0.039398648
90	0xbd0fd1bf	-0.03511214
91	0x3e2c7354	0.16840869
92	0xbd126029	-0.035736237
93	0x3e21d423	0.1580358
94	0x3de689b0	0.112567306
95	0x3daa458e	0.08314048
96	0xbce5406a	-0.027984817
97	0xbd1b4bd0	-0.037914097
98	0x3d5c50ff	0.05378818
99	0xbe1fb6a3	-0.15597014
100	0xbc9a8ab7	-0.018864973
101	0xbe87c1ef	-0.26515147
102	0x3e24e671	0.16103531
103	0xbc1b36e5	-0.009473537
104	0x3d3f8f12	0.0467673
105	0x3df0ca3f	0.117573254
106	0xbe19110d	-0.1494791
107	0xbd4be14f	-0.049775418
108	0xbd3c823c	-0.04602264
109	0x3e127e44	0.14305979
110	0xbd6ab358	-0.05729994
111	0x3d6c2d1b	0.057660203
112	0xbd5fc95d	-0.054635394
113	0x3e3b7818	0.18307531
114	0xbe1d0e87	-0.15337573
115	0xbd977b14	-0.07396522
116	0xbd12b95c	-0.035821304
117	0x3e3d24e1	0.184711
118	0xbdebde0c	-0.115169615
119	0x3dd5521f	0.10416054
120	0xbd85b7b5	-0.0652918
121	0xbd8847c5	-0.06654314
122	0x3e869a0e	0.2628941
123	0x3d976c04	0.07393649
124	0xbce3a2a9	-0.027787523
125	0x3d8b186d	0.06791768
126	0xbe452efc	-0.19256204
127	0xbda7a0f8	-0.08184999
128	0x3ca284da	0.01983874
129	0xbd3ad0e7	-0.04560938
130	0xbd5063ef	-0.050876554
131	0xbe11f739	-0.14254464
132	0x3db4efe1	0.08834816
133	0x3d496290	0.049166262
134	0xbe212663	-0.157373
135	0xbde32e23	-0.11092784
136	0xbeb8ade2	-0.36070162
137	0xbde3bb2b	-0.11119684
138	0xbdb6ac3e	-0.08919571
139	0xbe349b84	-0.1763745
140	0xbddedbdd	-0.10881779
141	0xbe5c3e26	-0.21508083
142	0xbe2941d1	-0.16529013
143	0xbbbca71c	-0.0057572257
144	0x3e51f53d	0.20503707
145	0xbd92199a	-0.07133789
146	0xbe7b57a8	-0.24545157
147	0xbf282c44	-0.65692544
148	0xbef3f6f3	-0.47649345
149	0xbe962411	-0.2932439
150	0xbe0bc318	-0.13648641
151	0xbe0b164e	-0.13582727
152	0x3d3040e0	0.04303062
153	0xbe89a004	-0.26879895
154	0xbde1c98f	-0.110247724
155	0xbe5b751c	-0.21431392
156	0xbd86312f	-0.0655235
157	0xbe8f05f1	-0.2793422
158	0xbeb6cca2	-0.35702997
159	0x3e91c776	0.2847249
160	0x3bc33528	0.0059572645
161	0xbedc1fa5	-0.42992893
162	0xbe870b37	-0.26375744
163	0xbe6e13af	-0.23249696
164	0x3cc3bfb5	0.023895124
165	0xbe529e1a	-0.20568123
166	0xbe48df0e	-0.19616339
167	0x3dbcfce5	0.09227923
168	0xbd534d8f	-0.051587638
169	0x3eb860c2	0.3601132
170	0xbe76f29e	-0.24115989
171	0xbe90e069	-0.2829621
172	0x3c258aaf	0.0101038655
173	0xbf057499	-0.5213104
174	0xbeb9b8e6	-0.3627388
175	0xbee31daf	-0.44358584
176	0xbdd949f9	-0.10609812
177	0xbeaa16e9	-0.33220604
178	0xbe43e924	-0.19131905
179	0xbec81fbf	-0.3908672

bias_hh_l0_reverse f4 [180]
0	0xbdcce3a8	-0.100043595
1	0xbf0d4a67	-0.55191654
2	0xbe941576	-0.28922623
3	0xbe78a13f	-0.2428026
4	0xbea6b092	-0.32556587
5	0x3b853c96	0.0040660603
6	0xbeed089d	-0.46295634
7	0xbdc533c1	-0.09629012
8	0x3da1a583	0.07892897
9	0x3deb36e6	0.114850804
10	0xbe7cb768	-0.24679339
11	0xbeaa3517	-0.3324363
12	0xbf3e30e3	-0.74293345
13	0xbf1648f3	-0.5870506
14	0xbd3f7d8b	-0.046750586
15	0xbebcb8ff	-0.3685989
16	0xbebac89c	-0.36481178
17	0x3cc8c85d	0.024509603
18	0xbe121532	-0.14265898
19	0xbe7e95b7	-0.24861799
20	0xbe1485d6	-0.1450418
21	0xbdc8297c	-0.097735375
22	0xbe9e7b4f	-0.30953452
23	0xbeb4d09f	-0.35315415
24	0x3ddb2d01	0.10701943
25	0xbe1e52a9	-0.1546122
26	0xbebe4994	-0.3716551
27	0xbec67d20	-0.38767338
28	0xbe78389a	-0.24240342
29	0xbe8bfab0	-0.27339697
30	0xbe77905d	-0.24176164
31	0xbe05b615	-0.1305774
32	0xbd81902b	-0.06326326
33	0xbd3b922e	-0.045793705
34	0xbc36f70d	-0.0111673
35	0xbe911940	-0.28339577
36	0xbe7d8972	-0.24759462
37	0xbea7cd32	-0.3277374
38	0xbf10117a	-0.5627667
39	0xbdf47c0c	-0.119377226
40	0xbed4f66b	-0.41594252
41	0xbe2158f5	-0.1575659
42	0xbe666711	-0.22500254
43	0xbe201dd9	-0.15636386
44	0xbe076ccd	-0.13225098
45	0x3c3272da	0.010891641
46	0xbeb0569d	-0.3444108
47	0x3d210cee	0.03931897
48	0x3e83330f	0.25624892
49	0xbc89d94c	-0.016827248
50	0x3e52dcc4	0.20592028
51	0xbde8990d	-0.11357317
52	0xbe5c2146	-0.21497068
53	0xbd51c7fa	-0.051216103
54	0xbeeb7180	-0.4598503
55	0xbf0464a5	-0.5171607
56	0xbe04c18e	-0.1296446
57	0xbf1eb296	-0.6199125
58	0xbdee960c	-0.11649713
59	0xbe824748	-0.25445008
60	0xbf2bbc8f	-0.6708459
61	0xbf1cd485	-0.6126178
62	0xbeea71fb	-0.45790085
63	0xbdf85e84	-0.121274024
64	0xbf12c561	-0.57332426
65	0x3eaa1f96	0.33227223
66	0xbee2dc39	-0.44308642
67	0xbda1a15a	-0.078921035
68	0xbdddc6dd	-0.10828946
69	0xbea50147	-0.32227537
70	0x3ee36726	0.44414634
71	0x3e073a2b	0.13205783
72	0x3cf317f7	0.029674513
73	0x3db995a6	0.09061746
74	0xbe87145b	-0.26382717
75	0x3e87a9d4	0.26496756
76	0xbdea1ab1	-0.11430872
77	0x3e54b39f	0.20771645
78	0xbeb63e59	-0.35594442
79	0xbe159e46	-0.14611158
80	0x3dbccb6c	0.09218487
81	0xbebc82ba	-0.36818486
82	0xbc71f503	-0.014767888
83	0xbe92a441	-0.2864094
84	0x3e39de68	0.18151248
85	0xbead9b63	-0.33907613
86	0x3d21d42d	0.039508987
87	0xbee5c4af	-0.4487662
88	0xbead945c	-0.33902252
89	0xbe8832db	-0.266013
90	0x3d270148	0.040772706
91	0x3d0aa34f	0.03384715
92	0xbe135975	-0.14389594
93	0x3e15af0e	0.1461756
94	0xbe1dde52	-0.1541684
95	0xbe302652	-0.17202118
96	0x3e4fadc1	0.20281126
97	0x3c3f3364	0.011669967
98	0x3def9a68	0.116993725
99	0xbe066680	-0.13125038
100	0x3d61fe39	0.055174086
101	0xbe485b1d	-0.19566007
102	0xbcf20f18	-0.029548213
103	0xbc7c5b70	-0.01540266
104	0xbdbc646b	-0.09198841
105	0x3cef6bf5	0.029226283
106	0xbe3541b5	-0.17700846
107	0x3d413ac6	0.04717519
108	0xbe2153ee	-0.15754673
109	0x3cd61a45	0.026135573
110	0x3d599fdc	0.05313097
111	0xbd75f052	-0.06004364
112	0xbcac1901	-0.021008017
113	0xbd3d0d5b	-0.046155315
114	0x3ce8fe16	0.02844147
115	0xbc1bb11e	-0.009502677
116	0x3d111c80	0.03542757
117	0x3e2af80e	0.16696188
118	0xbab2f59a	-0.0013653517
119	0x3deb54ff	0.11490821
120	0xbcbb5d65	-0.022871682
121	0xbcf489c3	-0.029850846
122	0x3d35d3fa	0.04439161
123	0xbe047579	-0.12935437
124	0xbdbe4f25	-0.09292439
125	0x3e26c2bb	0.16285221
126	0xbe92e089	-0.28686932
127	0x3e118db4	0.14214212
128	0xbd06f8de	-0.032952182
129	0x3e0b867d	0.13625522
130	0xbe25610d	-0.16150303
131	0xbe40f2af	-0.18842576
132	0x3dcec83f	0.10096788
133	0xbccfcb07	-0.025365366
134	0xbe4f51d4	-0.20246059
135	0x3c8d559a	0.017252732
136	0xbe8ad90a	-0.27118713
137	0xbeb3c10e	-0.35108227
138	0xbe7edb40	-0.24888325
139	0xbe33b913	-0.17551069
140	0xbd2c4019	-0.042053316
141	0xbe992255	-0.29909006
142	0xbd11f64e	-0.035635285
143	0x3cffe975	0.03123925
144	0x3e1b6d93	0.15178518
145	0xbe04c9f9	-0.12967671
146	0xbe9bdc1d	-0.3044137
147	0xbf266fb9	-0.65014225
148	0xbeadb399	-0.33926085
149	0xbe949ac3	-0.29024324
150	0xbe78a0ba	-0.24280062
151	0xbeb77651	-0.35832456
152	0xbcb793ef	-0.022409407
153	0xbe8873b4	-0.26650774
154	0xbe818ff4	-0.2530514
155	0xbe0f55f3	-0.13997631
156	0xbcbebb14	-0.023282565
157	0xbd9a2a94	-0.075276524
158	0xbe8db8bd	-0.27680007
159	0x3e29dc3e	0.16587922
160	0x3bc59bc0	0.0060305297
161	0xbe8ff785	-0.2811853
162	0xbef12ced	-0.47104588
163	0xbe110e89	-0.14165701
164	0x3b22a255	0.0024815996
165	0xbd9d5a51	-0.07683242
166	0xbe23e165	-0.1600395
167	0xbcca776e	-0.024715152
168	0x3db86344	0.090033084
169	0x3e18a77e	0.14907643
170	0xbe0f13c1	-0.1397238
171	0xbd5052c6	-0.05086019
172	0xbe6c57ac	-0.23080319
173	0xbf0c4424	-0.54791474
174	0xbdf68b58	-0.120382965
175	0xbea13ab0	-0.31490088
176	0xbdca9d6b	-0.09893306
177	0xbe386186	-0.18005952
178	0xbda6913e	-0.081331715
179	0xbe69e1bc	-0.22840017
