Models/Norm_95 models (Feb)/norm_95_max(16.02)_2.pth (torch, 657150 bytes, 18 tensors)

weight_ih_l0 f4 [280, 5]
-0.0033977686 0.26839316 -0.61913234 -0.4975544 0.026552819 -0.052158833 -0.060392458 0.32542682
-0.31569552 -0.19463472 0.10463292 -0.006931729 -0.60317415 0.19369784 -0.040387943 -0.13017368
-0.03587436 0.76258975 -0.23024061 -0.25919208 -0.009398313 -0.11764616 0.07232295 -0.31350845
-0.15646905 0.050286967 -0.011820744 -0.2738878 -0.08153006 0.15920553 -0.07516366 0.10607473
0.10703133 -0.25308156 0.25376144 0.041772164 0.059289247 -0.004792407 0.06797043 -0.3234469
0.032055072 0.008747814 -0.079971746 -0.035828277 0.39172095 -0.013782308 -0.054637156 0.15322642
-0.15086754 0.10066133 0.15658744 -0.049124442 -0.4220255 -0.082436636 -0.117705524 -0.1590384
0.2165158 0.03542348 0.2231946 -0.029646823 -0.11305506 -0.059104733 0.11142618 -0.04607947
-0.22831158 -0.05734019 -0.03207075 0.112402305 -0.22263704 0.13788396 0.031634346 -0.040565908
-0.1824433 0.06581603 -0.19137865 -0.074215956 0.26920596 -0.12843856 0.36855012 0.03352509
0.023095103 -0.0080991415 -0.38617828 -0.024189234 0.016005658 0.14687827 -0.028461419 -0.46144673
-0.05805625 0.034551 -0.13666359 -0.034520995 -0.32111916 0.04473067 0.21870491 0.10610113
-0.018999718 -0.5588519 0.30164844 0.41721916 0.05758025 -0.14555265 0.36452225 -0.10935573
-0.11429187 0.078811266 0.039001293 -0.15821174 0.19336541 -0.20552371 -0.10002541 -0.03531236
-0.11340979 -0.04848791 0.02296978 -0.04633113 -0.21481694 -0.54698366 -0.056806136 -0.18902488
-0.035265163 -0.01681741 -0.20601727 0.031041434 0.062488317 -0.015844598 -0.04006273 0.39801392
-0.055373788 0.1817239 -0.011940358 -0.029978381 -0.23352352 -0.04709182 -0.2653835 0.0146996565
-0.038843773 0.1549021 -0.07429514 0.21712169 0.06667389 0.0742369 0.47256225 -0.17249642
-0.1473544 -0.004093668 -0.00089150865 -0.10498908 0.06057501 0.05577385 -0.11832962 -0.15319498
-0.1265091 0.1300918 -0.04125967 -0.04629367 -0.0048858877 0.35203537 -0.078811765 -0.11450438
-0.105306245 0.044251777 -0.061588775 -0.2735726 -0.15046668 0.05208205 0.0011503184 -0.21696156
-0.16809529 0.030796709 -0.025494603 -0.042675048 0.292655 -0.10400053 -0.29314983 -0.061042447
0.03970655 -0.3010843 0.13112848 0.19714254 0.05033864 -0.0994986 0.53367776 0.11769792
0.31357646 -0.005147956 -0.0010869075 -0.46122307 0.0064116716 -0.08704299 0.055052783 0.03652063
0.17388524 -0.11242092 -0.42148513 0.13406627 0.017211284 0.42664105 -0.037817646 0.09997493
0.020476758 0.059032228 -0.0074360045 -0.091103286 -0.15150185 0.10643905 0.006891229 -0.08092199
-0.0539314 -0.0036934742 0.01753901 0.058820534 0.96558416 0.02671659 -0.17842573 0.07223543
-0.019229257 0.3047535 0.030967569 0.29814664 0.0628186 -0.0047971024 0.19013469 -0.06910601
0.22619927 0.10197783 0.1298275 -0.35301843 -0.26236853 -0.41944078 -0.018496105 -0.029343907
0.4897312 -0.38476273 -0.04170876 -0.05099594 -0.011127642 -0.060999278 -0.33877555 0.38840473
-0.04058936 0.057418007 0.08387969 -0.061880637 -0.021857562 0.02605882 -0.06586545 0.2243159
0.12993857 0.10485162 -0.16322534 -0.1140227 0.21887976 -0.72120476 0.013142398 -0.03066775
00000000: 19ad 5ebb d46a 893e 757f 1ebf 73bf febe
00000010: 4c85 d93c 80a4 55bd 155e 77bd 589e a63e
00000020: d8a2 a1be 534e 47be c949 d63d 8f23 e3bb
00000030: 9f69 1abf ba58 463e d46d 25bd 404c 05be
00000040: fef0 12bd 1539 433f 32c4 6bbe d3b4 84be
00000050: 62fb 19bc 78f0 f0bd 0e1e 943d 2e84 a0be
00000060: 6c39 20be b5f9 4d3d cbab 41bc 063b 8cbe
00000070: 3bf9 a6bd c606 233e 68ef 99bd b53d d93d
00000080: 3e33 db3d e893 81be 05ed 813e 4a19 2b3d
00000090: 48d9 723d a009 9dbb 1534 8b3d d59a a5be
000000a0: 2e4c 033d fe52 0f3c 3ac8 a3bd acc0 12bd
000000b0: a68f c83e 31cf 61bc 36cb 5fbd 63e7 1c3e
000000c0: 057d 1abe 8727 ce3d 7558 203e b636 49bd
000000d0: ba13 d8be 8ad4 a8bd 980f f1bd f6da 22be
000000e0: 51b6 5d3e 3618 113d 208d 643e e5dd f2bc
000000f0: 6989 e7bd ce17 72bd 6933 e43d d4bd 3cbd
00000100: 83ca 69be 8cdd 6abd 9e5c 03bd 2e33 e63d
00000110: f7fa 63be 7431 0d3e 0493 013d 7028 26bd
00000120: 6bd2 3abe 8eca 863d c4f8 43be 89fe 97bd
00000130: 5dd5 893e 6685 03be 9ab2 bc3e 9b51 093d
00000140: f131 bd3c 43b2 04bc 29b9 c5be 8028 c6bc
00000150: 4c1e 833c 4267 163e ec27 e9bc bf42 ecbe
00000160: 64cc 6dbd 5985 0d3d 8af1 0bbe e365 0dbd
00000170: bb69 a4be 8237 373d 2ef4 5f3e 8d4b d93d
00000180: 4ca5 9bbc eb10 0fbf aa71 9a3e c09d d53e
00000190: 45d9 6b3d c10b 15be a9a2 ba3e e6f5 dfbd
000001a0: db11 eabd cd67 a13d d2bf 1f3d 4202 22be
000001b0: 9501 463e cf74 52be 1fda ccbd b1a3 10bd
000001c0: 6443 e8bd 429b 46bd 1f2b bc3c b6c5 3dbd
000001d0: f9f8 5bbe 1f07 0cbf 8dad 68bd bd8f 41be
000001e0: 3472 10bd aac4 89bc 31f6 52be 9b4a fe3c
000001f0: c0f3 7f3d 88cc 81bc d118 24bd 7bc8 cb3e
00000200: a0cf 62bd d415 3a3e 7ea1 43bc 3995 f5bc
00000210: ca20 6fbe 5ae3 40bd 59e0 87be d4d6 703c
00000220: a61a 1fbd a89e 1e3e 0d28 98bd 2655 5e3e
00000230: 528c 883d 8409 983d aef3 f13e e7a2 30be
00000240: 12e4 16be 2d24 86bb 22b4 69ba 8404 d7bd
00000250: 801d 783d 1f73 643d cd56 f2bd 25df 1cbe
00000260: 9a8b 01be c936 053e e6ff 28bd 6e9e 3dbd
00000270: cc19 a0bb fb3d b43e 1068 a1bd 4681 eabd
00000280: cdaa d7bd 5a41 353d 8344 7cbd b511 8cbe
00000290: f013 1abe fd53 553d 48c6 963a 2c2b 5ebe
000002a0: 2c21 2cbe 6149 fc3c 0fda d0bc 08cc 2ebd
000002b0: e0d6 953e 3bfe d4bd bc17 96be a507 7abd
000002c0: 56a3 223d b927 9abe 8b46 063e bcdf 493e
000002d0: e42f 4e3d ecc5 cbbd 1b9f 083f 9b0b f13d
000002e0: 188d a03e 2fb0 a8bb 9076 8eba 6e25 ecbe
000002f0: 0019 d23b 9843 b2bd 077f 613d a896 153d
00000300: f90e 323e f03c e6bd e6cc d7be ab48 093e
00000310: aefe 8c3c b270 da3e ade6 1abd a8bf cc3d
00000320: e0be a73c c7cb 713d baa9 f3bb 5c94 babd
00000330: 4d23 1bbe b7fc d93d d2cf e13b 6eba a5bd
00000340: 2ce7 5cbd 370e 72bb f8ad 8f3c cded 703d
00000350: 8630 773f c0dc da3c 3cb5 36be 2bf0 933d
00000360: ad86 9dbc a708 9c3e b3af fd3c ada6 983e
00000370: 0aa7 803d 0331 9dbb abb2 423e 7487 8dbd
00000380: c8a0 673e c1d9 d03d 80f1 043e d5be b4be
00000390: 2b55 86be f1c0 d6be 2585 97bc a262 f0bc
000003a0: 0cbe fa3e 9fff c4be ced6 2abd 1ee1 50bd
000003b0: b750 36bc 61da 79bd fd73 adbe fcdc c63e
000003c0: 0741 26bd 252f 6b3d 1dc9 ab3d 8d76 7dbd
000003d0: a10e b3bc 4e79 d53c 77e4 86bd 11b3 653e
000003e0: 9e0e 053e 72bc d63d 8b24 27be bc84 e9bd
000003f0: 0422 603e e0a0 38bf 3653 573c ef3a fbbc

weight_hh_l0 f4 [280, 70]
-0.049968023 0.22192444 -0.44420722 -0.2988482 -0.10815632 -0.30174798 -0.08013987 0.01983829
-0.46546975 0.69085735 -0.0458288 0.28180122 0.11144663 -0.1712918 0.10745495 0.27228853
-0.023090187 -0.09432761 0.15555382 0.72867215 -0.34985214 0.13558145 -0.2313089 -0.31505176
0.055817503 -0.26665455 -0.24374858 0.029326636 0.06322198 0.06805455 0.0874105 -0.02427808
0.20508839 0.11201127 -0.012308847 0.11860996 -0.8395225 0.18609986 0.11646047 -0.098844305
-0.26533273 0.076787286 0.2438665 0.21284817 0.63561356 0.4016055 -0.33526072 0.20763043
0.053247247 0.25805157 -0.0761782 -0.1794451 -0.062273044 0.26103538 0.63579684 -0.2206654
-0.18823928 0.27674854 0.099669985 0.5593238 -0.04003044 -0.0889535 0.34475937 0.16795413
-0.32344246 0.111885324 0.07935711 0.4902403 -0.074760504 -0.20618428 0.1320974 0.041565493
-0.037288666 -0.14761968 -0.04971536 -0.06107481 0.3394974 0.25971356 -0.1464249 -0.08431775
0.42607826 -0.004729892 0.16856746 -0.1546815 0.1857805 0.09582902 -0.06360096 -0.31389567
-0.19438268 -0.08017923 0.0007367531 0.04494743 0.033289246 -0.007533248 0.03508729 0.069333054
0.21796513 0.140595 0.25455114 -0.08520123 -0.023134299 -0.38464475 -0.18638945 -0.07390299
0.09378232 -0.050293 0.34056944 -0.4517128 -0.22117825 -0.033703465 -0.10812115 -0.10099574
-0.036021862 -0.29872748 -0.18882784 -0.022255322 -0.5205033 -0.29342815 0.18129458 -0.11435121
0.15140662 -0.018008696 -0.09253552 -0.1151711 0.04683053 -0.20234548 -0.025861572 -0.17319056
-0.13836038 -0.2683589 -0.020155009 0.30390635 0.12080885 0.10823829 -0.06150061 -0.027401267
0.26576453 0.32308555 -0.08190478 0.020042397 0.08795767 0.011790609 -0.011246543 0.3176012
0.06245285 -0.14680628 0.022514597 -0.03873716 -0.10519602 0.22415555 -0.00482941 0.23774324
0.112524204 0.16516787 -0.19136262 0.19072479 -0.048478026 -0.08870149 -0.30075383 0.033325568
-0.07847024 -0.015168071 -0.07768239 -0.02297194 0.00446707 -0.13607082 -0.032584593 0.05730243
0.11225304 -0.0830098 -0.13511148 -0.20473586 0.03616043 0.19849478 0.1011972 -0.16808507
0.08789077 -0.23870778 0.111484565 -0.13560194 -0.11488172 -0.090345435 0.14542158 -0.17172563
0.1940047 0.13926889 -0.13923274 -0.077557854 -0.09699782 0.05154659 0.14574553 0.0648173
-0.10214381 -0.0036207072 0.055609208 -0.021831322 0.1403527 -0.056381125 -0.010301609 -0.2032566
-0.0054139695 0.17690507 0.1677466 0.0022678408 -0.13883983 -0.07323648 0.27372286 0.22856258
0.053400885 -0.10063637 -0.34234515 0.020531856 0.11186465 -0.056547925 0.13042493 -0.11611396
0.08636868 0.20851001 0.25367844 -0.41462088 0.165112 -0.22135378 0.16937838 -0.035000443
0.02275363 0.13489996 0.047900748 -0.36695477 -0.2672288 -0.25620717 0.047942042 -0.39538452
0.12789448 0.08995084 -0.15879253 -0.0159352 0.3539997 0.31988683 0.10065424 -0.20605303
-0.32517308 -0.2925869 -0.10224307 0.46808127 -0.06405013 -0.28076172 0.08648144 -0.36664048
0.19564965 -0.024810713 -0.051182907 -0.009803567 -0.25342563 -0.2303843 -0.22181548 -0.23773049
00000000: 45ab 4cbd 2940 633e 216f e3be a202 99be
00000010: 1081 ddbd b67e 9abe 5f20 a4bd e983 a23c
00000020: 0d52 eebe 07dc 303f fbb6 3bbd 4048 903e
00000030: 213e e43d 1e67 2fbe 5711 dc3d 6769 8b3e
00000040: a227 bdbc d62e c1bd 8049 1f3e 428a 3a3f
00000050: d21f b3be ddd5 0a3e 3edc 6cbe 774e a1be
00000060: e5a0 643d f286 88be 3a99 79be 6a3e f03c
00000070: 877a 813d 2f60 8b3d 4704 b33d d3e2 c6bc
00000080: b102 523e 2a66 e53d 0cab 49bc c7e9 f23d
00000090: f2ea 56bf f690 3e3e d482 ee3d e26e cabd
000000a0: b1d9 87be a742 9d3d 24b8 793e dff4 593e
000000b0: 92b7 223f 3c9f cd3e 4ba7 abbe 129d 543e
000000c0: c919 5a3d 561f 843e 5103 9cbd 75c0 37be
000000d0: 0512 7fbd 6ea6 853e 95c3 223f 1cf6 61be
000000e0: ccc1 40be fcb1 8d3e c71f cc3d d82f 0f3f
000000f0: f5f6 23bd 412d b6bd 4d84 b03e 2bfc 2b3e
00000100: 409a a5be 2224 e53d fb85 a23d c700 fb3e
00000110: 091c 99bd f921 53be 8a44 073e 9440 2a3d
00000120: 00bc 18bd 9d29 17be 55a2 4bbd 9429 7abd
00000130: 9ad2 ad3e 2df9 843e 69f0 15be c9ae acbd
00000140: ee26 da3e 36fd 9abb f39c 2c3e d464 1ebe
00000150: 3e3d 3e3e 0142 c43d 3841 82bd efb6 a0be
00000160: 410c 47be 0235 a4bd aa22 413a cc1a 383d
00000170: 4e5a 083d 77d9 f6bb b1b7 0f3d 7dfe 8d3d
00000180: 4032 5f3e 23f8 0f3e 8754 823e fc7d aebd
00000190: 2484 bdbc 28f0 c4be e0dc 3ebe 735a 97bd
000001a0: f210 c03d 0800 4ebd 1e5f ae3e e646 e7be
000001b0: 8d7c 62be a50c 0abd 9f6e ddbd dbd6 cebd
000001c0: a98b 13bd cff2 98be 165c 41be cb50 b6bc
000001d0: b43f 05bf 373c 96be 49a5 393e f830 eabd
000001e0: 560a 1b3e f986 93bc 4383 bdbd d3de ebbd
000001f0: 5fd1 3f3d a733 4fbe a6db d3bc de58 31be
00000200: 58ae 0dbe 5666 89be 1e1c a5bc 9d99 9b3e
00000210: a16a f73d 09ac dd3d 10e8 7bbd 9f78 e0bc
00000220: 4a12 883e 786b a53e b1bd a7bd f42f a43c
00000230: 2723 b43d 662d 413c 6c43 38bc a09c a23e
00000240: 8fce 7f3d 6354 16be 8870 b83c dbaa 1ebd
00000250: 0371 d7bd 0889 653e 0740 9ebb f772 733e
00000260: 1773 e63d c421 293e 90f4 43be 5c4d 433e
00000270: e590 46bd 20a9 b5bd 68fc 99be 6480 083d
00000280: 01b5 a0bd 8083 78bc f217 9fbd a62f bcbc
00000290: 8060 923b 2656 0bbe 6c77 05bd f4b5 6a3d
000002a0: ece4 e53d 0b01 aabd aa5a 0abe 47a6 51be
000002b0: f61c 143d 3742 4b3e 7a40 cf3d 7e1e 2cbe
000002c0: 1300 b43d d06f 74be 0552 e43d 3cdb 0abe
000002d0: 1b47 ebbd 0707 b9bd 65e9 143e d8d8 2fbe
000002e0: 2ba9 463e 819c 0e3e 0793 0ebe a7d6 9ebd
000002f0: cba6 c6bd 8422 533d 513e 153e efbe 843d
00000300: c630 d1bd 6349 6dbb 7bc6 633d 9ad7 b2bc
00000310: 9eb8 0f3e e5ef 66bd 14c8 28bc 8022 50be
00000320: ab67 b1bb 9a26 353e c4c5 2b3e 0ea0 143b
00000330: 072c 0ebe 02fd 95bd 6725 8c3e 4f0c 6a3e
00000340: e3ba 5a3d 711a cebd dd47 afbe 6c32 a83c
00000350: 4b19 e53d cc9e 67bd 1d8e 053e 28cd edbd
00000360: 10e2 b03d a683 553e 24e2 813e 3049 d4be
00000370: 1f13 293e 91aa 62be 8771 2d3e a05c 0fbd
00000380: d265 ba3c 3723 0a3e 9333 443d 7fe1 bbbe
00000390: 37d2 88be 962d 83be e05e 443d d76f cabe
000003a0: c5f6 023e 2538 b83d 829a 22be 898a 82bc
000003b0: 733f b53e 35c8 a33e cf23 ce3d 91ff 52be
000003c0: 167d a6be f3cd 95be d164 d1bd 59a8 ef3e
000003d0: b72c 83bd 00c0 8fbe 2e1d b13d 4db8 bbbe
000003e0: 6258 483e d63f cbbc 2ba5 51bd 249f 20bc
000003f0: 01c1 81be dde9 6bbe 9923 63be 9f6f 73be

bias_ih_l0 f4 [280]
0.10982949 -0.107000016 -0.15335071 -0.12356062 -0.08180888 -0.2023565 -0.10248172 -0.04772815
-0.050860196 -0.28018534 -0.053240087 0.006211618 -0.0059650643 -0.47073475 0.021939285 0.10985322
-0.18435976 -0.11739592 -0.11958987 0.6543529 -0.26069593 -0.13242345 -0.34539598 -0.053723708
-0.37231228 -0.05085635 -0.22156294 -0.22288683 0.23026974 -0.16075364 -0.19288953 0.030692833
-0.10082753 -0.35865134 -0.28441608 -0.22787717 0.13089465 -0.11808586 -0.045203794 -0.11705766
-0.19037077 -0.1961701 0.047595948 -0.10388479 -0.3182807 -0.16180493 -0.333686 -0.07790386
-0.24390328 -0.15144412 -0.3396875 -0.3058339 -0.31408077 -0.17234178 0.015295457 -0.20749658
-0.22077863 0.7979755 -0.30266497 0.02652407 -0.14774588 -0.33611023 -0.33495313 -0.100750774
-0.120579466 0.047723673 -0.22477795 -0.26431993 -0.0017018053 -0.22349381 -0.20491718 0.34871027
-0.0008342887 0.2250008 0.06630558 0.22991872 0.044806518 -0.024079533 0.10849743 0.40170968
0.16244353 0.06654861 0.08582524 0.13332392 -0.07212497 0.045531534 0.2119641 0.2933086
0.055392783 0.1058143 0.12376857 0.02000761 0.07349391 -0.14462174 0.19436164 0.36905512
0.13470872 -0.007898752 0.06699652 0.29263854 0.44112912 -0.058313005 -0.117851414 0.2917617
0.12759821 -0.02990503 -0.12807348 0.062229827 0.14723657 0.20454462 0.16831312 0.36904514
-0.12352412 -0.017472565 0.09731631 -0.016927833 0.7240819 0.23283292 0.23974928 0.22654463
0.08964119 0.32393357 0.3078732 0.2934786 -0.14839469 0.08702818 0.033827167 -0.08604726
0.24976477 0.039622415 0.06140404 0.3394082 0.4293865 0.1282613 -0.025618648 0.06786132
0.06650375 0.24709778 -0.14342697 0.0083151935 0.004813735 0.035713933 -0.15311041 0.019920941
-0.10537107 0.061128736 -0.104754604 -0.08589665 -0.016643576 -0.15387574 -0.12603168 -0.048870094
-0.2007122 -0.03768623 0.029316122 -0.038875017 -0.01435769 0.12786876 0.081413835 -0.16054004
0.18356343 0.07782976 0.16238719 0.03509572 -0.057421066 0.060101 0.0037073842 0.041239668
0.045052733 0.13815743 0.0077381697 0.08633427 -0.007116066 -0.064125516 -0.031674948 0.16308017
0.08587295 -0.06345456 0.0035945112 -0.094672956 0.041436765 0.032228768 -0.124775805 -0.03539812
-0.09566248 -0.14237408 0.030622382 0.009202388 -0.13821651 -0.08175543 0.02313543 9.767139e-05
-0.028757801 0.139141 0.025787521 0.03793491 -0.09802806 -0.12970342 0.03507228 0.11090758
-0.12587488 -0.024024747 -0.026294984 0.0074515855 0.005271969 0.04104192 -0.0885083 -0.039764144
-0.044087723 -0.09219515 0.1015908 -0.016309176 -0.054939948 -0.02472639 -0.14574507 -0.0043271035
-0.07535225 -0.0882611 0.09043317 0.1028724 -0.1231642 0.019782592 -0.10635534 -0.24627025
0.08163266 0.091604136 0.07443715 0.114915475 -0.24981904 0.48796597 -0.16784085 -0.06576496
-0.026338058 0.20101397 -0.34911895 -0.022609029 0.05569948 -0.28787988 0.22475663 -0.17614748
-0.08118857 0.083521366 0.09108885 0.23514074 -0.18563244 -0.21225338 0.2512639 -0.009851332
-0.14497456 -0.081676155 0.046271212 -0.023604264 0.24479355 -0.019807786 -0.043667406 0.090566486
00000000: 49ee e03d d322 dbbd f807 1dbe 5a0d fdbd
00000010: 6a8b a7bd 8b36 4fbe f0e1 d1bd 987e 43bd
00000020: c852 50bd 7474 8fbe 4712 5abd d48a cb3b
00000030: 9676 c3bb 2504 f1be 04ba b33c bafa e03d
00000040: cec8 3cbe 466d f0bd 89eb f4bd ac83 273f
00000050: f079 85be 039a 07be bed7 b0be 640d 5cbd
00000060: b79f bebe c04e 50bd 65e1 62be 723c 64be
00000070: d5cb 6b3e 9a9c 24be d584 45be 896f fb3c
00000080: aa7e cebd 26a1 b7be fc9e 91be a258 69be
00000090: 3f09 063e 00d7 f1bd 9d27 39bd edbb efbd
000000a0: 8ef0 42be d1e0 48be f8f3 423d 8cc1 d4bd
000000b0: b0f5 a2be 31b0 25be e4d8 aabe 0f8c 9fbd
000000c0: c8c1 79be 2b14 1bbe 85eb adbe 4396 9cbe
000000d0: 32cf a0be 5d7a 30be cc99 7a3c fc79 54be
000000e0: cb13 62be 1f48 4c3f e7f6 9abe 0249 d93c
000000f0: b24a 17be a416 acbe fa7e abbe 6c56 cebd
00000100: 5ef2 f6bd e679 433d 312c 66be f154 87be
00000110: 1c0f dfba 90db 64be cfd5 51be 278a b23e
00000120: 2bb4 5aba 9c66 663e 38cb 873d d06f 6b3e
00000130: 0a87 373d 7142 c5bc e733 de3d e4ac cd3e
00000140: 9957 263e a34a 883d 25c5 af3d 1186 083e
00000150: 42b6 93bd 467f 3a3d 1e0d 593e 8b2c 963e
00000160: 8be3 623d 2bb5 d83d 607a fd3d 00e7 a33c
00000170: fa83 963d b917 14be bd06 473e cbf4 bc3e
00000180: 15f1 093e c469 01bc 7935 893d b8d4 953e
00000190: addb e13e 9ed9 6ebd 155c f1bd ca61 953e
000001a0: 1ba9 023e 65fb f4bc b225 03be b4e4 7e3d
000001b0: 2fc5 163e 2574 513e 465a 2c3e 7cf3 bc3e
000001c0: 37fa fcbd a022 8fbc c64d c73d 3dac 8abc
000001d0: 6e5d 393f c16b 6e3e d680 753e 51fb 673e
000001e0: cd95 b73d 9fda a53e 8ea1 9d3e d442 963e
000001f0: c7f4 17be d53b b23d 5b8e 0a3d 8c39 b0bd
00000200: 56c2 7f3e 1d4b 223d cd82 7b3d e9c6 ad3e
00000210: 8cd8 db3e ee56 033e 33de d1bc e0fa 8a3d
00000220: 1e33 883d 3307 7d3e 85de 12be 733c 083c
00000230: 89bc 9d3b c648 123d fac8 1cbe 3e31 a33c
00000240: cacc d7bd 2062 7a3d 9589 d6bd 95ea afbd
00000250: 1c58 88bc 9a91 1dbe 730e 01be 022c 48bd
00000260: 8087 4dbe e05c 1abd 5d28 f03c 693b 1fbd
00000270: 843c 6bbc 07f0 023e 4cbc a63d 9c64 24be
00000280: 0df8 3b3e 3665 9f3d d448 263e 88c0 0f3d
00000290: 5a32 6bbd 772c 763d 96f7 723b edea 283d
000002a0: 3789 383d 2479 0d3e 7990 fd3b 06d0 b03d
000002b0: e32d e9bb 3d54 83bd 97bd 01bd 7dfe 263e
000002c0: 28de af3d 77f4 81bd e491 6b3b e5e3 c1bd
000002d0: 99b9 293d 5002 043d 758a ffbd 9efd 10bd
000002e0: b1ea c3bd 83ca 11be cadb fa3c 9dc5 163c
000002f0: a188 0dbe 646f a7bd 8386 bd3c eed4 cc38
00000300: 7b95 ebbc fa7a 0e3e 5a40 d33c a361 1b3d
00000310: efc2 c8bd f9d0 04be f3a7 0f3d 8323 e33d
00000320: 58e5 00be 8ccf c4bc 9468 d7bc 6e2c f43b
00000330: 7bc0 ac3b 931b 283d d743 b5bd badf 22bd
00000340: 5495 34bd d0d0 bcbd d60e d03d d29a 85bc
00000350: b608 61bd 008f cabc 323e 15be 60ca 8dbb
00000360: 4852 9abd 3cc2 b4bd 0735 b93d c4ae d23d
00000370: 833d fcbd 1a0f a23c d4d0 d9bd 452e 7cbe
00000380: 062f a73d f39a bb3d 8172 983d ce58 eb3d
00000390: 90d0 7fbe add6 f93e 79de 2bbe c8af 86bd
000003a0: e9c2 d7bc 9bd6 4d3e b8bf b2be 9236 b9bc
000003b0: 2325 643d fe64 93be 9a26 663e 0160 34be
000003c0: 3146 a6bd 400d ab3d ca8c ba3d bcc8 703e
000003d0: 6e16 3ebe f358 59be a9a5 803e 7b67 21bc
000003e0: 3674 14be d445 a7bd e286 3d3d bb5d c1bc
000003f0: 29ab 7a3e f043 a2bc 98dc 32bd ec7a b93d

bias_hh_l0 f4 [280]
0.050913133 -0.082408406 -0.05638715 -0.07965119 -0.10024712 -0.32767236 -0.24514368 -0.10600839
0.01976144 -0.24722777 -0.08015996 -0.11379132 -0.08242874 -0.43894497 0.06545896 0.139379
-0.23038423 -0.061087124 -0.26137522 0.6389964 -0.37123525 -0.26288813 -0.27386436 0.0810026
-0.23729365 -0.042564813 -0.18247694 -0.3282546 0.21739845 -0.20208062 -0.27142105 -0.07952365
-0.08982496 -0.18758608 -0.12489496 -0.31558967 0.27197793 -0.18730742 0.0031806098 -0.086578414
-0.17370485 -0.27247542 -0.043129977 -0.17936632 -0.25247777 -0.10500813 -0.4211732 0.00045845212
-0.16876246 -0.120875955 -0.25556484 -0.12837803 -0.31004965 -0.13182276 -0.09073507 -0.11965916
-0.14741567 0.71411824 -0.22097404 -0.05152671 -0.11971777 -0.18197894 -0.32963744 -0.26116627
-0.23904195 0.08717713 -0.16985562 -0.4006633 0.008945725 -0.18140793 -0.15306501 0.32473698
0.04025945 0.31929606 0.023198282 0.16384345 0.11885684 -0.18124244 0.14479867 0.3000592
0.13872124 -0.063982524 0.21322371 0.007379853 0.063757166 0.048300005 0.28937227 0.118618175
0.015713874 0.04666885 0.052397884 0.054767475 0.28214744 -0.31098902 -0.037432782 0.17027025
0.11823547 -0.050223865 0.070299454 0.30837265 0.39471063 -0.01828488 0.053028762 0.29480988
0.24372308 -0.12547378 0.011209322 0.040343974 0.099295326 0.31223193 0.19529633 0.30601817
0.0805494 0.080268696 0.32879716 -0.0013231654 0.5665427 0.20207925 0.22312415 0.12205654
0.26020622 0.4894936 0.25781226 0.1319187 0.009458995 0.10564478 -0.058826692 0.0048231883
0.23755138 0.07158916 0.002602828 0.32800856 0.47085327 0.17446023 0.0025166152 -0.043802593
0.023285003 0.24494043 -0.15775649 0.18497403 0.110580154 -0.09488155 -0.121417746 -0.0816761
0.03928183 0.015104643 -0.1000795 0.015399027 -0.1013816 0.002676427 -0.059841454 -0.030819021
-0.1464724 -0.14503892 0.05527726 -0.12501252 0.08284636 -0.021840505 0.08326697 0.0038767485
-0.016362391 -0.11730931 -0.0363473 -0.11935599 -0.056149077 -0.09801252 0.07155489 0.13525368
0.12024871 0.110097766 0.021831216 -0.07571102 0.028233256 -0.05667795 -0.10248296 0.17211169
0.12300232 0.05189051 -0.11550898 0.019140957 0.07888791 -0.10362646 -0.09889341 0.086510696
0.07186821 -0.005508081 0.06465995 0.09970813 -0.13042985 -0.11926819 -0.081345774 0.0067956676
0.1070149 0.027276674 0.013219172 -0.016157443 -0.13626082 -0.21235858 -0.09065481 -0.027658306
0.05274815 -0.04291654 -0.074721105 -0.09976466 -0.04715407 -0.10365118 -0.16501246 -0.044155736
0.08279238 -0.18335043 0.23251712 -0.12574413 0.032816004 -0.025778519 -0.18479243 0.00743107
-0.18588015 -0.02460419 0.120525874 0.08561654 -0.030939732 -0.05966004 -0.08689539 -0.13610704
0.06751884 -0.0045580673 0.05620075 -0.0035244497 -0.16147058 0.40005782 -0.15562296 -0.14329457
0.12988904 0.019879073 -0.37445518 0.032508068 0.033526123 -0.26293316 0.30738497 0.021825617
-0.088540465 -0.05411728 0.08459147 0.0039882357 -0.17734556 -0.1063295 0.36251867 0.089867055
-0.042887058 0.12537791 -0.1215929 -0.037287027 0.091557994 -0.16544174 0.052905995 -0.08564829
00000000: 4a8a 503d bdc5 a8bd 36f6 66bd 2a20 a3bd
00000010: 5d4e cdbd acc4 a7be f206 7bbe ed1a d9bd
00000020: bee2 a13c 4729 7dbe e82a a4bd 6c0b e9bd
00000030: 66d0 a8bd 65bd e0be 590f 863d 5eb9 0e3e
00000040: d8e9 6bbe 7e36 7abd f9d2 85be 4595 233f
00000050: 8c12 bebe 4699 86be f337 8cbe b1e4 a53d
00000060: 1bfd 72be 7158 2ebd 3cdb 3abe fd10 a8be
00000070: b39d 5e3e 39ee 4ebe b3f7 8abe 4cdd a2bd
00000080: 26f6 b7bd 9116 40be eec8 ffbd f894 a1be
00000090: b140 8b3e 84cd 3fbe c771 503b 0650 b1bd
000000a0: afdf 31be e681 8bbe 0fa9 30bd ceab 37be
000000b0: c444 81be 810e d7bd 03a4 d7be 675c f039
000000c0: 11d0 2cbe d08d f7bd 65d9 82be 8875 03be
000000d0: d4be 9ebe 8cfc 06be 4fd3 b9bd dd0f f5bd
000000e0: 22f4 16be 74d0 363f 0547 62be ac0d 53bd
000000f0: 972e f5bd b058 3abe 3dc6 a8be 96b7 85be
00000100: 6ac7 74be ec89 b23d a2ee 2dbe bd23 cdbe
00000110: 1791 123c 00c3 39be 13bd 1cbe ed43 a63e
00000120: 18e7 243d c67a a33e 530a be3c 94c6 273e
00000130: 376b f33d 9e97 39be 1a46 143e 5ca1 993e
00000140: f10c 0e3e 4509 83bd 5157 5a3e b2d2 f13b
00000150: 1e93 823d 3ad6 453d 9a28 943e 16ee f23d
00000160: 62ba 803c d627 3f3d 2a9f 563d dc53 603d
00000170: a175 903e f439 9fbe 1e53 19bd 535b 2e3e
00000180: 7025 f23d 8ab7 4dbd 29f9 8f3d 05e3 9d3e
00000190: 8317 ca3e 2cca 95bc b034 593d 52f1 963e
000001a0: 8b92 793e 337c 00be 4ea7 373c b93f 253d
000001b0: 595b cb3d dddc 9f3e c3fb 473e 6aae 9c3e
000001c0: 15f7 a43d ea63 a43d 1a58 a83e 106e adba
000001d0: f108 113f dded 4e3e a87a 643e c7f8 f93d
000001e0: c039 853e e89e fa3e f8ff 833e b215 073e
000001f0: e7f9 1a3c 4a5c d83d 42f4 70bd d60b 9e3b
00000200: ab40 733e 569d 923d 3594 2a3b bdf0 a73e
00000210: ae13 f13e b4a5 323e cced 243b 596a 33bd
00000220: 31c0 be3c aad1 7a3e eb8a 21be d569 3d3e
00000230: d977 e23d 4251 c2bd dea9 f8bd cd45 a7bd
00000240: fce5 203d 7779 773c 7bf6 ccbd 334c 7c3c
00000250: 28a1 cfbd fe66 2f3b 501c 75bd 2c78 fcbc
00000260: dcfc 15be 1585 14be 686a 623d 4803 00be
00000270: 5aab a93d dcea b2bc e087 aa3d 0c11 7e3b
00000280: 6c0a 86bc dd3f f0bd e8e0 14bd ea70 f4bd
00000290: 93fc 65bd caba c8bd 5f8b 923d f17f 0a3e
000002a0: f544 f63d f07a e13d 61d7 b23c 610e 9bbd
000002b0: 6e49 e73c 2327 68bd 96e2 d1bd 0c3e 303e
000002c0: a4e8 fb3d 258b 543d f98f ecbd 7fcd 9c3c
000002d0: fc8f a13d 1c3a d4bd a188 cabd 852c b13d
000002e0: a42f 933d 227d b4bb 706c 843d c733 cc3d
000002f0: 678f 05be e142 f4bd 9d98 a6bd 31ae de3b
00000300: a12a db3d 5573 df3c 3a95 583c 9d5c 84bc
00000310: f587 0bbe 8774 59be 3ba9 b9bd ac93 e2bc
00000320: 720e 583d 41c9 2fbd 6107 99bd 6a51 ccbd
00000330: a024 41bd 1247 d4bd 07f9 28be a5dc 34bd
00000340: 0d8f a93d 37c0 3bbe f818 6e3e 12c3 00be
00000350: 136a 063d 792d d3bc 3a3a 3dbe 5580 f33b
00000360: 5e57 3ebe ba8e c9bc 45d6 f63d b957 af3d
00000370: 5275 fdbc 165e 74bd 36f6 b1bd a55f 0bbe
00000380: 5147 8a3d d75b 95bb c232 663d 74fa 66bb
00000390: 8b58 25be 61d4 cc3e a05b 1fbe d0bb 12be
000003a0: a201 053e 70d9 a23c 97b8 bfbe 2e27 053d
000003b0: b052 093d 2d9f 86be 9061 9d3e a3cb b23c
000003c0: b454 b5bd 15aa 5dbd 4b3e ad3d bfaf 823b
000003d0: 139a 35be 48c3 d9bd 0c9c b93e 380c b83d
000003e0: 57aa 2fbd 1163 003e b305 f9bd 48ba 18bd
000003f0: c282 bb3d 8f69 29be f5b3 583d 5f68 afbd

weight_ih_l0_reverse f4 [280, 5]
-0.070605606 -0.022585437 0.08242523 -0.29958495 -0.2644687 0.22759499 0.2775242 0.4091315
-0.46537107 0.15626086 -0.17747183 0.2133749 -0.05753398 -0.6967215 0.25457954 -0.10295045
-0.14143384 0.059973083 -0.18176244 -0.3387448 0.091227375 -0.12493847 0.8339489 -0.14680567
-0.010894351 -0.062700234 0.02454468 -0.20508425 -0.18824306 -0.101014584 -0.036165364 0.016280718
0.15159044 -0.40664628 0.16451134 -0.10675234 0.11059208 -0.18434873 -0.298915 -0.37704337
0.019283244 -0.0055818753 0.024802709 -0.063353114 0.17003973 -0.09904017 -0.13021304 -0.21203624
-0.16279672 -0.28680953 -0.06450907 -0.04997432 -0.6769204 -0.12841937 -0.34383082 -0.035937313
-0.11854908 -0.3407002 -0.1103899 -0.21069467 0.12584026 -0.07912046 0.09202258 -0.08889787
-0.30318245 0.0924114 0.24430923 0.37854588 0.17085473 0.64606553 -0.089434676 0.084428325
0.07575339 0.14162587 0.23034817 0.0012776098 -0.19420545 -0.195282 -0.03492375 -0.47805014
-0.08574228 -0.025752557 -0.06958141 -0.18951696 -0.21396656 0.020456007 0.04147952 -0.00066574477
-0.27955836 0.49934795 -0.109719425 -0.07273048 -1.2311765 0.119258754 0.15563428 0.12872225
0.03958515 0.35126716 -0.058444522 0.20910834 -0.11886287 0.22668542 0.26615182 -0.028910492
0.361234 -0.18157299 0.13784522 0.04976149 0.1433746 0.5047623 0.22601087 0.3097026
-0.1584088 -0.36327454 -0.06806638 -0.2290354 0.12587883 -0.20827031 -0.0787032 -0.03011745
0.294167 -0.19156243 0.6097318 -0.06515091 -0.21465488 -0.32816023 -0.038882572 -0.55601877
-0.23201254 -0.14941493 -0.067410626 0.07053394 0.488552 0.011243338 0.34380722 -0.0056613213
0.06671513 0.24277274 0.1258835 0.027144644 0.015890457 -0.16087036 0.019698475 -0.05635613
-0.26849252 0.012149858 -0.014107942 -0.6882754 -0.21569729 -0.18008195 0.014399185 -0.12670355
-0.17001292 0.019113615 0.36479974 -0.13443936 0.19434564 -0.22061972 -0.2186094 0.04848291
0.06705156 -0.009730671 0.03755388 0.15247168 -0.2200531 -0.21951191 -0.1374747 -0.11338398
-0.14286596 -0.11314176 0.030514834 0.054298867 -0.020139206 -0.33298618 0.32620403 -0.021981908
-0.007168281 -0.5256672 -0.30390844 0.07572571 0.09112367 0.09574339 -0.008774515 -0.18209198
-0.07676698 0.18304642 0.014607826 -0.2916279 -0.17874782 -0.32056943 0.0042658416 -0.14101793
0.4163104 -0.28415793 -0.36036232 0.02483158 0.1012704 -0.46687222 0.33681676 0.2025606
-0.014130559 0.04201904 -0.074075155 -0.06381838 -0.034932457 0.13287021 0.22181587 1.1705806
-0.2663168 -0.15312383 -0.19355844 0.029872246 -0.8092335 -0.101026006 -0.00026589038 -0.02555278
-0.13006698 0.56859535 0.107210815 0.069046885 -0.08874933 0.29005584 0.5913134 -0.1711303
0.10428006 -0.052479517 0.039143186 1.1089984 0.053958114 0.35689443 -0.12052708 0.035217043
-0.47062027 -0.09050739 0.21543504 0.059576966 -0.037235793 0.061917968 -0.39795902 -0.016852941
0.039256237 -0.12624584 -0.30800578 -0.009190072 -0.07864983 -0.079178624 -0.0019324048 0.3782133
-0.33495644 0.25839576 -0.11437176 0.11645145 -0.2661533 0.31334263 0.37563476 0.22260398
00000000: ac99 90bd 1805 b9bc 8fce a83d 3363 99be
00000010: 7168 87be a90e 693e a717 8e3e af79 d13e
00000020: 1e45 eebe d902 203e 2dbb 35be f37e 5a3e
00000030: c0a8 6bbd 575c 32bf 4058 823e afd7 d2bd
00000040: 08d4 10be 56a6 753d ef1f 3abe f56f adbe
00000050: 6bd5 ba3d bedf ffbd ad7d 553f 3a54 16be
00000060: 387e 32bc fb68 80bd ed11 c93c 9b01 52be
00000070: cac2 40be bce0 cebd 2222 14bd 245f 853c
00000080: 863a 1b3e f133 d0be a975 283e f9a0 dabd
00000090: 1a7e e23d eac5 3cbe 630b 99be d40b c1be
000000a0: e5f7 9d3c 2ae8 b6bb 0d2f cb3c 47bf 81bd
000000b0: e51e 2e3e 93d5 cabd 9156 05be 0720 59be
000000c0: 2fb4 26be b3d8 92be 551d 84bd dfb1 4cbd
000000d0: a84a 2dbf 5e80 03be 980a b0be 0133 13bd
000000e0: dcc9 f2bd 4270 aebe 1a14 e2bd 58c0 57be
000000f0: 45dc 003e e809 a2bd 5676 bc3d 1610 b6bd
00000100: bb3a 9bbe 3042 bd3d 332c 7a3e c4d0 c13e
00000110: 8bf4 2e3e 8d64 253f 8729 b7bd c2e8 ac3d
00000120: 9824 9b3d 5f06 113e 64e0 6b3e 7975 a73a
00000130: cbdd 46be 01f8 47be 350c 0fbd fdc2 f4be
00000140: a699 afbd 07f7 d2bc b380 8ebd bc10 42be
00000150: 0d1a 5bbe 5b93 a73c 6ee6 293d 6085 2eba
00000160: 4622 8fbe 89aa ff3e 94b4 e0bd b8f3 94bd
00000170: 3197 9dbf ef3d f43d 985e 1f3e c4cf 033e
00000180: 0a24 223d 4ad9 b33e 8663 6fbd 7f20 563e
00000190: 606e f3bd 3920 683e 0d45 883e b2d5 ecbc
000001a0: aaf3 b83e 45ee 39be 4c27 0d3e b4d2 4b3d
000001b0: cbd0 123e 1a38 013f 656f 673e 5791 9e3e
000001c0: eb35 22be 1fff b9be 6366 8bbd 4288 6abe
000001d0: 61e6 003e d044 55be 252f a1bd dfb8 f6bc
000001e0: 0f9d 963e f128 44be 6217 1c3f d76d 85bd
000001f0: 7dce 5bbe 9e04 a8be 5543 1fbd 3f57 0ebf
00000200: b294 6dbe 3a00 19be 950e 8abd 1974 903d
00000210: 7d23 fa3e fa35 383c 8007 b03e 9b82 b9bb
00000220: f1a1 883d 6b99 783e 9be7 003e 725e de3c
00000230: b42c 823c 33bb 24be b25e a13c afd5 66bd
00000240: da77 89be 3310 473c ff24 67bc d132 30bf
00000250: c0df 5cbe 6767 38be 8fea 6b3c 93be 01be
00000260: de17 2ebe 2894 9c3c 08c7 ba3e 79aa 09be
00000270: 8b02 473e 23ea 61be 24db 5fbe 0496 463d
00000280: 5452 893d 646d 1fbc 19d2 193d 8921 1c3e
00000290: 9a55 61be bbc7 60be 2bc6 0cbe dc35 e8bd
000002a0: 744b 12be deb6 e7bd 3ffa f93c 7d68 5e3d
000002b0: fafa a4bc 2a7d aabe 3704 a73e 6713 b4bc
000002c0: e6e3 eabb 2092 06bf e399 9bbe 1516 9b3d
000002d0: 0c9f ba3d 1c15 c43d fcc2 0fbc 5276 3abe
000002e0: 0238 9dbd 8570 3b3e aa55 6f3c 4150 95be
000002f0: ab09 37be ad21 a4be 79c8 8b3b 0167 10be
00000300: a326 d53e 267d 91be 6981 b8be 996b cb3c
00000310: db66 cf3d e009 efbe 3f73 ac3e 0c6c 4f3e
00000320: dc83 67bc 281c 2c3d b7b4 97bd 36b3 82bd
00000330: 5615 0fbd 210f 083e b323 633e 96d5 953f
00000340: ad5a 88be 7ecc 1cbe 2f34 46be a4b6 f43c
00000350: ed29 4fbf b9e6 cebd 3467 8bb9 1054 d1bc
00000360: 4730 05be 778f 113f 5891 db3d 7468 8d3d
00000370: 35c2 b5bd 3382 943e 5160 173f c83c 2fbe
00000380: c990 d53d c3f4 56bd 9b54 203d a9f3 8d3f
00000390: 2f03 5d3d deba b63e e7d6 f6bd bf3f 103d
000003a0: 24f5 f0be f05b b9bd 019b 5c3e fa06 743d
000003b0: 8f84 18bd b29d 7d3d 49c1 cbbe 2e0f 8abc
000003c0: 26cb 203d 9746 01be efb2 9dbe f591 16bc
000003d0: 2913 a1bd 6728 a2bd bf48 fdba 2ca5 c13e
000003e0: 697f abbe 734c 843e be3b eabd 197e ee3d
000003f0: 3f45 88be 726e a03e 3353 c03e 4cf2 633e

weight_hh_l0_reverse f4 [280, 70]
0.058509845 -0.39044088 0.10813505 -0.5735776 -0.28317845 -0.22584635 0.26349676 -0.10907843
-0.09368619 0.17596154 0.05777145 -0.062965415 0.42405567 -0.34074214 0.38389778 -0.2170977
0.0070819976 0.50011885 -0.009871075 -0.34388793 0.33623487 -0.048313014 -0.6181013 0.42403233
-0.0125853 0.20988761 -0.14083292 0.55100465 0.3670257 -0.12996146 0.014055982 -0.24334492
0.38960737 -0.12724726 0.306644 -0.037510008 0.02953967 -0.27690753 0.29419622 0.42538893
-0.44839093 0.08329701 -0.25653327 0.06381925 -0.45714265 0.11114116 0.41943875 -0.18449709
0.1283939 0.21046825 -0.13814732 -0.5042117 0.03658893 -0.33883116 -0.05478235 0.35389912
-0.03886726 0.09508497 -0.50000244 -0.13676044 -0.58343095 -0.21566111 0.2898852 0.035786625
-0.24099109 0.01016557 -0.042975754 -0.22706804 0.004162704 -0.06985337 -0.30634454 -0.07245339
-0.086445555 -0.5008713 -0.13742597 -0.07371483 0.42119214 0.36941397 0.068119034 -0.44485772
0.11436224 0.010607519 -0.20997615 0.19821392 0.24433799 0.094505765 0.19243951 0.030256145
-0.43789074 0.19878805 -0.45461923 0.010062729 -0.34120077 0.052348956 0.19599615 0.24231368
0.1883693 0.18492 0.22787896 0.4445696 0.04567435 -0.15436123 -0.074451745 0.51093584
0.048371647 0.43057317 0.7586491 0.5382428 0.18804145 0.13287522 -0.002459347 0.37043
-0.2999216 -0.03156763 0.052864183 -0.5942438 0.06331547 -0.06038332 0.2978358 0.13095638
0.113209665 -0.4398464 -0.06584313 -0.5851297 0.21583927 -0.14218803 -0.17380817 -0.12852713
-0.62016624 0.117826484 0.03200466 0.25839138 0.35372838 -0.26732382 0.43719694 -0.1790262
-0.15564747 -0.056915928 0.041839443 -0.07291202 0.26745355 -0.16811873 0.1419198 -0.2548584
-0.4413464 0.2515362 0.039451517 -0.025389906 0.068409525 -0.17978045 -0.2651769 0.09074943
-0.14883982 -0.04269837 0.28338817 -0.12241113 0.72381294 0.31362584 0.3268543 -0.0957687
0.31992 0.24177055 -0.29782146 0.13959825 -0.1383509 -0.29899594 0.15213217 0.18097048
0.28137824 -0.15234005 0.16569082 -0.31700492 0.13170728 0.006744745 0.025871992 -0.43536794
-0.038680434 0.16813858 -0.072179064 -0.07965862 -0.31293836 0.114746295 0.15950543 0.26882342
-0.37676477 0.1393134 0.15192111 -0.08564128 0.0567511 0.13752834 0.17033008 -0.19543774
0.0070568975 0.056452017 0.14648566 0.3466975 0.10725033 0.31220305 -0.30354184 -0.15004426
-0.3018509 0.015810238 0.070395194 0.11208352 0.008832408 0.18530613 0.21257482 -0.08649677
0.063505456 -0.039508473 -0.72607017 -0.20125435 -0.32852477 0.09041209 0.08010616 -0.08250691
0.007003323 0.13438593 0.060347337 0.27572015 0.30030736 -0.46996024 0.22334288 0.33760166
-0.48997948 0.16189769 0.029917458 -0.27098173 -0.056991268 0.17183644 -0.39377993 -0.4966918
0.44539502 0.48547867 -0.10476767 0.29616123 -0.2014538 0.09822483 -0.002488542 0.11495773
0.2661318 0.38627246 0.02210265 -0.040507402 -0.40096036 0.3307252 -0.28270656 -0.18660416
0.5035071 0.1335848 0.2726119 -0.37143868 -0.10709386 -0.03945679 0.1860266 0.26580915
00000000: 05a8 6f3d dee7 c7be e975 dd3d fbd5 12bf
00000010: c4fc 90be 4444 67be 0ce9 863e 8364 dfbd
00000020: 8cde bfbd 432f 343e c2a1 6c3d 03f4 80bd
00000030: d31d d93e c175 aebe 408e c43e dc4e 5ebe
00000040: 1a10 e83b ca07 003f 4aba 21bc 1412 b0be
00000050: fa26 ac3e dee3 45bd e33b 1ebf c41a d93e
00000060: 9332 4ebc c7ec 563e 8136 10be a40e 0d3f
00000070: cbea bb3e 9e14 05be 104b 663c 692f 79be
00000080: 9e7a c73e 1b4d 02be 7100 9d3e 18a4 19bd
00000090: 2efd f13c d3c6 8dbe e3a0 963e 94cc d93e
000000a0: 7f93 e5be 9f97 aa3d 5458 83be abb3 823d
000000b0: 9a0e eabe fa9d e33d adc0 d63e ceec 3cbe
000000c0: b179 033e fd84 573e 7e76 0dbe 0514 01bf
000000d0: 46de 153d 477b adbe 7563 60bd 4432 b53e
000000e0: 4733 1fbd e9bb c23d 2900 00bf ee0a 0cbe
000000f0: bb5b 15bf 44d6 5cbe d56b 943e ff94 123d
00000100: 5ec6 76be 7e8d 263c 5807 30bd 8684 68be
00000110: 4b67 883b 490f 8fbd 31d9 9cbe 7162 94bd
00000120: 5e0a b1bd 1a39 00bf 65b9 0cbe cdf7 96bd
00000130: 7fa6 d73e d423 bd3e fe81 8b3d 64c4 e3be
00000140: c036 ea3d 29cb 2d3c fd03 57be 97f8 4a3e
00000150: bd33 7a3e 3d8c c13d dd0e 453e bcdb f73c
00000160: 3733 e0be 188f 4b3e dac3 e8be 25de 243c
00000170: deb1 aebe dc6b 563d 37b3 483e 1421 783e
00000180: e2e3 403e ab5b 3d3e 1a59 693e a09e e33e
00000190: 0715 3b3d df10 1ebe 287a 98bd b1cc 023f
000001a0: 5921 463d 1674 dc3e d436 423f 48ca 093f
000001b0: f08d 403e 7110 083e ff2c 21bb 00a9 bd3e
000001c0: 538f 99be 0f4d 01bd 1d88 583d 5d20 18bf
000001d0: 8bab 813d 8054 77bd ef7d 983e 6e19 063e
000001e0: 78da e73d 8c33 e1be c3d8 86bd 0fcb 15bf
000001f0: f804 5d3e bd99 11be c5fa 31be 9e9c 03be
00000200: 37c3 1ebf 034f f13d 5217 033d e04b 843e
00000210: e31b b53e abde 88be 47d8 df3e a552 37be
00000220: 0d62 1fbe ad20 69bd d65f 2b3d e652 95bd
00000230: acef 883e 5127 2cbe 6d53 113e cd7c 82be
00000240: 28f8 e1be 5ac9 803e ea97 213d 7efe cfbc
00000250: 4b1a 8c3d 5e18 38be 44c5 87be d6da b93d
00000260: 7769 18be 7ce4 2ebd 4118 913e b0b2 fabd
00000270: ce4b 393f 9193 a03e 7259 a73e 6122 c4bd
00000280: 8ecc a33e b392 773e 0e7c 98be d8f2 0e3e
00000290: dcab 0dbe ff15 99be 89c8 1b3e 5350 393e
000002a0: cf10 903e 08ff 1bbe dbaa 293e 784e a2be
000002b0: 46de 063e 0603 dd3b 80f1 d33c 8ce8 debe
000002c0: 606f 1ebd 852c 2c3e 9ed2 93bd 0f24 a3bd
000002d0: 7539 a0be 1b00 eb3d 6455 233e 39a3 893e
000002e0: 50e7 c0be 2ca8 0e3e 3591 1b3e b264 afbd
000002f0: d773 683d 3bd4 0c3e 026b 2e3e d520 48be
00000300: 8c3d e73b 3b3a 673d 5600 163e 5682 b13e
00000310: 10a6 db3d 14d9 9f3e d669 9bbe 34a5 19be
00000320: 338c 9abe 7984 813c 5b2b 903d 0b8c e53d
00000330: ceb5 103c e4c0 3d3e 37ad 593e 3825 b1bd
00000340: 260f 823d a3d3 21bd bcdf 39bf 9f15 4ebe
00000350: 6634 a8be f929 b93d b30e a43d 62f9 a8bd
00000360: 227c e53b 779c 093e c52e 773d 312b 8d3e
00000370: e3c1 993e a19e f0be ffb3 643e 20da ac3e
00000380: 97de fabe 82c8 253e 7515 f53c 1ebe 8abe
00000390: ad6f 69bd e4f5 2f3e 869d c9be 634e febe
000003a0: d10a e43e a990 f83e 6f90 d6bd 72a2 973e
000003b0: e849 4ebe 1a2a c93d cf16 23bb f56e eb3d
000003c0: 6d42 883e 81c5 c53e 9e10 b53c 17eb 25bd
000003d0: ad4a cdbe d054 a93e eabe 90be 2915 3fbe
000003e0: d7e5 003f 74ca 083e c993 8b3e 362d bebe
000003f0: 0754 dbbd 719d 21bd c27d 3e3e 2318 883e

bias_ih_l0_reverse f4 [280]
-0.32537133 -0.07538057 -0.09479957 -0.13466497 -0.08465863 -0.41440284 -0.18180446 -0.054559346
-0.3834934 -0.21237011 -0.16643445 -0.39043504 -0.2267958 -0.3334039 -0.24863167 -0.15415978
0.055126518 -0.16640075 -0.181402 -0.25090128 -0.032463465 -0.42259693 -0.2571949 -0.28837252
-0.13190876 -0.23873067 0.15272586 -0.38637954 -0.47777933 -0.08518832 -0.17500007 -0.17905529
-0.2611869 -0.2559392 -0.41656637 -0.103510045 -0.22969098 -0.18895772 -0.042860873 -0.12394337
-0.40356 0.16746616 -0.25356373 -0.22188637 0.4385193 -0.19328275 -0.1015712 -0.41109687
-0.40834692 -0.11244483 0.022649793 0.043157168 -0.18459903 -0.07646804 -0.454917 -0.015395196
-0.043497734 -0.049228888 -0.16312648 0.03445112 0.33176664 -0.045431197 0.016007556 -0.40331227
-0.1569618 -0.406049 -0.24201353 -0.2235434 -0.25465503 -0.3652754 0.36969432 -0.109359324
0.29050702 0.012977651 -0.2780364 0.31784177 0.07102472 -0.015556218 -0.016086766 0.3681373
-0.040994573 0.28532338 0.16516414 -0.12676989 -0.15412147 0.25814402 -0.19105557 -0.062453717
0.11780973 0.30728462 0.023468299 0.2061911 -0.073333055 0.15343241 -0.092960514 0.38576847
0.061258283 0.36761108 0.19095758 0.4710712 0.03490422 0.18213809 0.19675235 0.10861491
0.058997896 0.07908487 0.15306683 0.24943312 0.37125662 -0.13593176 0.27697682 0.019412575
-0.007100254 -0.002358354 -0.15040104 -0.22618179 0.40723935 0.4367737 0.11125149 0.20448525
-0.19911975 0.17619547 -0.1636438 0.14579347 -0.107062325 -0.008627648 0.019432392 -0.06770367
0.35585272 0.3912775 0.06121165 -0.040688224 0.02069254 0.060413316 0.3250743 0.2452881
0.13075851 -0.06857539 0.43024558 -0.15081501 0.108181976 0.093676694 0.031473417 -0.05568002
0.15434402 -0.04842487 -0.10114152 0.10925843 0.0673704 -0.0031715254 -0.078271136 -0.010127954
0.102184094 -0.113112 0.032947224 0.022919293 0.036177836 0.16016942 -0.04354784 -0.026194282
0.056588676 0.11158004 -0.028666599 0.04802704 0.04008486 0.120684676 -0.053772032 -0.09092663
-0.018616041 -0.009804461 -0.0012088065 -0.13860953 -0.14024144 0.20130037 0.030993687 -0.027542396
-0.0043732137 0.0026554489 -0.14083892 0.26395196 -0.11237297 -0.022277758 -0.12035995 -0.2165105
0.09214622 -0.06682812 -0.07207961 0.060274724 -0.116307534 -0.030036699 -0.1955216 -0.04590985
0.09383617 0.07821111 -0.043912936 -0.06336061 -0.03445773 -0.0143514555 0.17134055 -0.16988713
-0.05422713 0.09303094 -0.17374735 -0.03427393 -0.08808961 0.060394146 0.1182713 -0.016003232
-0.022360504 0.15322924 -0.13564551 -0.0066341264 -0.044665582 -0.14371635 -0.108472414 -0.070861846
-0.02787446 0.03631493 -0.26335293 -0.16492026 -0.0014974652 -0.019877004 -0.09007846 -0.08901126
-0.29388666 0.13601455 0.24511814 -0.221985 0.47561362 -0.028082494 -0.11459965 -0.001910889
-0.22112785 -0.18698382 -0.27108806 -0.31448802 -0.03767959 0.055340845 -0.23268399 0.052562002
-0.29278994 -0.13095787 -0.12858947 -0.05048895 -0.014241882 0.08166611 -0.13311297 -0.09115025
-0.11358578 -0.10100811 -0.2492878 0.50674576 0.07711959 -0.072133705 0.4162087 0.03279806
00000000: 1297 a6be 2161 9abd 4726 c2bd 9de5 09be
00000010: 8161 adbd 9c2c d4be f32a 3abe 9f79 5fbd
00000020: 3f59 c4be 8d77 59be cb6d 2abe 1ae7 c7be
00000030: 283d 68be eab3 aabe 4d99 7ebe 10dc 1dbe
00000040: 58cc 613d f564 2abe 72c1 39be 2276 80be
00000050: 69f8 04bd a05e d8be 0daf 83be 90a5 93be
00000060: 1713 07be d075 74be 2b64 1c3e 8ad3 c5be
00000070: 7e9f f4be 3777 aebd 3833 33be 455a 37be
00000080: 4aba 85be 760a 83be 3048 d5be 13fd d3bd
00000090: 1d34 6bbe 227e 41be e28e 2fbd 06d6 fdbd
000000a0: 6b9f cebe 407c 2b3e 1bd3 81be 2e36 63be
000000b0: 9a85 e03e eaeb 45be 9004 d0bd 4a7b d2be
000000c0: d912 d1be 7a49 e6bd 0f8c b93c 92c5 303d
000000d0: 8707 3dbe 479b 9cbd e2ea e8be 223c 7cbc
000000e0: ae2a 32bd 3ba4 49bd a10a 27be 9e1c 0d3d
000000f0: 51dd a93e 1016 3abd 4722 833c f27e cebe
00000100: 98ba 20be a8e5 cfbe 65d2 77be 90e8 64be
00000110: 2562 82be 6105 bbbe 9348 bd3e c8f7 dfbd
00000120: 56bd 943e 37a0 543c c95a 8ebe 28bc a23e
00000130: 6975 913d 82df 7ebc 65c8 83bc 7e7c bc3e
00000140: ede9 27bd e815 923e ca20 293e f7cf 01be
00000150: 05d2 1dbe 742b 843e 12a4 43be 78cf 7fbd
00000160: 3a46 f13d 6954 9d3e 9740 c03c c223 533e
00000170: a42f 96bd 631d 1d3e 1562 bebd 7283 c53e
00000180: f7e9 7a3d 8537 bc3e 628a 433e 3f30 f13e
00000190: baf7 0e3d 6882 3a3e 7379 493e 7e71 de3d
000001a0: c7a7 713d 40f7 a13d 8dbd 1c3e 656b 7f3e
000001b0: 5915 be3e b231 0bbe e8cf 8d3e 1f07 9f3c
000001c0: 3fa9 e8bb 9d8e 1abb bb02 1abe 339c 67be
000001d0: ad81 d03e cda0 df3e d2d7 e33d 9564 513e
000001e0: 0ce6 4bbe 966c 343e 3e92 27be e24a 153e
000001f0: 7e43 dbbd fb5a 0dbc ae30 9f3c 39a8 8abd
00000200: 5432 b63e 8655 c83e 11b9 7a3d b2a8 26bd
00000210: 6783 a93c f473 773d 2370 a63e ce2c 7b3e
00000220: 8fe5 053e 4171 8cbd 2649 dc3e 406f 1abe
00000230: 838e dd3d 91d9 bf3d 45ea 003d bc10 64bd
00000240: 5c0c 1e3e 2859 46bd 4923 cfbd e2c2 df3d
00000250: 7ef9 893d 5ed9 4fbb 9e4c a0bd b8ef 25bc
00000260: e545 d13d 44a7 e7bd abf3 063d 3ec1 bb3c
00000270: 362f 143d 7403 243e 385f 32bd 6495 d6bc
00000280: 87c9 673d 1384 e43d 37d6 eabc 00b8 443d
00000290: 0630 243d 8729 f73d 1040 5cbd be37 babd
000002a0: ab80 98bc e4a2 20bc d170 9eba a8ef 0dbe
000002b0: 749b 0fbe af21 4e3e 79e6 fd3c 97a0 e1bc
000002c0: 2d4d 8fbb 0a07 2e3b 1438 10be b624 873e
000002d0: cd23 e6bd d87f b6bc 477f f6bd eeb4 5dbe
000002e0: 28b7 bc3d 2edd 88bd 799e 93bd a1e2 763d
000002f0: a532 eebd 860f f6bc d036 48be f80b 3cbd
00000300: 2e2d c03d 252d a03d 0dde 33bd 35c3 81bd
00000310: 8c23 0dbd 5e22 6bbc e673 2f3e e4f6 2dbe
00000320: 441d 5ebd 0187 be3d d3ea 31be d262 0cbd
00000330: 5368 b4bd da5f 773d 3938 f23d 3619 83bc
00000340: 602d b7bc 20e8 1c3e a8e6 0abe 1663 d9bb
00000350: 42f3 36bd 612a 13be c926 debd 0420 91bd
00000360: fb58 e4bc f7be 143d 32d6 86be dbe0 28be
00000370: 9846 c4ba 19d5 a2bc 0e7b b8bd 894b b6bd
00000380: 5078 96be 6647 0b3e 4000 7b3e 0950 63be
00000390: a183 f33e 420d e6bc 39b3 eabd cc76 faba
000003a0: 576f 62be b078 3fbe 0ecc 8abe 9304 a1be
000003b0: ea55 1abd 15ad 623d b644 6ebe 414b 573d
000003c0: 90e8 95be d219 06be f5ac 03be 80cd 4ebd
000003d0: c856 69bc 9040 a73d c44e 08be fbac babd
000003e0: a99f e8bd 57dd cebd 4d45 7fbe 17ba 013f
000003f0: e0f0 9d3d d6ba 93bd 4f19 d53e 4257 063d

bias_hh_l0_reverse f4 [280]
-0.182749 -0.24896075 -0.10345404 -0.20229782 -0.23633799 -0.3701326 -0.125025 -0.16664183
-0.31936672 -0.33039844 -0.09073927 -0.21748823 -0.28439045 -0.30772105 -0.2165374 -0.21722597
0.13288724 -0.13925138 0.040101983 -0.26737204 -0.12698278 -0.32038337 -0.21502936 -0.31422016
-0.27641046 -0.41649443 -0.047289677 -0.38616794 -0.37607 -0.2110687 -0.28700855 0.036039203
-0.36500135 -0.20442092 -0.40424174 -0.14224316 -0.29679647 -0.16152865 -0.24568792 -0.124931596
-0.3368553 0.18177511 -0.23194835 -0.11275278 0.36298734 -0.13895422 -0.04929957 -0.20965745
-0.31024697 -0.15534429 0.14961463 -0.14867005 -0.16484547 -0.028560536 -0.34108692 -0.096398525
0.072122335 -0.14602245 -0.26351708 0.024885641 0.25618902 -0.050076574 -0.029502474 -0.35879558
-0.17399809 -0.42050034 -0.14442177 -0.18955472 -0.22646447 -0.28051654 0.21419069 -0.14964028
0.17258559 -0.009440119 -0.10535565 0.37370214 0.006982729 -0.089743994 0.122738875 0.18081729
0.049342956 0.3160225 0.229707 -0.056482766 -0.07228892 0.28017986 -0.18725805 0.058753
0.07078235 0.28169376 0.07775875 0.31780964 0.06816328 0.18359552 -0.07098325 0.3423772
0.1937811 0.21466188 0.22983779 0.47422168 0.105791934 0.20980482 0.36354586 0.15283026
0.09657265 0.19652082 0.27566206 0.085219115 0.28632313 0.022725474 0.22035968 -0.078302816
-0.06941415 0.13292004 -0.09065958 -0.05715813 0.3324564 0.36330435 0.12577355 0.2164365
-0.056993634 -0.025328 -0.03086902 0.1830942 -0.095085114 0.063720055 0.15957071 -0.13480423
0.45201388 0.40201724 0.0063819294 0.16342199 -0.06864672 0.13948926 0.4440375 0.06490505
0.18104239 0.094818376 0.34312832 -0.039913096 0.0011296635 0.022773277 -0.1335686 -0.13897122
0.19993785 0.035412557 -0.10071216 0.09116194 0.04865025 0.041315656 0.05413782 0.039989416
0.04722102 -0.0049916995 0.14726725 -0.09030078 0.02296365 0.038298093 0.008318864 0.0012044564
-0.034085616 -0.027556049 -0.13138914 0.13527007 0.10455695 0.06621274 0.076703936 -0.110664174
-0.013180538 0.06580647 0.12269356 -0.25436348 0.070875764 0.13790245 -0.071052104 0.08872033
-0.0028097762 -0.01026603 -0.114485785 0.12272338 0.06627846 -0.00096170104 -0.15474038 -0.19886093
-0.02844274 -0.02003162 -0.098225735 0.034042988 -0.033950932 0.12633124 -0.21196906 0.07266316
0.15068862 -0.031002728 -0.22561193 0.0042206906 -0.07845868 0.042424582 0.052971452 -0.111831106
-0.083691604 0.03215636 -0.16364886 0.032614693 0.024714705 0.16180634 0.10016455 -0.018665094
0.02336597 0.20703173 -0.065179385 0.038278487 -0.10228803 0.010630323 0.022813667 -0.0797932
-0.15408613 0.08995116 -0.25608933 -0.009555776 -0.0889761 -0.16547568 -0.06772017 -0.065220065
-0.21869607 0.11035551 0.30844766 -0.316717 0.4253407 0.03197299 -0.061369974 0.116713755
-0.13638328 -0.20046076 -0.22601405 -0.23082986 -0.06253345 0.025961043 -0.14339624 0.06858661
-0.21858852 -0.160759 -0.08850802 0.0932998 -0.019781977 0.05292336 -0.17701703 -0.061316315
-0.21626836 -0.13652308 -0.20530364 0.40491155 0.07948086 -0.07827719 0.40115774 -0.021995079
00000000: 8e22 3bbe 91ef 7ebe b6df d3bd 2927 4fbe
00000010: 9602 72be 0582 bdbe 8e06 00be 28a4 2abe
00000020: 0984 a3be fc29 a9be 83d5 b9bd 3cb5 5ebe
00000030: a09b 91be 9d8d 9dbe fbbb 5dbe 7c70 5ebe
00000040: 9813 083e ea97 0ebe fa41 243d fde4 88be
00000050: c607 02be 4a09 a4be a830 5cbe 77e1 a0be
00000060: ac85 8dbe c23e d5be d2b2 41bd ceb7 c5be
00000070: 3f8c c0be 6522 58be c9f2 92be d89d 133d
00000080: 75e1 babe b853 51be c6f8 cebe 31a8 11be
00000090: b5f5 97be c467 25be 9d95 7bbe 23dc ffbd
000000a0: 4c78 acbe 4123 3a3e de83 6dbe eeea e6bd
000000b0: 7ad9 b93e 044a 0ebe 59ee 49bd 71b0 56be
000000c0: b1d8 9ebe 9312 1fbe 9434 193e f63c 18be
000000d0: 40cd 28be c9f7 e9bc f2a2 aebe 976c c5bd
000000e0: e0b4 933d e986 15be b6eb 86be f9dc cb3c
000000f0: 352b 833e 181d 4dbd 2caf f1bc 0eb4 b7be
00000100: 8e2c 32be d24b d7be 4de3 13be a21a 42be
00000110: 4de6 67be dd9f 8fbe ce54 5b3e 4d3b 19be
00000120: 47ba 303e bbaa 1abc b4c4 d7bd e355 bf3e
00000130: 60cf e43b b3cb b7bd 855e fb3d 2b28 393e
00000140: d71b 4a3d b3cd a13e 5038 6b3e 795a 67bd
00000150: 370c 94bd bc73 8f3e 93c0 3fbe fca6 703d
00000160: 56f6 903d 2a3a 903e fb3f 9f3d f2b7 a23e
00000170: 3199 8b3d 7700 3c3e ab5f 91bd 104c af3e
00000180: 8d6e 463e 53d0 5b3e 995a 6b3e 2fcd f23e
00000190: 71a9 d83d 13d7 563e af22 ba3e 897f 1c3e
000001a0: e2c7 c53d c13c 493e 9423 8d3e 5c87 ae3d
000001b0: f298 923e c62a ba3c f8a5 613e 3a5d a0bd
000001c0: 0229 8ebd 311c 083e bbab b9bd a51e 6abd
000001d0: ba37 aa3e 0703 ba3e c8ca 003e 88a1 5d3e
000001e0: 2872 69bd aa7c cfbc 07e1 fcbc 0c7d 3b3e
000001f0: fcbb c2bd a97f 823d 8166 233e 1f0a 0abe
00000200: 5d6e e73e 34d5 cd3e 811f d13b 1858 273e
00000210: a796 8cbd 46d6 0e3e e258 e33e f0ec 843d
00000220: 2d63 393e 2330 c23d 84ae af3e ea7b 23bd
00000230: 3811 943a 068f ba3c 35c6 08be 794e 0ebe
00000240: 82bc 4c3e c20c 113d 2d42 cebd 1cb3 ba3d
00000250: 7c45 473d 9b3a 293d 9ebf 5d3d f1cb 233d
00000260: d46a 413d 6991 a3bb 3acd 163e 9eef b8bd
00000270: 441e bc3c 76de 1c3d d84b 083c dade 9d3a
00000280: 5c9d 0bbd 39bd e1bc e08a 06be 3d84 0a3e
00000290: f421 d63d 8c9a 873d f416 9d3d e6a3 e2bd
000002a0: 2ff3 57bc 8bc5 863d c346 fb3d ee3b 82be
000002b0: 5027 913d 4d36 0d3e c483 91bd 01b3 b53d
000002c0: 3924 38bb da32 28bc 8677 eabd 6556 fb3d
000002d0: 00bd 873d aa1a 7cba 4374 1ebe 33a2 4bbe
000002e0: c000 e9bc 5a19 a4bc 932a c9bd a970 0b3d
000002f0: 2210 0bbd fa5c 013e 6b0e 59be 6cd0 943d
00000300: 1e4e 1a3e 6ff9 fdbc d006 67be b84d 8a3b
00000310: f2ae a0bd 66c5 2d3d 98f8 583d b507 e5bd
00000320: 8166 abbd 63b6 033d 9193 27be fc96 053d
00000330: 7e76 ca3c 90b0 253e 1223 cd3d 8ae7 98bc
00000340: fe69 bf3c 2000 543e c57c 85bd e7c9 1c3d
00000350: 637c d1bd ce2a 2e3c bae3 ba3c 9e6a a3bd
00000360: c1c8 1dbe 5038 b83d 241e 83be d48f 1cbc
00000370: 1a39 b6bd 7572 29be dfb0 8abd 1992 85bd
00000380: ddf1 5fbe 1202 e23d daec 9d3e bb28 a2be
00000390: 42c6 d93e 1cf6 023d 155f 7bbd 9f07 ef3d
000003a0: 0fa8 0bbe 9645 4dbe 3a70 67be aa5e 6cbe
000003b0: 8a11 80bd 41ac d43c 77d6 12be 2377 8c3d
000003c0: abd5 5fbe 029e 24be b143 b5bd f713 bf3d
000003d0: d00d a2bc 2ac6 583d f443 35be d126 7bbd
000003e0: 7475 5dbe b5cc 0bbe 1e3b 52be 9150 cf3e
000003f0: dcc6 a23d cb4f a0bd 8c64 cd3e 062f b4bc
