Models/Norm_95 models (Feb)/norm_95_max(10.02).pth (torch, 481362 bytes, 26 tensors)

weight_ih_l0 f4 [180, 5]
00000000: 2f59 57bd 3dd3 d7bc 0397 35be 34d5 c1bd
00000010: 505d 85bd 6d2a 9ebc 5c2b e43c b067 94ba
00000020: 5771 453e 2f60 693d 249c 3a3e 5923 5e3c
00000030: c45f 04bf eb83 2f3e 4c92 1b3e a35c a8bd
00000040: 7770 06bd 7eb9 5bbe cf0b 153e 2824 a13b
00000050: 9b7d d33d f728 413e df2c 183f 307e aa3d
00000060: 3795 32bd 72c0 043d 8d10 19bd 2c41 17bf
00000070: c617 ed3d d366 683e 02b6 71bd b7ea 413c
00000080: eacc 8f3e 72e8 353f 2849 9cbe 6f36 833d
00000090: a502 66bc 1bd1 00bf 7b07 3dbd 6f4a 3b3e
000000a0: 5385 e0bd 405a edbd cf3f 50be 3973 f13d
000000b0: aa4d 9d3e 816a c93c b317 b23c 25c9 c1be
000000c0: e5f7 b23d da50 4c3e d408 aabc e296 6fbd
000000d0: e9d5 2cbf 57d3 5d3e 0c57 0abd c7a5 9b3b
000000e0: e316 debd 5aaa 123d f2c7 debd ce80 4c3e
000000f0: 6317 8b3d f744 cdbb 5544 e8be 00a3 023e
00000100: 9009 ec3d 8ebd b2bc 1c87 7c3c 51bd 1fbf
00000110: 9ef6 233f 1b52 c23c c9d5 10be cd06 803d
00000120: 2adb 02bd f489 10be dc63 95bc 5d5d ca3d
00000130: e815 bfbd 6c98 cd3d c267 eebd 911e bc3d
00000140: afcd 093e acf7 933d 717b 0f3f ec12 2a3f
00000150: e5d3 813d 8b2c ac3c fad4 ce3d 45ed d53e
00000160: 79fd 763d 3aad b33d 3a49 5abe 0e38 10be
00000170: 7f2a 053c 7e56 c73d 29ab a63e 4656 653e
00000180: ae9d ebbd dcdb a13e fa1c e83e 33c0 dfbe
00000190: 8f0e b63d 67bb 35bc 2e7f 1dbe ca28 2c3d
000001a0: be9c e73d afb0 6cbc 437c 8b3d b328 be3d
000001b0: 624d 8e3e 34bd 803d c238 d33d 55d7 bdbd
000001c0: e932 28be 4c03 773e 79f7 763c 5e47 c4bd
000001d0: f34f 8dbd 2858 bdbe acd0 72bd 8a7d 253e
000001e0: 13f6 5a3d 82a1 7abc b382 563e 5671 ddbc
000001f0: 6e64 f33d 79c2 173e 4b30 743d 8e23 a3be
00000200: c2d2 91bd 920f 263e 6bc2 e83d 9657 7fbd
00000210: 623a 8f3c 2dcb 3dbe e399 0d3d e41f 2b3e
00000220: fbaf 3cbd 2790 8abc d53c b6bd 849e 813e
00000230: 7032 863d cae5 98bd fb92 c2be 399a 1fbe
00000240: ef50 dfbd 6f5f 0d3e 597f 0d3d eb4d 64bf
00000250: 4fbb 14be 2831 85be 85b4 81bb 2cb3 f4bb
00000260: d74b 3dbf 3956 f73d 4550 bd3e 53ff cebd
00000270: ae63 7abd 8b25 2e3f 2b67 d43e b0d7 67bd
00000280: 4eb2 f13d 0a8f 3cbe 71d1 0c3e 7041 d8be
00000290: 5bc9 023e 1591 cabd b482 423d 540a 7abd
000002a0: 3337 713d 3564 fdbd c0b7 a5bc 467d 10be
000002b0: a2c7 76be ecd2 8e3b 6ce1 d6be 8893 76bd
000002c0: 8238 8dbd 4c1f e4be e441 593e fb5e 69be
000002d0: 485f e03d 2e57 a0bd 66fc 3d3e 8386 02be
000002e0: c8e0 9b3e ba20 a73c d950 69bd 21d3 843d
000002f0: eb66 27be a794 0a3e 0329 8d3d d5ab 44be
00000300: 6d64 c1bd b972 0cbe 80d8 0f3d 88e9 b9bc
00000310: bc2d a3bd 5304 cbbb 57cb 983e 67ad 20bb
00000320: 4780 a53d c3cb b13d dc29 dd3e a131 b73d
00000330: e752 183d 0365 1ebb 26d5 c53d 9c55 d9be
00000340: dcc7 95bc 8803 0b3e 1c94 c4bd d4c6 91bd
00000350: 802f 4fbe f081 f83c f671 adbe d5ce 503d
00000360: 3355 90bc 92a9 0a3e 3f80 8b3e 4fbe 84bf
00000370: e42a 303d f351 58bd 04bb b3bd 76a9 f03d
00000380: 66ca 653d 2eb4 013d 995b 64be b564 35bd
00000390: ed8d 48be 5da1 dd3b 54c9 3ebd 206c 323d
000003a0: 6fe3 ee3e 403e b23e bb46 e83c 6170 9ebb
000003b0: a8c6 913d c290 8ebd ce84 043e 7d9e 6a3e
000003c0: 5234 5e3d 60de e83d 4f36 913e 78c2 8b3e
000003d0: 72f5 bc3d 9dad 773b 8964 1dbe ce0e 96bd
000003e0: 2a96 c2bc 21d0 653e aac4 8f3c 147e d93d
000003f0: d3e2 493d 0077 83be 3c9b a03d 8971 e0bd
-0.052575286 -0.026345843 -0.17733388 -0.094644934 -0.065119386 -0.01930734 0.027852707 -0.0011322405
0.19281517 0.056976493 0.18223625 0.013558232 -0.51708627 0.17140166 0.15192527 -0.08220794
-0.0328221 -0.21457478 0.14555286 0.0049176402 0.10326692 0.18863283 0.5944347 0.083248496
-0.043599334 0.032410093 -0.0373693 -0.5908382 0.115768 0.22695474 -0.059011467 0.011835746
0.28086025 0.7105781 -0.30524564 0.06406867 -0.014038716 -0.5031907 -0.046149712 0.18290113
-0.109629296 -0.115894794 -0.20336841 0.11789555 0.30723315 0.024586918 0.021739816 -0.37848774
0.087386884 0.19952717 -0.020756163 -0.058493502 -0.675139 0.21662651 -0.03377442 0.004749987
-0.10844209 0.03580699 -0.1087798 0.1997101 0.0679157 -0.0062643248 -0.45364633 0.12757492
0.115252614 -0.021818902 0.015413072 -0.6239825 0.6404818 0.023720792 -0.14144053 0.06251297
-0.031947292 -0.14115125 -0.018236093 0.09881089 -0.0933035 0.10038838 -0.11640884 0.091855176
0.13457368 0.07224974 0.5604773 0.6643512 0.06339244 0.021017333 0.10099216 0.41782585
0.060300324 0.08773275 -0.21316996 -0.14083883 0.008127808 0.09733294 0.3255246 0.22396192
-0.115046844 0.31613052 0.45334607 -0.43701324 0.088894956 -0.0110920435 -0.15380546 0.042031087
0.11309193 -0.0144464215 0.068108104 0.092851065 0.27793413 0.06286088 0.1031356 -0.09269587
-0.1642567 0.24122351 0.0150736505 -0.09583925 -0.06900015 -0.3698132 -0.059281036 0.1616117
0.05345733 -0.0152972955 0.20948295 -0.027031582 0.1188439 0.14820279 0.05961637 -0.31863064
-0.07120277 0.16216877 0.11365207 -0.062339388 0.017483894 -0.18534537 0.034570586 0.16711384
-0.046066266 -0.01691444 -0.088983215 0.2531625 0.06552589 -0.07465704 -0.38002762 -0.15586175
-0.10904109 0.13805936 0.034545276 -0.89181393 -0.14524578 -0.26014066 -0.003958287 -0.007467648
-0.7394385 0.120769925 0.36975303 -0.10107293 -0.06113022 0.68026036 0.4148496 -0.05660218
0.11801587 -0.1841394 0.1375177 -0.42237425 0.12772124 -0.098909535 0.04748793 -0.061045006
0.058890533 -0.123726286 -0.02022922 -0.14110288 -0.24099591 0.00435864 -0.41968858 -0.06019929
-0.06895544 -0.44555128 0.21216542 -0.22790138 0.109556735 -0.07829128 0.18553314 -0.12746625
0.30444932 0.020401347 -0.056961868 0.06485582 -0.16347854 0.13533269 0.06892588 -0.19206174
-0.09442983 -0.13715638 0.03511858 -0.022694364 -0.079677075 -0.006195584 0.29842636 -0.0024517418
0.080811076 0.086814426 0.43196 0.08945013 0.037188437 -0.0024169094 0.096597955 -0.42448127
-0.018283777 0.13575566 -0.09598562 -0.071180016 -0.20232964 0.030335397 -0.33876008 0.0509785
-0.017618751 0.13541248 0.27246282 -1.0370578 0.043009654 -0.052812528 -0.08775905 0.11751072
0.056101225 0.031665973 -0.22300567 -0.044285495 -0.1958539 0.006763621 -0.04657872 0.043560147
0.46657893 0.34813118 0.02835404 -0.004835174 0.07117969 -0.06961204 0.12941286 0.22912021
0.054249115 0.1137054 0.28361747 0.27296805 0.092265025 0.003779269 -0.15370382 -0.073270425
-0.023753244 0.22442676 0.017549831 0.106197506 0.049288582 -0.25676727 0.078421086 -0.10959155

weight_hh_l0 f4 [180, 45]
00000000: 40b8 25be 78a0 aabe 0f0d 963e cb71 9fbe
00000010: 43a4 783d 1b7c 473d 187e 02bf 70fe 96bd
00000020: db51 b6be cbcf e33e 37d5 40be 9b56 873d
00000030: 1520 a23e 8873 9abe 6df3 753e f9bf 6cbe
00000040: e6d3 113e 79df 823d b727 a3be 00ec 3f3e
00000050: 60d3 643e 96c7 093e eda5 333e 5ea9 eabe
00000060: a045 e1bd 49bd eabe 3802 4bbe da66 4dbe
00000070: 15bf adbc 6434 ae3a 4481 143e cdab 1a3f
00000080: 5dc5 37be e371 65bd 6b85 ba3e bbb0 3f3d
00000090: 5db4 05be b28c 04bd 1a5d 133e 2c8b 7fbe
000000a0: 1130 18be e245 243d f37d 813a c761 4a3e
000000b0: da60 d73e 9926 37be 854d 5f3d 7790 2cbd
000000c0: fb34 133e bc06 3dbe 28f3 87bd 6011 b4bd
000000d0: 8e19 a0be 1230 fa3d ee3a 31be 1028 4d3c
000000e0: c569 5fbe 4fe9 6bbd fd92 ff3d 7908 22be
000000f0: dfae 3c3e d205 ad3e 307b 293e ced2 5ebe
00000100: ab45 6abe b1fb b1bd f061 0a3e 547f 1dbe
00000110: 4d3e d7bd 37a5 383c 2a79 3d3e d3a1 ae3d
00000120: ec1c 4dbd 743a e2bd 7e9e a03d ac03 aabe
00000130: 49bc 49be 1897 4ebd f40f 23be a789 1fbd
00000140: 7a90 d0bd bf6e e5bd 7f3c 73bc dd6e ccbd
00000150: 4655 773e d3f6 aa3e 69ef 90be 4b38 6b3e
00000160: 5f95 883d 7045 acbd d1bd 173c f38f 37bd
00000170: 4a9e 063b dda7 54be 8fc8 1abe e541 2dbd
00000180: f9e0 83be 8ada 88bb f066 c9be 21c2 ab3e
00000190: 62b4 5ebd 5463 333e 99b9 a53e fc42 45be
000001a0: cd4f 3e3e 0df7 1dbe e1c7 12bf 1298 533e
000001b0: 5675 d9be eb56 2b3e 5866 eb3e f914 2ebe
000001c0: 1a05 683d b923 b8bd cad6 6abd c180 84be
000001d0: 27b1 89be 927a 30be ca12 99be 1b49 7c3b
000001e0: 8daa 1c3e bee8 bf3d c849 6dbe 6806 703d
000001f0: 13e1 edbd a96a c6bd 20d4 ad3d 51e4 eabe
00000200: 8cc0 94be f6ac 2fbe 84f8 503e 5e9c 39bd
00000210: d6b3 b13e 7617 403d ec96 d63e 685f 17be
00000220: db42 34be 60b2 5a3e 9fc0 6cbe d860 26be
00000230: 04bf f8bd 7f27 1bbf 2332 9f3d 11d9 26be
00000240: 0d0a e73d 7b34 6b3e 052f 423c 4a3e 493d
00000250: 6a67 d63d 9dc9 7f3c 697e 87bc abc8 10bf
00000260: 7e6a d83e c0bf c63d a735 b63e f492 863e
00000270: d050 3f3e d534 10be 84fb 12be abae 013d
00000280: e2da 7ebe 4f44 09be 764a 2e3e 1663 7cbe
00000290: 9a54 453e 9095 ddbd b5be a03d e4f7 94bd
000002a0: 2dfc 14bd cf4f 793e b677 e5bd 85c9 80bc
000002b0: 3a61 3c3e b8ee 603e 69c1 b03d 8da3 07be
000002c0: b1e6 88bd 97e2 903e 79a4 793e 106b 5d3e
000002d0: 54c8 033d f4e5 e1bd 275a 3b3e ccc4 0dbe
000002e0: 4ada 633d 50f2 143e 583b a83c c7a0 b13d
000002f0: d655 73be 61f7 1b3e 62a4 25bd a527 1cbd
00000300: 5579 30be 4068 bcbd c080 e03d b6e1 babd
00000310: 7ef3 99be 4e3e e43d 9200 9cbd f437 4c3d
00000320: 1bd6 243e c8ce 293e 7a66 debd 2666 5e3c
00000330: 7b58 823c b485 f9bd 0934 9abd a92b 21be
00000340: 42ca 39be 78d0 2c3e 5900 70bd 4024 933e
00000350: bfdb 8f3c 88fd 113d 4176 5d3d 0594 d43c
00000360: 0fa9 36bd e087 8d3d 390b fcbc 6b3f 0bbe
00000370: edfc 0cbe 3cf7 223e 4f12 203d 8e7c de3d
00000380: c608 003e a4f2 36be bc8e 7ebd 040b 213e
00000390: 094c 3d3d 8f9f a03d 7c57 62be 87c3 2bbe
000003a0: 35c0 a93d ad9d 2a3d cec6 1bbe 77e0 413e
000003b0: f388 0bbe e30e 903e 3b73 c7bd 0772 9abd
000003c0: bb3f 27be bb50 033d 54e5 0f3d c810 0dbe
000003d0: f0e5 d0be 5ee9 4b3e a6ee 99be 4081 8dbc
000003e0: 0a3f c53e f7e0 9e3d 5bae a1bd 96cc a13d
000003f0: f49c 7bbd 8d13 00bf 9e80 4e3d ad77 41be
-0.16183567 -0.33325553 0.29306838 -0.31141505 0.060703527 0.04870234 -0.50973654 -0.07372749
-0.35609326 0.4449447 -0.18831335 0.066083156 0.31665102 -0.30166268 0.24018641 -0.23120107
0.14240989 0.0639028 -0.31866238 0.1874237 0.22346258 0.13455042 0.17543764 -0.45832342
-0.10999608 -0.45847538 -0.19825065 -0.20058766 -0.02120928 0.001329076 0.14502436 0.604184
-0.17946382 -0.056016814 0.36429915 0.046799403 -0.13057084 -0.03236074 0.14390984 -0.24955434
-0.14862086 0.040105708 0.0009879455 0.19763862 0.4206608 -0.17885818 0.054517288 -0.04212996
0.14375679 -0.184596 -0.06638175 -0.087923765 -0.31269497 0.122162 -0.17307636 0.012521759
-0.21817692 -0.057595547 0.12479208 -0.15823545 0.18426083 0.33793503 0.16550899 -0.21760103
-0.22878139 -0.086905845 0.13513923 -0.15380603 -0.1050993 0.011269859 0.18503252 0.08526959
-0.05007641 -0.11046305 0.0784273 -0.33205926 -0.19700731 -0.050437063 -0.15924054 -0.038949635
-0.10183807 -0.11202764 -0.014845966 -0.09982083 0.24153623 0.33391437 -0.28307655 0.22970693
0.06669115 -0.08411682 0.009261564 -0.044815015 0.0020541125 -0.2076716 -0.1511557 -0.04229917
-0.25757578 -0.0041764425 -0.39336348 0.33546546 -0.054371245 0.1751836 0.32368162 -0.19263834
0.18585129 -0.15426274 -0.5733624 0.20663479 -0.42472333 0.16732375 0.4597652 -0.17000188
0.05664549 -0.089911886 -0.057333745 -0.2587948 -0.2689297 -0.17234257 -0.29897147 0.0038495723
0.15299435 0.09370564 -0.23172677 0.05859986 -0.11615195 -0.096883126 0.08487725 -0.45877317
-0.29053152 -0.17155823 0.20407301 -0.04531514 0.34707516 0.046897374 0.4191202 -0.14782488
-0.17603628 0.21357107 -0.23120354 -0.1624788 -0.12145808 -0.6060714 0.07773235 -0.16293742
0.11281214 0.22969238 0.011852031 0.04913167 0.104689434 0.015612033 -0.01653977 -0.56556195
0.42268747 0.09704542 0.35587808 0.2628399 0.18683171 -0.14082654 -0.14353758 0.031660717
-0.24888185 -0.13404964 0.17020592 -0.24647173 0.19270554 -0.108195424 0.078488745 -0.07273844
-0.036373306 0.24346851 -0.11204474 -0.015721092 0.18396464 0.21966064 0.0863064 -0.13245983
-0.06684626 0.28297874 0.24379148 0.21622872 0.03217347 -0.11030188 0.18296109 -0.13844603
0.0556281 0.1454556 0.02053611 0.08673244 -0.23763213 0.15231086 -0.04043997 -0.038123745
-0.17233784 -0.091995716 0.10962057 -0.09125082 -0.30068582 0.11144696 -0.07617296 0.04985805
0.160973 0.16582787 -0.108593896 0.013574159 0.015911331 -0.12183705 -0.07529456 -0.15739311
-0.18143561 0.168764 -0.05859408 0.28738594 0.017560838 0.035642177 0.054067854 0.025949487
-0.04459482 0.06910682 -0.03076707 -0.13598411 -0.13768359 0.15914625 0.03907996 0.10863601
0.12503347 -0.17865998 -0.06214784 0.15726858 0.04621509 0.078429334 -0.22103685 -0.16773807
0.08288614 0.041654278 -0.15212557 0.18933283 -0.1362646 0.28136358 -0.09738775 -0.0754128
-0.16332905 0.032059412 0.035130814 -0.13775933 -0.40800428 0.19913241 -0.30064887 -0.017273545
0.38524657 0.077577524 -0.07894584 0.0790035 -0.06142898 -0.5002983 0.050415628 -0.18893309

bias_ih_l0 f4 [180]
00000000: be70 bbbd c572 8abe 9311 133e 650c e73d
00000010: 2b6c 463e 9097 ce3d b4a5 df3e f1fe 8cbd
00000020: 7bb2 16be 6ca6 00be 7b3a 14bd e8a7 783d
00000030: 2ef0 d8bd 9db3 093f d568 a7bc e7ec 15be
00000040: 8b1c 313f ea2d 3b3e 03da 51be a018 393f
00000050: 451e 1c3c 02fc d03d 3707 86bc 686f 63bd
00000060: cb94 1dbe 7ff3 ea3b 3c66 62be fd96 71be
00000070: 7c88 adbe 0985 95bd a906 223d 8aca d7bc
00000080: f9df c2be 4fce 7d3d 84a6 483e e697 003e
00000090: fdb0 5abe 1116 883d ef2c 19be 8045 bc3e
000000a0: 27e4 78bd 8687 153d c386 0f3e a7f8 1e3f
000000b0: acd9 82be a675 833d 1dbb 473e aa76 f7bc
000000c0: 7e15 593e e677 34be b17c b4bd 4c44 c8bd
000000d0: a47a 6ebe a9ec 003e 3893 0a3e 6e3a bdbb
000000e0: 5d03 453e bddc 54be d188 2bbd 1be1 183e
000000f0: b759 2a3e 4392 2ebe 327c 673d 14e3 913e
00000100: 0d44 d4be 1547 e8bd 26ab 5b3d 4a11 a7bd
00000110: 035d d83c e9d9 1f3e 547a 693e b84e aa3e
00000120: 455f 203d 6d5c 77be 6056 d03a 0d02 9d3d
00000130: 50e1 80bd c3ba 9bbd 5b9c 183d cfa6 73be
00000140: cd4f b1be 040b 973e 0f09 1c3e 2543 633e
00000150: 46d7 db3c fa78 053e 8972 273e 1c8e 5ebe
00000160: 0760 a3be b774 373e 77f5 a03d 14ce 223e
00000170: 22bf ef3d 42ca 45be 76b8 49be 5d28 dc3d
00000180: 0e8c bbbd ca3b 9039 9633 d6bd 0392 2cbd
00000190: 8d5b 10be 0e66 093e ce6a 07bd 6692 913a
000001a0: c131 bf3c 45cc 16be f1f6 d0bb 5212 393c
000001b0: 1206 ba3d 0737 16be 0aa6 c83c 0f9c 413d
000001c0: a094 62be fe91 98bd 22ea 113d d6f0 cc3d
000001d0: d4f0 1dbe bf5f 6bbc bc14 cb3d 9956 9e3d
000001e0: 4b6b 863d 899c 9dbc 0890 9fbd dfbb c33d
000001f0: 7fd4 61bc c085 bc3d 8e5d 12be ebed 62bd
00000200: ea90 ccbd 667c 67bd d2e1 c7bd e7d4 99bd
00000210: 98b6 a83d 41c5 4dbe 052f dcbb 4af5 cdbd
00000220: f36c 8e3d 60d1 3f3e a2ac 923e 29f6 433d
00000230: a034 893b b917 1a3f b341 bdbd 7247 663e
00000240: e347 03bc 07b1 4b3d 8828 973b 1f38 9d3c
00000250: 963e 633f 19c8 073e 8fec 95bd 3dc6 6d3f
00000260: ab98 4a3e 5268 e13d 2303 143f d710 163d
00000270: bcc3 243d 2c77 26be 6e39 cabd c177 f2bd
00000280: 462f a6ba d9f8 063e 0186 3cbe 3101 02be
00000290: 7f5c 313e feca 7c3e 2e74 883e d4b9 e5bd
000002a0: 0d86 8c3d 0880 533e a41f c53d 55d4 f53d
000002b0: 9b98 003e 5a98 c2bd db36 ce3d 9ed6 233e
000002c0: 3664 503e 22a7 ba3d 1e63 303f d3d8 9c3c
-0.09152363 -0.27040687 0.14362173 0.11281661 0.193772 0.10087502 0.4368111 -0.06884564
-0.14716522 -0.12563485 -0.036188584 0.060707003 -0.10592686 0.53789693 -0.02043573 -0.14641152
0.6918418 0.18279234 -0.20493321 0.723032 0.009528701 0.10204317 -0.016360862 -0.055526167
-0.15388791 0.0071701403 -0.22109312 -0.23592754 -0.33893192 -0.07300765 0.039557133 -0.026341695
-0.38061503 0.06196433 0.1959477 0.12557945 -0.21356578 0.06644834 -0.14958547 0.36771774
-0.060764458 0.0365062 0.14016251 0.62098163 -0.25556695 0.06418924 0.19504972 -0.03020795
0.21199605 -0.17623863 -0.088128455 -0.097786516 -0.23288971 0.12590279 0.13532722 -0.0057747876
0.19239564 -0.2078733 -0.041878525 0.14929621 0.16635786 -0.17047982 0.056514926 0.2849356
-0.4145817 -0.11341683 0.053630017 -0.081575945 0.026411539 0.1561047 0.2280057 0.33263183
0.039153356 -0.24156351 0.0015894882 0.07666407 -0.06292975 -0.07603981 0.037258487 -0.23794101
-0.34631196 0.29500592 0.1523783 0.22193582 0.026836049 0.1303443 0.16352285 -0.21733898
-0.319092 0.17915617 0.07859319 0.15898925 0.117063776 -0.19315436 -0.19699273 0.10749886
-0.09157573 0.00027510367 -0.10459058 -0.042131435 -0.14097424 0.13417837 -0.03306084 0.0011106252
0.023339154 -0.1472636 -0.006377094 0.011295872 0.09083189 -0.14669429 0.024493236 0.04726797
-0.22127008 -0.07449721 0.035623677 0.10006873 -0.154239 -0.014366089 0.09916064 0.07731361
0.06563433 -0.01923968 -0.07791144 0.09557318 -0.013783573 0.09205198 -0.14293501 -0.055402678
-0.09988578 -0.05651512 -0.09759869 -0.07511311 0.08237952 -0.20094778 -0.0067194724 -0.10056551
0.06954374 0.18732214 0.28647333 0.04784218 0.0041871816 0.6019245 -0.09241047 0.22488192
-0.008012745 0.049729373 0.004612986 0.0191918 0.88767374 0.13259925 -0.073205106 0.9288061
0.197848 0.11006226 0.57817286 0.036637153 0.04022573 -0.16256398 -0.09874235 -0.118392475
-0.0012678884 0.13180865 -0.18410493 -0.12695767 0.1732044 0.2468681 0.26651138 -0.112170845
0.06861506 0.20654309 0.096251756 0.1200339 0.12558214 -0.09501715 0.100690566 0.15999839
0.20350727 0.09113909 0.6890124 0.019146359

bias_hh_l0 f4 [180]
00000000: c10b 4b3d 24f2 2fbe 5da6 683e c634 473c
00000010: c3c6 c83b d4d0 083e cf2d fd3e 62e0 87be
00000020: 8cd3 7abe de85 4bbe 534f 453e fc00 19be
00000030: 3f57 003e 0e3a 323f bd7a 0d3d aa83 09bd
00000040: 1bdd 543f 8a81 25bd c8ff f2bd cd7b 163f
00000050: a2fb 40bd 2b39 933d 10bf 583d 65fc e7bc
00000060: ef24 39be 9cec bfbc bd66 8fbd 50a4 03be
00000070: 32fe d1bd 80e2 24be 8e36 bbbd f6ef 113e
00000080: 4096 21be 8553 353e 3136 533e 348f 163e
00000090: 212c 91bd 7445 16be eec4 16be 1164 a33d
000000a0: 2a6b 85bb c453 b23d a59d ac3d cf28 063f
000000b0: 72c0 21be a4a8 cdbd 2bf3 193e 1965 cabd
000000c0: 7023 233d cf5c 1cbe 52b0 24bd 82d5 a7be
000000d0: 740a 3abe 3533 b23e 8db5 71bd 6265 fabc
000000e0: 6025 823e 231b 64be c012 0abe e83d 563d
000000f0: 5be2 5bbd ff62 8cbe 957c d5bd 9403 b53e
00000100: 8a6c 67be a719 1fbd bd3b 47be 8180 573d
00000110: 14dd f53d 28e0 24bd 7085 843e d19c 8d3e
00000120: 9fbb 2f3e 7534 abbd 54d3 5abc 7185 0e3d
00000130: 63e8 093d f766 c6bd 98dc d33d a1d9 4fbd
00000140: 1dd4 a6bd e891 d23e 2ca1 bf3d 9109 103d
00000150: 3e27 473e f1b3 763d 4ea9 b53d dbc4 33bd
00000160: 7b41 24be 3aa7 ae3d e289 e03c b747 8bbd
00000170: 08c3 5abc 5a87 e23a 2835 12be 017d 733e
00000180: 280e 8abd ed39 34bd 593a 4cbd 4a0b 3d3e
00000190: 2a1f 2cbe 4327 a1bc 67cf b83d 8f2e 953d
000001a0: 5b81 a13d 0ea4 343d 9a71 4fbd 4635 113d
000001b0: 68a7 05be 3b25 cb3d 1b77 2b3e aaed edbd
000001c0: 0e67 2abe e606 39be e03b 6e3d d6af 03bb
000001d0: c4cc bf3d e29b 5b3c 0fac b53c 5dca ad3d
000001e0: 689b 3f3e 1c6b b53d 4054 113e 80ea b9bd
000001f0: cff2 533e 3191 983d d0d8 cc3d 6c9d 0e3d
00000200: 1a3f 21be 0800 fe3c b756 753d c1a2 6a3d
00000210: 95be 833d 2675 b5bd f96d dc3d 676c ea3c
00000220: 4637 d7bd 9454 8c3e a8e0 863e b1a1 993d
00000230: 2d1b 1c3e 3488 ff3e 7c37 14be 71f7 303e
00000240: 904b 3fbd 4dcf 0b3e f3e8 79bc 71a1 233e
00000250: 2653 5f3f b534 91bc 3a73 aebd 39b9 9b3f
00000260: 73de e43d 8515 1dbd 2688 0a3f d1de 75bd
00000270: 6ff5 b23d ce96 21be 6257 12be a31e a13d
00000280: f7e6 1cbd ef00 d8bc 0736 073d 5c28 86be
00000290: c1fd df3c 8550 283d 609c 1e3c c053 afbe
000002a0: 0921 753e 2c2c 383e 39f2 213e 3a0b debc
000002b0: 0883 c2bd 1428 023e 6de9 ad3e 8753 523d
000002c0: fca2 b93e 371d 923e 8d63 0f3f 4bce 51be
0.049571756 -0.17182213 0.22719713 0.012158578 0.00612721 0.13360912 0.49449012 -0.26538378
-0.24494761 -0.19875285 0.19268541 -0.14941782 0.12533282 0.69619834 0.03454088 -0.03357283
0.8314988 -0.04040674 -0.11865193 0.58782655 -0.047114976 0.07188638 0.052916586 -0.028318593
-0.18080495 -0.023428254 -0.07002018 -0.12855649 -0.10253562 -0.16102028 -0.09141265 0.14251694
-0.15779972 0.17707641 0.20626141 0.14703065 -0.07088495 -0.14674932 -0.1472356 0.079780705
-0.004071613 0.08707383 0.08428506 0.5240602 -0.15796068 -0.10041931 0.15034167 -0.09882564
0.039828718 -0.15269779 -0.040207215 -0.3278008 -0.1816805 0.34804693 -0.05901103 -0.030565921
0.2541914 -0.22275977 -0.13483715 0.052305132 -0.053682666 -0.27419278 -0.10424153 0.35354292
-0.22599998 -0.038842823 -0.19456382 0.052612785 0.12005058 -0.040252835 0.25883055 0.27658704
0.17161416 -0.08359615 -0.013356049 0.03479523 0.033668887 -0.09687608 0.10344809 -0.050744656
-0.08145926 0.41126943 0.09356913 0.035165373 0.19448563 0.0602302 0.08870183 -0.043888908
-0.16040604 0.0852799 0.027409498 -0.06800788 -0.013352163 0.001728277 -0.1427809 0.23778154
-0.06740981 -0.044000555 -0.049860332 0.18461338 -0.16808763 -0.019672042 0.09023934 0.07284271
0.07886001 0.044101767 -0.05064545 0.035451196 -0.13052142 0.099192105 0.16744654 -0.116175964
-0.16640875 -0.18069038 0.05816257 -0.002009382 0.09365228 0.013403865 0.02217677 0.08485863
0.18711627 0.0885832 0.14192295 -0.090779305 0.20698093 0.07449568 0.10002291 0.034818098
-0.15746728 0.031005874 0.05989715 0.05728412 0.06432835 -0.08860235 0.10763163 0.028616143
-0.105085894 0.27408278 0.26343274 0.07501543 0.15244742 0.49908602 -0.1447429 0.17281891
-0.04670292 0.13653298 -0.015253293 0.15979554 0.8723625 -0.017725328 -0.085180715 1.21659
0.11175241 -0.0383506 0.54113996 -0.060026947 0.08738219 -0.15780184 -0.14291146 0.078671716
-0.038306203 -0.026367633 0.03301051 -0.26202667 0.027342679 0.041092414 0.009680837 -0.34243584
0.23938383 0.179856 0.15815057 -0.027104963 -0.094976485 0.12710601 0.33967152 0.05134919
0.3625716 0.28537914 0.5601128 -0.20488851

weight_ih_l0_reverse f4 [180, 5]
00000000: 655f e13b d6ca 723e 7ef3 55bf 0afc c9be
00000010: 9b25 0d3d 192a d83d e18e b5bd dd3e 2d3f
00000020: 5c3b 95bd c868 543e 4b41 e43c d400 a3bd
00000030: bfa6 efbe 3252 c23c 47d0 b63e e1bd 1a3e
00000040: d6ff 6ebd 0c1d 12be d161 15be 4808 373b
00000050: 9fea dbbd 4606 63be 8eb0 1cbf ee49 41be
00000060: 2f55 b33d 0513 a13d afce cebd d298 c8bd
00000070: 19d2 acbd a14a 683d a16a e03d 1bfe 8d3e
00000080: 0df3 d43e c798 21bf 63cf 973c 0bac c13c
00000090: 8c08 7abe f88d 1d3f 59c3 273e d8e7 7dbe
000000a0: 402b 6c3e 1c3f 133a 0327 033f 414a a8be
000000b0: 5916 babd 559c 693d 686d 0c3e 646b 863f
000000c0: 6b2f 3ebe 6221 6bbc c580 91bd 91c4 4f3e
000000d0: e92b 5b3e 45e0 7dbf 6027 9d3d fb71 3f3d
000000e0: 4a30 8cbd 095a a33e 3067 b4be 45bc 143e
000000f0: efff 4abd 84bf c63d a470 c23e fdb1 13bf
00000100: 0f51 143e c092 dbbd ba77 3ebe 635b b3bd
00000110: a9e8 f6be 295a 47bd dbfb 18be f555 51be
00000120: 4ecb 3a3e 8ec5 823e 8d63 113e c588 8c3d
00000130: fb0e 3f3e 7d0b a93e 4412 9abd 90da d63e
00000140: bbfa 59bd 0e04 03bd 17b3 3dbe 71be cebe
00000150: e720 c23e 4680 6d3d 2a5c 5ebd efee ebbe
00000160: 085c 03bf 4d5d 0cbf 5057 0fbd 089d 8dbd
00000170: 925d 98be 3894 71bd 4529 bbbd 82f6 d7bd
00000180: 346c 4f3e ac4b 313e f1c9 22bc 5b6a c93e
00000190: 9059 e03c cf7b 88be e62e b0bd f592 b2bd
000001a0: 92a6 2d3e ead7 663d 45e6 5d3e 90f9 ef3d
000001b0: 0e9d bdbd 0f64 1e3e 3a47 e93d 2ee4 3e3e
000001c0: d287 cfbd e50f ba3d 49f7 0ebe 3a53 003e
000001d0: aec1 ecbd 5dda 18bd 70ed d0bd 5ca3 c83d
000001e0: ff1f e03c 307e 273d 30f2 8d3e 463d 8c3e
000001f0: 48b1 92bd c56b fb3c 37d8 02be 2b04 783e
00000200: 1199 6cbd c95c 1d3a 978b a8bd 6c2a 0f3d
00000210: e975 0b3f 8d1a 7dbe 3500 32bc 8f7e 54be
00000220: a242 7e3e 7df5 c83d 95e4 9cbe fdfe b1bd
00000230: 0176 32be 9b7b 0e3e a198 2d3f 93a3 3ebe
00000240: 250b 4ebd 83be 863e 21df bcbc 028f 5e3f
00000250: 6bda 05be 2966 993e 15c3 a2be b898 1cbe
00000260: 328f a53d f241 b0be 46c5 8a3b ba36 80bd
00000270: ace9 d5bd 0aef 513e ca00 323e c87c 2c3e
00000280: 4936 b73d e95d 803e 4989 123f bf8b 7aba
00000290: f034 a63e 0355 a7bb eb6a 5bbd 0cd6 1b3f
000002a0: 7cb8 fbbd 0496 96be 5047 0a3f 8dc8 c83d
000002b0: cb10 66bf 4363 adbc e849 c6bc 0c0c 99bd
000002c0: c7ad 29bd 7791 b9be c508 9dbe ffe8 193e
000002d0: 3870 443e a2ae b8bd eb22 e63e 093b 91be
000002e0: 60bc bfbc f16d 70be 3701 45be b0f1 0c3f
000002f0: e843 babe 908d 553d 0d84 733e 8e18 da3d
00000300: 544c 243e 76fb 87be 5959 4c3e 3603 19bc
00000310: a389 19be dea9 3dbd 4a7e 583d 61ea 273e
00000320: e049 13bd 7b75 233e 3ef1 cdbd ae9c 67bd
00000330: 56c4 c53d 3109 803d ac1c c03d e6a9 313f
00000340: 07f9 4cbd c75a 203e 7a39 073e 84a1 4a3d
00000350: 1fe2 e63c e837 1b3c 47b1 6d3e 3cb4 233e
00000360: 735a 283c 4ff5 873e ac85 bebd 370f 62be
00000370: 6c5f 50bc 6254 afbe 990c ae3e 8356 e2be
00000380: 41d9 913d f1cd 023f 32fa 87be 879d 5c3e
00000390: fee0 68be 6836 bdbb d0c8 a63e 8ccf 53bc
000003a0: f66a 94bd 6952 2cbd d475 24bd 1074 8a3e
000003b0: 5d88 383e ac05 423d c59a 4d3e c298 243d
000003c0: 1f50 f33d f805 eb3d 1ab9 69be a3df e5bd
000003d0: 2360 7cbd 8c7b b2be bd97 ec3d 1066 2abd
000003e0: 3cc4 35be adc3 0bbe 07b5 13be b89f 723d
000003f0: 0052 9dbe b534 253e 595a 46be 4858 23be
0.006877827 0.23710188 -0.83574665 -0.39450103 0.03445969 0.105549045 -0.088651426 0.67674047
-0.072867125 0.20743096 0.027863165 -0.07959142 -0.46806905 0.023720834 0.35705778 0.15111496
-0.058349453 -0.14268893 -0.14588095 0.002792852 -0.1073811 -0.22170362 -0.612069 -0.18875858
0.08756482 0.07864956 -0.100980155 -0.09794773 -0.084385104 0.056711797 0.10957838 0.2773293
0.41591683 -0.63123745 0.018531507 0.023641607 -0.24417323 0.6154475 0.16383113 -0.24795473
0.23063374 0.0005617009 0.512314 -0.3286915 -0.09086294 0.057033855 0.1371361 1.0501523
-0.18572776 -0.014351221 -0.07104639 0.20289828 0.21403469 -0.99170333 0.07673526 0.04673956
-0.06845148 0.3190463 -0.35234976 0.14524944 -0.049560484 0.097044975 0.37976563 -0.57693464
0.14484046 -0.1072135 -0.1860036 -0.08757665 -0.4822438 -0.048669968 -0.14939825 -0.20442946
0.18241617 0.25541347 0.14198132 0.06862024 0.18658058 0.33016577 -0.07523015 0.41963625
-0.05321763 -0.03198629 -0.18525349 -0.4037967 0.37915727 0.05798366 -0.054287113 -0.4608073
-0.51312304 -0.54829866 -0.034995377 -0.06914717 -0.29758888 -0.058979243 -0.09138731 -0.105450645
0.2025612 0.17314023 -0.009935842 0.39338955 0.027386457 -0.26656958 -0.08602695 -0.08719436
0.16958073 0.056358255 0.21669872 0.11717522 -0.092584714 0.15467857 0.113905385 0.18641731
-0.101333275 0.09085063 -0.1396152 0.12531748 -0.11560379 -0.037317622 -0.102015376 0.09796783
0.027359007 0.040891826 0.27723837 0.27390498 -0.0716272 0.030691037 -0.12777792 0.2422034
-0.057763163 0.0006002901 -0.0822975 0.034952566 0.5447679 -0.2471716 -0.010864307 -0.20751403
0.24830106 0.09812448 -0.30643144 -0.08691213 -0.17427827 0.13914339 0.6781102 -0.18617086
-0.050303597 0.26317224 -0.023055615 0.8693696 -0.13071601 0.29960755 -0.3178946 -0.15292633
0.08083953 -0.34425312 0.0042349426 -0.06260438 -0.1044496 0.20501342 0.17383114 0.16844475
0.08945901 0.25071648 0.5724073 -0.0009557567 0.32462263 -0.0051065697 -0.05356876 0.60873485
-0.12291047 -0.29411328 0.54015064 0.09803877 -0.89869374 -0.021165496 -0.024205163 -0.07473001
-0.041425493 -0.36243793 -0.30670753 0.15030287 0.19183433 -0.090176836 0.44948515 -0.28365353
-0.023405254 -0.2347944 -0.19238745 0.55056286 -0.36379933 0.052136958 0.23780842 0.10649215
0.16044742 -0.26559037 0.19955958 -0.009339144 -0.1499391 -0.046304576 0.052854814 0.16398002
-0.035959125 0.15962784 -0.10055779 -0.056545906 0.09656589 0.06251753 0.09380469 0.6939987
-0.05004218 0.15659629 0.1320552 0.04947044 0.028183995 0.009473778 0.23212157 0.15986723
0.010275471 0.26554343 -0.0930284 -0.22076117 -0.012718063 -0.34244066 0.33993986 -0.44206628
0.07121516 0.5109549 -0.2655807 0.21544467 -0.22742078 -0.005774308 0.32575083 -0.012927901
-0.07246964 -0.04207078 -0.040151432 0.27041674 0.18020768 0.04736869 0.20078571 0.040184744
0.11880516 0.11475748 -0.22824517 -0.11224296 -0.06161512 -0.34859884 0.11552379 -0.04160124
-0.17750639 -0.13648863 -0.14424525 0.05923435 -0.30726624 0.16133387 -0.19370402 -0.15951645

weight_hh_l0_reverse f4 [180, 45]
00000000: 9c2f cf3e 2b8e 37bd f840 073f 9bf0 fdbe
00000010: b0a9 79be a2f5 0f3e cf47 a1be ace8 a9bd
00000020: 9c2a de3d 0e69 ad3e c382 0bbe 9ae5 613e
00000030: fb4e 59bd a25a d9bd 467d 0abe 3135 1abe
00000040: 16a6 a33e 2ce3 47bd 41de 81be 305b 1f3d
00000050: 36eb e0bc f5f0 293e 8865 bc3e b5da 23bf
00000060: 4efb 1c3e bb22 b4bd 5516 73be f268 6bbd
00000070: ce3d 343e feec bfbe 4d46 d13c 2a57 c43e
00000080: 7295 06bf b832 843e fddb 803d f149 7e3c
00000090: b827 8a3e 638e ce3c 2bf4 b4bd de20 98be
000000a0: a9e8 e73d df08 a23e d1c1 47be 6839 74be
000000b0: 9030 e53e eb6f 59be b969 8c3d dc9a ba3d
000000c0: 5391 5cbe 2312 9d3d 66ca 313e 8cbc f1bc
000000d0: 8cbc 84be f4db 70be c75e 073e 6623 97bc
000000e0: ec16 853e c7f0 0f3d 5c97 adbd c7ff a93d
000000f0: 628e 9b3e 8ca0 183e ca1a 833e 9215 73bd
00000100: 9752 d6bc a32e c3bc 6225 7a3e d929 bbbd
00000110: 36e9 f93d f27e 05bd 0789 3fbe 31a0 f13b
00000120: 5908 8fbe 0992 983e d212 d3bd 9598 253e
00000130: 370e 62be d573 843e 77ba 2ebd b104 38be
00000140: cd01 febe 58e9 fbbd 4c44 ab3e 65b1 5a3e
00000150: 93e6 3ebe b75c f53c 816b 06be e3d3 c93d
00000160: 5203 7dbe bd57 a23b b5bc 1abe d464 35be
00000170: c3e4 c93d 59c6 e73c 22aa ce3d a5bd 113e
00000180: ee7e 31be 507b a23e 3dec 6b3e c1de 943e
00000190: 4f3f a6bd b325 fabb 0415 8dbd 4849 e0bd
000001a0: 927e a3bd b7cc adbd f420 ad3c fa0d 45be
000001b0: c04f be3c 3748 353e a4f9 c6bc e73e 8a3e
000001c0: 8933 f13b 9d46 1ebe dc8d 823e d54c 3bbc
000001d0: 3888 b5be 9719 113c e3a7 583d 61d8 18be
000001e0: 1c05 673e 1eee 923d efa9 90be 25bc 593e
000001f0: 6aaa a6bd 784f b9be d6ce 663e 4c80 8a3d
00000200: f82b 3c3e e632 03be 0fd3 c23c d287 933e
00000210: 0fe1 293d 160a 443e d682 8e3e 148d 80be
00000220: b85d 933d 3855 debd 0c7b f53d 1640 8abd
00000230: fc3d c8bc 8927 8f3e 3acf 01be 9c78 803d
00000240: 447c 1dbe 3751 75bc fccf f03d 2f7e 13be
00000250: f7e0 dabd 0711 b93d a122 893e 8d61 833c
00000260: 7d03 02ba c8b1 823e 2f17 963e d208 073e
00000270: 6117 e03d 2279 813c 0076 f63c f44b 91be
00000280: bb49 d8bd ec30 823d c8e1 923d 8cb5 b9bd
00000290: 02a1 4d3d da64 803e d4e0 abbd 9363 3d3e
000002a0: bb9d bbbd acde 19bd b17f 77be c990 b7bc
000002b0: 6a7a ce3e ecec 243e 1068 86bc 87b1 933d
000002c0: 5d95 1ebe d6ed 833e decd c8bc 4656 02be
000002d0: c335 b6be 77f1 0cbf c3fc 263e 75ac 963d
000002e0: d61a b0bc df3d 313e 57c3 10be 2e50 803e
000002f0: 1c87 6e3e 0ae4 f93e 92a8 83bd e62e bb3e
00000300: db60 15be 7583 2dbe 69d2 8bbd 1f26 97be
00000310: 487b 3a3e a747 853c e7b6 533d 133c e23e
00000320: 69a3 b03e 631f debc 2fbe f4bd d96d 10be
00000330: f271 853e 8518 acbe f3fa 15bf 0c7d ab3c
00000340: b2f2 b13e 4f14 09bf ac29 923e d1c0 b53e
00000350: 4252 a9be 4014 293e a623 1f3e 662c 26bf
00000360: 4fa2 cd3e 885b 523d d0a4 df3e 2257 ffbe
00000370: 3636 c33e e3af f73e 0ee9 31be 8989 e53e
00000380: 74cc 5b3e c873 833d 575f d9bd a703 563c
00000390: 9aa9 00be aef5 b4bc b4a4 db3b b5b6 09be
000003a0: b831 51bd bf9a ec3d 8451 5dbe 5164 e9bd
000003b0: d8e7 8f3c 3e25 0bbc 7c05 82bc 7d40 1f3d
000003c0: f7f4 00be a79d 02bd fb37 053e 449c 773d
000003d0: 60eb 02bd 5332 0fbe 3836 56be 3e67 b93d
000003e0: d93a 38be e3cc 5fbe 32c2 0dbd e610 f73d
000003f0: 0d4b 10be 0202 b33d 4217 edbc a667 dbbd
0.4046601 -0.044813316 0.5283351 -0.4959763 -0.24381137 0.14058545 -0.31500098 -0.08296332
0.10847971 0.33869213 -0.136241 0.22060242 -0.053053837 -0.1061299 -0.1352435 -0.15059353
0.3196265 -0.048800632 -0.2536488 0.038905323 -0.027455907 0.16595824 0.36796212 -0.64005595
0.1533024 -0.08795687 -0.23738988 -0.05747313 0.17601702 -0.37485498 0.025546217 0.3834775
-0.52571785 0.25819945 0.062919594 0.015520559 0.26983428 0.02521438 -0.08835634 -0.29712576
0.11323673 0.31647393 -0.19507529 -0.23850024 0.44763613 -0.212341 0.068561025 0.09111568
-0.21539812 0.07669475 0.17362365 -0.029508851 -0.259251 -0.23521405 0.13219748 -0.018449496
0.2599405 0.035141733 -0.08476135 0.08300739 0.30382067 0.14904994 0.25606376 -0.059346743
-0.026162429 -0.023825949 0.24428323 -0.09138841 0.122026846 -0.032591768 -0.18704616 0.0073738326
-0.27936056 0.29798916 -0.10306324 0.16171487 -0.22075735 0.25869623 -0.042658295 -0.1797054
-0.4961075 -0.12300366 0.33450544 0.21356733 -0.18642645 0.029951436 -0.13126947 0.09854867
-0.24708298 0.004954307 -0.15111049 -0.17714244 0.09858086 0.028292822 0.10091044 0.142325
-0.17333576 0.31734705 0.23039337 0.29076198 -0.08117544 -0.0076338886 -0.06888774 -0.10951477
-0.07983126 -0.08486312 0.021133877 -0.19243613 0.023231387 0.17703329 -0.02428896 0.27001116
0.00736088 -0.15456624 0.25498855 -0.011431892 -0.3545549 0.008856199 0.052894484 -0.14926292
0.22560543 0.071743235 -0.2825465 0.21263178 -0.08137973 -0.36193442 0.22539839 0.06762752
0.18376148 -0.12812385 0.023782281 0.2881456 0.0414744 0.19144472 0.27834195 -0.25107634
0.0719561 -0.10856098 0.1198636 -0.06750505 -0.024443619 0.2795985 -0.12676707 0.062730044
-0.15379435 -0.014972976 0.1175842 -0.14403604 -0.1068744 0.09036451 0.26784232 0.016037727
-0.0004959626 0.2552626 0.29314563 0.13186958 0.10941959 0.015804831 0.030085564 -0.2837826
-0.10560938 0.06356987 0.071719706 -0.090678304 0.050202377 0.25076944 -0.08392492 0.18495016
-0.09160944 -0.037565872 -0.24169804 -0.022407906 0.4032777 0.16106004 -0.016407043 0.07211595
-0.15486665 0.25767392 -0.024512228 -0.12728223 -0.35587892 -0.55055946 0.16307358 0.07357112
-0.021497171 0.17308758 -0.14137016 0.25061172 0.23293728 0.48806792 -0.064286366 0.36559218
-0.14587729 -0.16944678 -0.06827242 -0.29521272 0.1821109 0.016269518 0.0516881 0.44186458
0.34499672 -0.027114576 -0.11950337 -0.14104404 0.26063496 -0.33612457 -0.58586043 0.02093365
0.34755474 -0.53546613 0.28547418 0.3549867 -0.3307057 0.16511631 0.15540943 -0.64911497
0.40162894 0.051356822 0.4368043 -0.49871165 0.38127297 0.48376378 -0.1737406 0.44831493
0.21464711 0.06418568 -0.10613888 0.013062394 -0.12564698 -0.022089805 0.0067029838 -0.13448603
-0.051072806 0.11552953 -0.21613127 -0.11396087 0.017566606 -0.008492766 -0.015871756 0.03887986
-0.12593447 -0.03188863 0.13009636 0.06045176 -0.031962752 -0.13984041 -0.2091912 0.09052895
-0.17991199 -0.21855502 -0.034609027 0.1206377 -0.1409113 0.08740617 -0.028941754 -0.10713129

bias_ih_l0_reverse f4 [180]
00000000: af42 8cbe 612e 66be 25de 3fbe 88ce e73d
00000010: 058e e0be c966 1fbe 9a6b bebe 9bf7 89bd
00000020: 9052 ecbd 74dc 2b3e 8506 4cbe 0e7f 45be
00000030: eef2 b0be 963d 53be caaf f93d c608 babe
00000040: dd98 81be f6bd 2dbe 4611 6dbe 39e2 45be
00000050: 3453 5abe 7699 9dbd 69a6 1ebe 6b2d 97be
00000060: 3ebf 0e3e 038a fbbd f63b b4bd 27a9 92be
00000070: 0bb4 dc3c 54a9 95be 77a4 e73c 12f0 3fbb
00000080: fbef 683d a986 ccbd 6d8b 003e f267 44be
00000090: 4eea 5cbd 6d7f f6bd e0f1 92be 4fea cfbd
000000a0: 1cb4 6cbe 0dee c13b 8d30 83bd 660d fabd
000000b0: bef2 4fbe f2de 1f3e 0bf7 86bc 01b8 f53d
000000c0: 687d ab3d 4bec 7bbd ef9f 753e c2fc 1fbe
000000d0: dec9 26be 4361 7dbe 5a0a d7be 0517 06bf
000000e0: 753b b5bd 8081 70be 29ac 053d 60d4 f5bd
000000f0: 651e a8be 9465 53be dd74 a9be d281 75bd
00000100: 415d cabe 429c a83e 97f8 25bf 2362 59be
00000110: b13a 34be 0999 b9be 2838 973e d661 623d
00000120: 059c c7bd 5ca4 cb3d cfa8 8abe 5302 123e
00000130: d9ac 28be 7362 1a3d bd71 a0bd 2fdd 82be
00000140: 749e f13d 1d8f 80be ca31 87bc bc0b 85bd
00000150: 9993 423d 28de 8abe 5e40 29be 7e18 9abe
00000160: 38fc f5bd 3474 e23b cbca 73bd 93b7 1f3e
00000170: 6288 90bc ec86 133e 65af f63d 17e2 c83d
00000180: 324a 63bd ac71 0bbd e054 223d 881c dabd
00000190: 39f2 22bd e7df 65be a933 203e 5f63 ee3b
000001a0: 053d 3f3d 7b96 ee3d d1a3 dbbd 2eef 41bd
000001b0: 0622 9ebc 039f e63d 0371 60bd f910 553d
000001c0: 0744 29bd 87fb 2c3e 9bae 10be 3cfd a9bd
000001d0: fb68 f8bc c806 253e 62c5 e2bd 0d42 953d
000001e0: 6925 9ebd 8d8d 46bd 9f68 743e 5315 c23d
000001f0: 2c57 9bbc 361a 433d 1ada 10be c0e8 abbd
00000200: c1da bb3c 712a 8ebd 8409 27bd 79be e6bd
00000210: e8da 9b3d 045f 873d e8ed 01be 8e19 9cbd
00000220: 7b00 17be 5f74 44bd 92b1 713d da80 d5bd
00000230: cef4 8cbd 1466 0abe b69b f0bd 9140 0abe
00000240: f86e 0c3e 6c82 a4be 5de0 04be 8524 d2be
00000250: a17e 56be 8129 0bbe 868d c7bd c435 5cbe
00000260: 0c58 59bc 039d 4cbe 5722 89be 11c2 23be
00000270: 68da ddbd 5731 1abe a0e2 8bbe f0d1 5b3e
00000280: 47e3 a73c ca76 81be 003e 38be 365a 23be
00000290: aa64 ed3c ea2a d4bd bb09 f8bd 7bf2 1e3e
000002a0: d20e 1ebd b27b 833e 2354 17be c694 75be
000002b0: d02f b53d e5f2 f9bd d019 8cbe 0109 6abe
000002c0: 1b0d 81bd 0d95 9fbe 3109 1cbe cb9d 88be
-0.27394626 -0.2247863 -0.18737085 0.113186896 -0.43858352 -0.15566553 -0.37191468 -0.0673668
-0.11539185 0.16783315 -0.19924362 -0.19286749 -0.3456034 -0.20628962 0.12191732 -0.3633482
-0.25311938 -0.16966996 -0.2315112 -0.19324578 -0.21320802 -0.07695286 -0.15493168 -0.2952684
0.1394014 -0.12282183 -0.08800499 -0.28644678 0.02694132 -0.2923075 0.028276665 -0.002928738
0.05686949 -0.09986622 0.12553187 -0.19180277 -0.053934388 -0.12036023 -0.2870016 -0.10152113
-0.23115581 0.0059182704 -0.06405745 -0.12209587 -0.20307443 0.1561239 -0.016475221 0.119979866
0.08373529 -0.061504643 0.23986791 -0.15623763 -0.16287944 -0.24744134 -0.42000085 -0.52378875
-0.08849231 -0.234869 0.032634888 -0.12003398 -0.3283569 -0.20644218 -0.33096972 -0.05993826
-0.39524272 0.32931715 -0.64832443 -0.21228842 -0.17600514 -0.3624957 0.2953503 0.055269085
-0.09746555 0.099434584 -0.27081916 0.14258699 -0.16472186 0.037691545 -0.07834194 -0.25559375
0.11797801 -0.25109187 -0.016503233 -0.06496379 0.04750404 -0.27122617 -0.1652846 -0.3009681
-0.120109975 0.006910825 -0.05951957 0.15597372 -0.017643157 0.14406937 0.120451726 0.09808748
-0.05549068 -0.034043953 0.039631724 -0.10649973 -0.039781783 -0.22448693 0.15644707 0.0072750296
0.046689052 0.116497956 -0.10724605 -0.04734724 -0.019303333 0.11260798 -0.054795276 0.05201814
-0.04132464 0.16892825 -0.14129107 -0.08300254 -0.030323496 0.16115868 -0.11072804 0.07287989
-0.07721979 -0.048474837 0.23868035 0.094767235 -0.018962465 0.04763242 -0.14145699 -0.08394003
0.022931458 -0.06941689 -0.04078056 -0.112667985 0.076101124 0.0660992 -0.1268841 -0.07622062
-0.14746277 -0.047962543 0.059007235 -0.10424967 -0.0688263 -0.13515502 -0.117484495 -0.13501193
0.13714206 -0.32130754 -0.12976213 -0.41043487 -0.20946743 -0.13590051 -0.0974379 -0.21504885
-0.013265621 -0.1998177 -0.26784012 -0.15991999 -0.10832673 -0.15057884 -0.2732134 0.21466804
0.020494116 -0.2528594 -0.17992401 -0.15952381 0.028978664 -0.10359748 -0.12111231 0.15522186
-0.038588353 0.2568031 -0.1477819 -0.23982534 0.0884701 -0.122045316 -0.27363443 -0.22854997
-0.06301328 -0.31168404 -0.15237881 -0.26682886

bias_hh_l0_reverse f4 [180]
00000000: af77 85bc dffe 9ebe 289f 5bbe a77e eabd
00000010: 3a77 6abe 4507 b13d adad b5be 11bd 41bd
00000020: e3ed 8ebc b727 6f3d 76d6 f8be 2f90 5fbe
00000030: c3f4 fbbe ccef a1be b371 c03d e0f5 acbe
00000040: b19c e0be ec50 43bc 89b4 96bd 2c2b d7be
00000050: 5ebe 5fbd e59c d3bd 6791 0cbe 9b7e 8abe
00000060: 944d 693d b6e1 8dbd 7327 2fbe b724 9dbe
00000070: d642 1bbe e601 84be cd88 e7bd 8258 52bd
00000080: 93b9 d63c 9b04 ecbc 3f7e b4bc b49a 4abe
00000090: 16ff 50be 5108 72be 52a8 29be 5e44 4ebc
000000a0: a909 59be a8eb a1bd 6e71 4abe 9779 08be
000000b0: ad21 7bba 9208 133c 2d9c 1cbe f5a3 8e3c
000000c0: 59ba 803e 6cac 38bd 7765 253e 169b c2bd
000000d0: 3a89 71bd aa72 7bbd 22e2 c3be 8478 08bf
000000e0: 3eb4 babd 403f cebe e1f6 413d fd55 33be
000000f0: f716 ddbe ede9 e8be db51 ffbe 1fab f5bd
00000100: 46cb 09bf 0821 833e d8d7 ecbe c90a dfbd
00000110: d057 d9bd 5c36 8abe 53da b83e 9969 143e
00000120: cbd9 533b eb68 883d d8c4 edbd e51f 5e3e
00000130: 4735 93bd 136c 533e a47a 90be 609d 22be
00000140: 6d00 903d 08ab 98be f6d0 7cbc c740 2ebc
00000150: adfd 2a3e b321 afbd c435 443d 07b4 aabe
00000160: 8dfe afbe 8bf9 60be a410 863c b969 af3c
00000170: 71d2 00be ca61 073e 5bcb 15be 2ed8 20be
00000180: 1483 333e e39b 7e3c 249c d23d e17b a7bd
00000190: 3251 0c3d 02b7 1ebe e4d3 0bbd 8569 b03a
000001a0: 428d bcbd bd9c e63c 7402 0abe c82c 4b3d
000001b0: aef7 05be 286d 8dbb 29e2 633d 3886 86bd
000001c0: 0538 fcbb a2ff 76bd 2400 263d 4ce1 97bc
000001d0: 42a1 273d f0d9 123e df99 493b e744 ab3d
000001e0: d189 0ebd 470b 41bc 744c a53c 9c41 debd
000001f0: 563c acbd 12fd 113e 446c 71be db69 0f3e
00000200: e09b f4bc be4a e63d 510a 1bbe 7a5a 22be
00000210: 3bb3 b53d 6227 0abc 5c19 30be a7d3 543d
00000220: 9a59 6dbd ad60 93be db30 cebd 0fbc d3bd
00000230: 9d20 07bb f86c 60be 2168 473c 4abc c8bd
00000240: 9ace ab3d 0f61 c2be cd40 41be 61ab cebe
00000250: a7f1 93bd dd16 08be d4a3 50be 1406 e0be
00000260: 6230 a1bd 4244 4abe e23f d2be ae45 afbd
00000270: eb57 87bd f014 5b3d 5e9d 45be 833e c43d
00000280: f57c a83c d339 d5bd 7340 c6be 2eaa 8cbd
00000290: 14e4 f73b 57db ce3c 3a0e aebd ed93 1c3d
000002a0: 6c02 d33d 0776 3b3d 2fd5 3dbd 900a fdbb
000002b0: 6818 1cbe a337 18be 681d 00bd ee85 ccbd
000002c0: c1c0 64bd 245e 23be 9da2 2dbd d4bb d5bd
-0.016292421 -0.31053826 -0.21447432 -0.11449938 -0.22897044 0.08643965 -0.35484067 -0.04729945
-0.017447418 0.058387484 -0.4860112 -0.21832345 -0.49210176 -0.31628263 0.093966864 -0.33781338
-0.43869546 -0.011921149 -0.07358653 -0.42025125 -0.054624908 -0.1033266 -0.13727342 -0.27049717
0.05695875 -0.069278166 -0.17104892 -0.30692074 -0.15162215 -0.25782698 -0.113053896 -0.05135394
0.026211536 -0.02881079 -0.022032855 -0.19785577 -0.20409808 -0.23635985 -0.16568115 -0.012589542
-0.21195091 -0.07906276 -0.19769832 -0.13327633 -0.0009579908 0.008974211 -0.15293951 0.017412165
0.25142172 -0.04508631 0.16151987 -0.095022365 -0.05896876 -0.06138865 -0.38258463 -0.5330889
-0.0911641 -0.4028263 0.047354583 -0.1751327 -0.43181583 -0.4549097 -0.49867138 -0.119955294
-0.53825796 0.25611138 -0.46258426 -0.10890729 -0.10612452 -0.26994598 0.36104068 0.14493407
0.003232586 0.066606365 -0.116098106 0.21691854 -0.07187896 0.20646696 -0.28218567 -0.15880346
0.07031331 -0.29817986 -0.01543068 -0.010635561 0.16698332 -0.085513495 0.047902837 -0.33340475
-0.34373894 -0.21970193 0.016365357 0.021412717 -0.12580277 0.13220897 -0.14628355 -0.15707466
0.17530471 0.015540096 0.10283688 -0.08177925 0.03425712 -0.154995 -0.03413762 0.0013459182
-0.0920663 0.02815091 -0.13477498 0.049603254 -0.13082764 -0.004315991 0.055635605 -0.06568569
-0.0076971077 -0.060302384 0.040527478 -0.018540047 0.04092527 0.14340949 0.003076188 0.083627515
-0.0347994 -0.011782474 0.020178057 -0.10852358 -0.08409946 0.14256695 -0.23576456 0.14005224
-0.029859483 0.11244725 -0.15140654 -0.15854827 0.08872076 -0.008432241 -0.17197174 0.05195966
-0.05794678 -0.28784695 -0.10067912 -0.10338604 -0.0020618804 -0.21916568 0.012170822 -0.09801538
0.083890155 -0.37964675 -0.18872376 -0.40365127 -0.07223826 -0.13289972 -0.20374995 -0.43754637
-0.078705564 -0.19752601 -0.41064364 -0.08558212 -0.06608566 0.053486764 -0.19298312 0.09582236
0.020567397 -0.1041142 -0.38721046 -0.06868397 0.007565031 0.025251074 -0.08498807 0.03822701
0.10303196 0.045766857 -0.046345886 -0.0077222064 -0.15243685 -0.14864974 -0.031278044 -0.099864826
-0.055847887 -0.1595388 -0.04239141 -0.10436216

weight_ih_l1 f4 [180, 90]
00000000: 7101 34bf 3ebe 093e 891f a23d 48ea 3b3e
00000010: 3e32 6bbe 927c cb3c fbfb aebe 3f79 9fbc
00000020: 5390 943d 4d25 73bd 0ef2 473d 4e9a 7dbe
00000030: 7419 983e e052 ea3e 80bc 50be 980a 9b3d
00000040: a05c 8cbe d466 f33e 1595 d43d d476 1b3e
00000050: 4466 863e 842b 053d 454b d7ba b34c 023e
00000060: 20e9 f8bc 3929 7fbd a5c3 183e 70bc 7a3e
00000070: 05b5 293e fc2c 45be ce70 6ebe 31d5 02bb
00000080: 8d4e c13d a298 853e d257 0f3e b69a 7cbd
00000090: 1702 d1bd 7c6c 1e3e 4c3a 093e 4005 523e
000000a0: e711 debd e3f0 273e 17a4 453d f4a3 d93d
000000b0: 8595 303d 9af8 eb3d 9476 263e 49e5 103e
000000c0: 46fc 2dbe 14f4 94be fe04 36bd abb4 bb3e
000000d0: cb8d 31be cafd 43be 1cf7 97be 2669 7cbd
000000e0: cabf cbbd 4eec 023e 6a0b 01be eade 1d3e
000000f0: 0bac ac3e 50f4 8a3e c9e6 88be 43d1 d53d
00000100: 922d d9bd e447 223d b339 b7be 214d acbe
00000110: 716d 813e 9e12 5e3e 4b2c dfbd da77 053e
00000120: 9ad5 a9be 031d 2e3e bd25 403d 2464 8d3d
00000130: b3e4 bdbe cc25 f73c 52ef 79be fd10 5c3d
00000140: 895f e7bd a466 09be ae61 c23e 35c0 79bc
00000150: 7fd7 72bd 5d7b 353e 32df dcbe ba88 d4bd
00000160: 768c 26bd 2640 a5bd 6673 70be 0c1f 473e
00000170: dee6 003f 1880 b0be d935 b73e c97c c33e
00000180: 0cf5 ae3e 8efe 1b3e 8568 bbbe 97c6 513f
00000190: cdcb 1ebf 6787 763d 36bb ac3e 3879 bfbe
000001a0: 8cd7 a13e 0236 e1be 7fe5 ef3d 2826 24bf
000001b0: dd73 a7bd a395 5dbd 5c61 233f e882 acbd
000001c0: aa57 90be f782 41bf 3bf9 d4bb 7fe1 d3be
000001d0: e673 31be 20a8 61bd 90d3 2cbe 4d58 e43e
000001e0: ad78 bc3d d2ad 8e3e 8547 8bbd 7364 a63e
000001f0: 03a3 813d 56f4 213e ae78 5e3e 9f9d 813d
00000200: 5587 093e 7f41 70be 1d15 da3d 3917 f63c
00000210: 36c1 8bbd b169 c33d a103 0c3f 62ae 083d
00000220: 4be1 9fbe f679 4ebe 39d8 dc3d 1a3c 083c
00000230: 8007 a2be 4220 d7be fb13 db3e 4831 f53e
00000240: c012 2e3f 0dfd f23d c6c9 afbd 65c3 c5bd
00000250: d4bf d03e 1e07 69be 052f be3b 267d b7be
00000260: 113e 4a3d ddbd 83bb 593e 39bf 9450 7dbe
00000270: b701 d2bd 78d7 fa3e 4a3a 18be ed73 1b3f
00000280: 7c5f 8c3e c096 b5be 22b6 e63e bf2a 18be
00000290: d054 46bf 53e6 93be 1060 853e 2dba 12bf
000002a0: a5a5 cb3e a620 c4be f1c7 053f 3913 33be
000002b0: 564d 48bf 8247 5dbe f500 b5bd b73f b6bd
000002c0: 3164 4a3f 53a9 9e3e cedf 5f3d e512 a3bd
000002d0: dae6 3abe 6092 75bd 5bcf d3be b9fe cc3d
000002e0: 46e6 d9bd a635 9b3d 52c7 26be c734 17be
000002f0: 9fe6 c5bd 35ad 0dbe aca8 103e 7356 54be
00000300: 2d56 5dbe a8da 3e3f e338 dbbd ca61 1c3c
00000310: c55b 4abf 8bfc 4a3e d899 5e3e 4bc5 df3e
00000320: ce02 fcbc e37d 183e bbe5 3cbd daf3 73be
00000330: 9824 36be 39bb fc3d 95d5 143e 602e e73d
00000340: 5696 c6bd cc3c 6d3e d108 ce3d e60b 573d
00000350: 5952 14be 9513 453e 2d3f c7be f00a e7be
00000360: 080d 54be 14a7 163e 35fd dd3d 7e92 c43e
00000370: 8517 243c 2b29 353e 4f66 af3e 2c80 b2be
00000380: 1b87 24bd 70fe 9c3d e667 f33d a034 f53c
00000390: 3573 a6bd 8479 ebbd 8bc2 163d abd9 913e
000003a0: a712 4ebd 947c 1b3e 2ad8 4ebe 6f0a 203e
000003b0: c93b f33d f700 a53d 0931 8cbd 2717 a93c
000003c0: 79b7 9f3e 2465 843e 4c2e 913e 977c 5f3e
000003d0: a37d 0fbe 18cd 6bbe 9acc c2be c8d4 94bd
000003e0: 99d9 4a3e f922 f0bd 27c1 0a3c ee6d 3b3e
000003f0: 13a4 73be 83ee 2fbe 7c3e 863e 3d22 453d
-0.703147 0.13451478 0.07916171 0.1835109 -0.22968385 0.024839673 -0.3417662 -0.019466994
0.0725409 -0.059361745 0.048814826 -0.24765894 0.2970692 0.45766354 -0.20384407 0.0757038
-0.27414417 0.4753939 0.10379998 0.15182048 0.26249897 0.032512203 -0.001642563 0.12724571
-0.0303846 -0.062295172 0.14918382 0.24485946 0.1657296 -0.19255441 -0.23285219 -0.0019963498
0.094388105 0.26093012 0.13998345 -0.06167098 -0.10205477 0.15471071 0.13401145 0.20509815
-0.10843258 0.16400485 0.04825219 0.10626975 0.043111343 0.11522026 0.16256171 0.14149965
-0.16990766 -0.29092467 -0.044438355 0.36661276 -0.17339246 -0.19139782 -0.29680717 -0.061623715
-0.0994869 0.12785456 -0.1260201 0.15417066 0.33725008 0.2713952 -0.26738575 0.10440304
-0.10604395 0.03961934 -0.3578621 -0.33652595 0.2527881 0.2168679 -0.1089712 0.13034001
-0.33170778 0.17003255 0.04691099 0.06903866 -0.37088546 0.03016939 -0.244077 0.05372714
-0.11297519 -0.1341806 0.3796515 -0.01524358 -0.059287544 0.1772284 -0.43139035 -0.10377641
-0.040661298 -0.08068876 -0.23481521 0.19445437 0.50352275 -0.34472728 0.3578327 0.3818114
0.3417133 0.15233824 -0.3660318 0.8194365 -0.62029725 0.060187723 0.3373658 -0.3739717
0.31609762 -0.43986517 0.11713695 -0.6412072 -0.08176396 -0.054097783 0.63820434 -0.08423406
-0.28191882 -0.7559046 -0.006499437 -0.41382977 -0.17329368 -0.055091977 -0.1687758 0.44598618
0.092027046 0.2786699 -0.06800751 0.32498512 0.0632992 0.15815863 0.21725723 0.06328892
0.13430531 -0.23462485 0.10648558 0.03004037 -0.068239614 0.095416434 0.5469304 0.03336943
-0.31226572 -0.20163712 0.10783429 0.008315111 -0.31646347 -0.42016798 0.4278868 0.4788916
0.6799736 0.11864672 -0.08583407 -0.09656409 0.40771353 -0.22756621 0.005803945 -0.35837668
0.049375597 -0.004020436 -0.7236076 -0.2473777 -0.10254233 0.48992515 -0.14865986 0.60723764
0.274166 -0.35466576 0.4506083 -0.14860056 -0.77473164 -0.2888666 0.26049852 -0.5731533
0.39774814 -0.3830616 0.5225821 -0.17487802 -0.78243005 -0.2160931 -0.08838073 -0.088988714
0.7905913 0.3098856 0.054656796 -0.07962588 -0.18252125 -0.059954047 -0.41369137 0.10009522
-0.10639624 0.07578592 -0.16286972 -0.14766227 -0.09663128 -0.13835604 0.14126843 -0.20736103
-0.21614905 0.7455239 -0.1070421 0.009544799 -0.7904628 0.198229 0.21738374 0.4370521
-0.030763056 0.14891772 -0.046117526 -0.2382349 -0.17787397 0.123403974 0.145346 0.11288142
-0.09696643 0.23167723 0.10060275 0.05250158 -0.14484538 0.19245751 -0.38915387 -0.45125532
-0.20708096 0.14712173 0.10839311 0.38393015 0.010015373 0.17691486 0.34257743 -0.34863412
-0.04016791 0.076657176 0.118850514 0.02993232 -0.08127443 -0.11497787 0.036806624 0.2848638
-0.050310757 0.15184242 -0.20199648 0.1562898 0.118766375 0.08056825 -0.0684529 0.020640923
0.31194666 0.25858414 0.28355634 0.21824871 -0.1401277 -0.23027456 -0.38046724 -0.07267147
0.1980957 -0.117254205 0.008468903 0.18303654 -0.23793058 -0.17180829 0.26219547 0.048128355
