Models/rnn(17.01).pth (torch, 577954 bytes, 25 tensors)

weight_ih_l0 f4 [100, 2]
00000000: 3158 2b3f b615 50be 55fe 043e 195a 2ebe
00000010: 9c08 e8be d9f1 a03e f482 293e 4678 473d
00000020: d47a ed3d 2921 8dbe 2ab1 9bbe 2088 17be
00000030: 670c e0be fbd0 54bd 0734 d93d a14e 2a3d
00000040: 58f1 f13d 943b 2d3e c6e1 3e3e c6ac 7bbe
00000050: 431a 39be a8be 6abe 3837 0ebe 9a7c 7dbe
00000060: e21a 2b3f 6a9c 04be d215 65be 5dc0 c33c
00000070: f3dc 8a3e 27ca 89be b23e 3d3f e046 59bd
00000080: 7021 343e f75f 123e 8053 1fbd dfe3 56be
00000090: 09ca a33e 00ce 533e 70d9 e7bd 75f1 473e
000000a0: 727f 513d 8e71 39be faa9 ec3e 3aa3 d8bd
000000b0: 7e3c 8d3e 8750 19be 39ca 45be 1a58 3bbe
000000c0: 07f6 903e 6958 7bbd a5c9 d83e 46ea 73bd
000000d0: 4930 c7bd 8358 12be df6c 89be e3ad f9bd
000000e0: 53e2 76bf e510 623d eefe 0b3f 25bf 663d
000000f0: b7fc 38be a6cc 83be 6652 153e 66f5 193e
00000100: ab4c 5e3e 4204 203e d225 a93e 1c54 593e
00000110: a104 6f3e a7d8 6fbe 88bd 03be c863 27bc
00000120: 8471 6c3e eb82 c1bc dd11 a23e fae0 4dbe
00000130: 06b1 79be d210 bcbe 7ef1 4e3d f58f d4bd
00000140: f010 ffbc 4d34 18bd bca6 4d3e 5131 243e
00000150: bf30 b6be 7385 4cbe 52f9 d63e 4305 6abe
00000160: 602c 5ebe 0c6d d03d bd09 573e 0e8e 82bd
00000170: b4d5 893e 9960 ab3e c5f4 6fbe 5669 3c3e
00000180: f287 ed3c fe41 e3be e551 58be a89f 463e
00000190: 7fbf b6be 36fc c03d f794 89bd 1133 283d
000001a0: c55a 36bd e014 51be 2bab 243e cca0 d63d
000001b0: 4fb3 253e feef 803b 6842 e2be ea70 b83d
000001c0: 1b7f c8be 395c 4a3e 38ca a3be a195 c1bd
000001d0: 6bbf 2b3e 9709 4dbd 66b8 9a3b 5f79 d2bd
000001e0: aa88 a7bd b77e 8b3d 714e dabc 9850 a0be
000001f0: 07a8 40bf f9d5 0a3e dcdd d4be f461 783d
00000200: f206 30be ac03 30be 1203 253e 8360 81bd
00000210: 80ee 843d 8913 1d3e da11 0b3e 69aa 1e3e
00000220: 6574 84bd d8fb 7abe b874 e9bd 3631 b5be
00000230: 44dc 013e 4350 33bd d538 d9bd c324 193e
00000240: d667 fa3d 4f6d a8bd d1fb bf3d 4340 133e
00000250: 31ab 023e 48aa 91be d7f5 3f3d 588c 48bd
00000260: 16c3 623d 6e79 7bbe f657 ab3e a105 4bbe
00000270: e1cb 9cbe 0a3d 213e 773e 363d d5a7 223b
00000280: b64e dcbe df58 973d b867 00be e377 193d
00000290: 6f7c 633c 62e7 8b3d cd97 bbbd 67b5 043e
000002a0: 406c 293f f178 13be 9df4 65be e203 2d3d
000002b0: 96b1 9abe a7f1 acbe b7f8 143d 6322 9fbe
000002c0: b77c 253e a76c 6ebe 91af 2abf 7356 0b3d
000002d0: af16 afbe 735c 93be 4cdd 913f 2ac7 54bd
000002e0: 88db 4cbf d0dc 323e 90e2 353e c8a7 e73d
000002f0: 3778 7f3e d0df 2ebe a2ff f0bd 49d9 89bd
00000300: be51 56bd 834a 8cbe 82f7 02bd a0bc 8e3e
00000310: 2668 b33d f67c 173d 2970 cb3d 676d 19be
0.66931444 -0.20320782 0.12987645 -0.17026557 -0.45319068 0.31434515 0.16553861 0.048698686
0.11595693 -0.27564362 -0.30408603 -0.14798021 -0.43759462 -0.05195711 0.106056266 0.041578893
0.11813611 0.16917259 0.18640813 -0.24577627 -0.18076424 -0.22924292 -0.13888252 -0.24754563
0.66837895 -0.12950292 -0.22371605 0.023895437 0.27121696 -0.26912042 0.7392379 -0.053046107
0.1759088 0.1429442 -0.03889799 -0.20985363 0.31990078 0.20684052 -0.1132077 0.19525702
0.051146932 -0.18109724 0.46223432 -0.10578008 0.27585214 -0.14972125 -0.19315423 -0.18295327
0.28312704 -0.06136361 0.42341343 -0.059549592 -0.097260065 -0.14291577 -0.26840875 -0.121913694
-0.96439093 0.055191893 0.54685867 0.056334633 -0.18065153 -0.25742072 0.14582214 0.15035018
0.21708934 0.15626624 0.33036667 0.21223491 0.2334161 -0.2342249 -0.12865269 -0.010216661
0.23090178 -0.023621997 0.31654254 -0.20105353 -0.24383935 -0.36731583 0.050523274 -0.1037902
-0.031136006 -0.037159253 0.20083135 0.16034438 -0.35584065 -0.19972782 0.4198709 -0.2285357
-0.21696615 0.10177049 0.20999809 -0.06374751 0.26920855 0.33472136 -0.23433216 0.18399557
0.028995488 -0.44386286 -0.2112499 0.19396842 -0.35692975 0.094231054 -0.06717866 0.041064326
-0.04452016 -0.2041812 0.1608092 0.10479888 0.16181682 0.0039348593 -0.4419129 0.09005912
-0.39159474 0.19761743 -0.31990218 -0.094523676 0.16772239 -0.050057974 0.004721689 -0.10277056
-0.081803635 0.06811278 -0.026648732 -0.31311488 -0.7525639 0.13558187 -0.41575515 0.06064029
-0.1719015 -0.171889 0.16114452 -0.06317236 0.06490803 0.15339483 0.13581029 0.15494694
-0.06467513 -0.24510133 -0.113992155 -0.35389107 0.12681681 -0.043777715 -0.10606543 0.1495543
0.122268364 -0.08223974 0.09374202 0.14379983 0.12760617 -0.28450227 0.04686531 -0.048961967
0.05536183 -0.2455804 0.33465546 -0.19826366 -0.30624297 0.15745941 0.044493165 0.0024819274
-0.43028802 0.07389998 -0.12539566 0.03746785 0.013884648 0.06831242 -0.09159813 0.12959825
0.661808 -0.14401604 -0.22456594 0.04224003 -0.30213612 -0.33778116 0.036370005 -0.31080922
0.16160856 -0.23283635 -0.66674143 0.03401799 -0.34196994 -0.2878147 1.139566 -0.05194775
-0.8002248 0.17467046 0.17762208 0.113112986 0.24948202 -0.17077565 -0.11767508 -0.06730897
-0.05232405 -0.27400598 -0.031974323 0.27878284 0.08760099 0.036984406 0.09933502 -0.1498314

weight_hh_l0 f4 [100, 100]
00000000: c389 ffbb 9519 03be a2dc 0fbe 5413 78be
00000010: 66e7 ae3c 5066 ffbd 6a69 5bbd fcfd 353e
00000020: d2f6 90bc 3df8 2a3e 44b3 8b3e 746a 63bb
00000030: 68da 573d 5fe7 56bd dbe4 84bc b569 783e
00000040: c2c0 4bbd c7d8 9b3c 7c58 dabd ec77 08bc
00000050: 706d b4bc dc44 7f3d f8ed f4bd 4dfb 1ebd
00000060: bf13 0f3e 8ed5 e83d c324 b7bc 571d 763d
00000070: 444c 42be 4f00 953d 1bf9 2c3c 114c 31be
00000080: 454b 823d 66be ae3d b83c 103e 910d 22be
00000090: a40b 613e 02fc 613e 506b 47bd b864 7fbe
000000a0: b650 783d 636a 4cbe 9ab3 6e39 d05d 063e
000000b0: 2123 9d3c 2021 1cbe da0f 1cbd 8f70 15bd
000000c0: 9bed e8bc 59ca 6dbe eb4b bbbc e83f b23d
000000d0: 0512 aebc 4876 55bc 8d40 993d 33ff e63d
000000e0: 73a7 d4bd a0ab 6cbd 4fc4 9fbc d7d9 b4bd
000000f0: 906e b2bd d560 3abd 427b 3fbe 9405 27bd
00000100: f0c1 b03c 64a7 92bd c236 ad3c 5221 123d
00000110: 448c 33bd ed4d 8dba a8d5 9f3d 6787 10be
00000120: 48d2 57bc 9d2e 813d d88d 153e e0fc 05be
00000130: b2e1 df3d 45ed 203e 8e2a ce3b ad99 1cbd
00000140: 44bd 6cbb b6f1 47bd c731 d3bd 9f83 e1bc
00000150: f815 6d3d 9c24 24bb 80bf 4e3c ae59 6d3c
00000160: 2ec6 44bd 3e15 1fbe 775d ce3c bd51 573e
00000170: ea93 08be b216 683e 4fa3 873e ea9f fbbd
00000180: 0108 b33d f482 40bc a953 d3bb a117 d3bc
00000190: 0104 4dbd ea2c bcbd 9fdd 673d 9175 01be
000001a0: 0d68 00be 5a28 8bbd b062 fa3b 83bb 55be
000001b0: 9537 95bd 30d0 c1bd 3949 5ebd 2225 e1bc
000001c0: ca31 3bbe df00 093e a779 ca3c cc7a dbbc
000001d0: de58 3bbe 0f6c 3ebe 083e febd 4e97 44bd
000001e0: 724f 55bd ee0a 08be c785 133e 4db3 303e
000001f0: 9f3b 1d3d c279 b5bd 7366 e93d 62d0 4a3e
00000200: 84ad 5ebd 95b9 dcbd a3d6 093e c057 d1bc
00000210: 424a 643d 3c7c fa3a 7eff 30be f301 2c3e
00000220: 2900 0abe 948a 653d 685e dcbb 72c1 58bd
00000230: 7824 ffbc 282e eabd 4ab7 af3c c75e e6bd
00000240: 76c5 123e a21c 91be 5e4b 8cbd b795 cf3d
00000250: 0beb b5bd 69a0 2abd 39ef d83d 624f 973e
00000260: f663 c5be 55c8 3d3e 3d2c 72be 62cf 3dbd
00000270: faad 7d3e fc69 9e3e e200 0a3c 62b9 453e
00000280: 1dbd 193d 75b8 ab3d 2880 353e 82ae a23c
00000290: aa60 8dbd 8e11 a23d 416e e73d 5b0c 75be
000002a0: f240 413e ba00 46bb 64de f9bc 02be 5e3d
000002b0: 0446 26bd 8e28 e43d 4b5f 0a3c 049a 83be
000002c0: e8e8 17bd 045a 02bd 043d d53c 5bd1 c23d
000002d0: 326c 6e3e d6dc 0c3c a8ba 073e 7c55 a53c
000002e0: ad5e dcbd b641 1e3d a55e 563e 75fc f53d
000002f0: 34bc 12be cf61 733e 15fe 063d f828 47bd
00000300: dbaa 393c f89b 6e3d e460 2a3b a420 1d3e
00000310: ce64 cabd 3167 8bbd 5619 a2be 679f 663e
00000320: 2435 51bd 97f9 82bd dacc 40be de46 4a3d
00000330: f846 14be 9446 0b3b 2913 6a3e 9d47 9a3d
00000340: d3a7 23be e7f6 8bbd 4dfc 3ebd 8b4f c83d
00000350: 1102 38bd ccec 52bb b2c2 36be 5338 39bd
00000360: 9f18 a73d b5cc e43d 28c4 d03d 1570 393e
00000370: baad f0bd 051b b7bd 42f5 1ebe 628b e4bd
00000380: 3136 e0bc 3ea0 a0bd e230 c23c a8ab 18bd
00000390: e9e8 773d 571e 1b3e 40ae d2bc 7536 af3d
000003a0: 0a52 c9bc b2d5 0e3d d2cb 54bd c20e 173d
000003b0: 17c1 2dbe ec7d 3fbe 4514 373d b44e 443e
000003c0: d5a8 db3c 9700 4abb 6932 07be 2897 1bbe
000003d0: 55b4 d9bc 1eda 853c 5ba0 143e 25b2 8d3d
000003e0: a224 be3d 928f 443e 85b8 28bd 9729 adbd
000003f0: 1fab 263b 43d8 cc3d 55f6 993d 5013 373d
-0.007798405 -0.12802728 -0.14049008 -0.24226123 0.021350574 -0.124706864 -0.053567328 0.17772669
-0.017695818 0.16696258 0.27285206 -0.0034700902 0.052698523 -0.052466746 -0.016222408 0.24259074
-0.049744375 0.019024266 -0.10661408 -0.008329373 -0.02202484 0.06232153 -0.119594514 -0.038813878
0.13972376 0.11368857 -0.022356397 0.060086574 -0.18974406 0.072754495 0.010557438 -0.17314173
0.06362013 0.08532409 0.14085662 -0.15825488 0.21977097 0.2206879 -0.048686326 -0.24940765
0.060623847 -0.19962458 0.00022764356 0.13121724 0.01918179 -0.15247011 -0.038101055 -0.036484297
-0.028433612 -0.23221721 -0.022863349 0.087035954 -0.021248827 -0.013028689 0.07483015 0.11279144
-0.10383501 -0.05778086 -0.019502787 -0.08830612 -0.087124944 -0.045502502 -0.18699363 -0.040776804
0.021576852 -0.071608335 0.021144275 0.035676308 -0.04383494 -0.001078067 0.078044236 -0.14114152
-0.013172694 0.06307719 0.1460489 -0.13084745 0.1093172 0.15715511 0.006291694 -0.038232494
-0.0036123553 -0.048814498 -0.10312229 -0.027528582 0.05788228 -0.0025046235 0.012618899 0.014486713
-0.04804056 -0.15535447 0.025191052 0.21027274 -0.13337675 0.22664908 0.26491782 -0.122863606
0.08741761 -0.011749972 -0.006449182 -0.025768103 -0.050052647 -0.09188254 0.05660784 -0.12642504
-0.12539692 -0.06794806 0.007641159 -0.20872311 -0.07285992 -0.09463537 -0.05426905 -0.027483527
-0.18280712 0.13379239 0.024716211 -0.026791953 -0.18295619 -0.18595909 -0.12414175 -0.047995858
-0.052077718 -0.1328542 0.14406501 0.17255898 0.038386937 -0.08861114 0.11396494 0.19806054
-0.054364696 -0.107775845 0.13460784 -0.025554538 0.05573488 0.0019110511 -0.17284963 0.16797619
-0.13476624 0.05604036 -0.0067251213 -0.05291886 -0.03114532 -0.11434585 0.021449704 -0.11248546
0.14333138 -0.28342158 -0.06850313 0.10135978 -0.088827215 -0.041656885 0.10592503 0.29552752
-0.38552827 0.18533452 -0.23649688 -0.046340354 0.24773398 0.30940235 0.008423062 0.19308999
0.037533868 0.08384792 0.17724669 0.019858602 -0.06903203 0.079135045 0.11300326 -0.23930494
0.18872431 -0.0030212835 -0.030501552 0.054380424 -0.040594116 0.11140548 0.008445571 -0.25703442
-0.03708735 -0.031824127 0.026030071 0.09512588 0.2328346 0.008597573 0.13254797 0.020182364
-0.107602455 0.038636886 0.20934542 0.12011043 -0.14329606 0.2376778 0.032957155 -0.048623055
0.011332239 0.058254212 0.0025997693 0.15344483 -0.09882508 -0.068067916 -0.31659955 0.22521745
-0.05107607 -0.06395262 -0.18828145 0.04938399 -0.14480197 0.0021251785 0.22858872 0.075331904
-0.15981989 -0.06834202 -0.04662733 0.097807966 -0.044923846 -0.00321846 -0.17847708 -0.04521973
0.08158993 0.11171857 0.10193664 0.18109162 -0.11751886 -0.089407004 -0.15523246 -0.11159398
-0.02736959 -0.07843064 0.02370495 -0.03727308 0.060524855 0.15148292 -0.025717854 0.08555309
-0.024575252 0.034871764 -0.05195219 0.03687931 -0.16968189 -0.18700379 0.044697065 0.19170648
0.026813904 -0.0030823105 -0.13202824 -0.1519438 -0.026575247 0.016339358 0.14514296 0.06918744
0.09284331 0.19195393 -0.041191597 -0.08455198 0.0025431586 0.10002186 0.07517687 0.044696152

bias_ih_l0 f4 [100]
00000000: 3040 8a3d f7f5 8e3d 817c 6d3c 48e3 05be
00000010: f3ec 3bbe 3cef 0ebe 4b45 553e fc79 51bd
00000020: 4624 3abe b209 fabd 8549 86bd 830f 823e
00000030: b549 18be 7ce6 383e 6d04 413d 1155 15be
00000040: fd37 0ebc ac5d 59bd a7a3 6f3d 32ba 813c
00000050: 1901 823e ed30 aabd 7571 0e3c ca21 e43c
00000060: 8a27 3ebe f1b7 603c 6070 80bb c7a7 b1bd
00000070: 2d23 67bd 19d8 09be 1164 e93d 5658 a1bd
00000080: 9f6a a63d 59ab 6f3b a3dd 39be 8be7 893e
00000090: 1a36 74be 6688 08be 7363 483e 08c9 4b3d
000000a0: b748 c73e c4ae d43d 6426 febd f732 9abb
000000b0: 0376 6e3e 4fba cdbd a605 19bd 2342 e43c
000000c0: cead 353e b31f ae3e 33ec 8f3e 254d 9f3c
000000d0: 4aed 8dbe 9e31 0d3e bfdb 34be 345f 9b3d
000000e0: 13df 2a3e 0d28 1c3e aceb 833d bd99 c13d
000000f0: e99d 583e e7e8 193d a845 1d3e 0dd0 153d
00000100: 3302 373e 8af7 0bbe 4e87 0b3d 991e 12be
00000110: 593a cebd 2fd5 7d3d fcef 4d3c 019f ca3e
00000120: 2978 a2bd bdd7 4f3e 2740 ecbc 1215 9a3c
00000130: 697f 4e3d 9403 b4bd 7c87 0e3e 8592 f33c
00000140: 4e0e 633e 1ba3 7e3e a8d1 893e c70c 02be
00000150: da8f cdbd 5fc1 1a3e cd09 2ebd 304b 23bd
00000160: 8f4f 023e fe40 85bd 6af2 2cbc 66a3 02be
00000170: 6fb0 ad3c faf1 573c 465b 10be 86b8 3c3e
00000180: 539f 22be 5f1d 87bd 04e8 71be 2a88 573e
0.06750524 0.06980508 0.014495016 -0.13074982 -0.18352108 -0.13958448 0.20827214 -0.051141724
-0.181779 -0.122088805 -0.065569915 0.2540246 -0.14871867 0.18056673 0.04712336 -0.14583232
-0.008680341 -0.053067848 0.05850568 0.015835855 0.25391462 -0.08310113 0.008694042 0.027848143
-0.1856977 0.01371573 -0.003919646 -0.08674579 -0.05643003 -0.13461341 0.11396039 -0.07878177
0.08125805 0.0036570637 -0.18150954 0.26934466 -0.23848763 -0.13333282 0.19569187 0.049752265
0.38922665 0.103848964 -0.12409666 -0.0047057825 0.23287205 -0.10045301 -0.037358902 0.027863568
0.17742082 0.3400856 0.28109893 0.019445965 -0.277201 0.13788459 -0.17661951 0.07586518
0.16686659 0.15249653 0.06441435 0.094531514 0.21153988 0.03757563 0.15358603 0.036575366
0.17871933 -0.13668647 0.034064583 -0.14269485 -0.10069723 0.061970886 0.012569424 0.39574435
-0.07933075 0.20297141 -0.028839184 0.018808875 0.050414477 -0.08789745 0.1391887 0.029732952
0.22173426 0.24866907 0.26917768 -0.12700187 -0.10037203 0.15112828 -0.042489816 -0.039866626
0.12725662 -0.06506537 -0.010555843 -0.12757644 0.021202294 0.01318025 -0.14097318 0.18429765
-0.1588109 -0.06597399 -0.23623663 0.21048036

bias_hh_l0 f4 [100]
00000000: c429 e73d 6d15 bb3d 3da3 1f3d a66f f3bd
00000010: af70 5cbe d474 443c 9d89 be3e 9194 c4bd
00000020: fe53 04be 1dd0 12be 15a3 59bd d37f ae3e
00000030: 7eb3 f23c ba24 003d 2651 bcbd bc12 2abe
00000040: 75ae b43d 9fae 763d d802 07bd b1cd 803d
00000050: ed90 853e 9803 95bd 0398 3bbd aa08 853d
00000060: 18dc b3bd 3b01 22bc 2ef8 043d 06cd 63bd
00000070: 80a5 afbd 781f 18be 7220 eb3d 8352 64bb
00000080: 8887 303e f573 a93d b0c8 97bc aaea 943e
00000090: c59c 8dbe 893e 30be 481d f33c de2b 12bd
000000a0: 5e48 be3e 4061 513d d03d 053c bbcc d3bd
000000b0: fbbd 183e a575 383c fc08 19ba 0054 1a3e
000000c0: 5809 1c3e 7e23 273e 7084 293e 6333 94bd
000000d0: 772d 90be 58f6 a63c 67e5 46be 3927 ec3c
000000e0: 5cb7 ee3d 1bd8 3d3e 3b74 643e 05d0 1b3c
000000f0: b5f8 963e 9b89 8a3a ca4d 9c3d 908b 8cbc
00000100: 9e1f 753e f0a1 2bbc d1ff 073d d692 05be
00000110: f903 94bd bf4c d33c cc2a 1b3b 3a2c a53e
00000120: 08d0 4ebd e7d8 a73e 1845 1abb 9869 84bd
00000130: 6b90 803d ce59 e2bd fc22 853e 46d4 a9bd
00000140: 39ed 073e 0031 903e f0fb 733e a10d abbc
00000150: 1b8a 473d 8a13 073d 7a91 babd 1627 05be
00000160: d001 2bb9 c23e 143d d9f7 683d 1241 32bd
00000170: c191 ad3c 9186 15bd 9f9b 3bbd 897f 0f3e
00000180: 9602 3fbe 260f 013d 4ad3 95be 758a 643e
0.11287263 0.09134946 0.038974036 -0.118865296 -0.2152736 0.011990745 0.37214366 -0.09598649
-0.12922665 -0.14337201 -0.053134043 0.34081897 0.029626604 0.031285025 -0.09195165 -0.16608709
0.088223375 0.060225125 -0.032961696 0.062892325 0.26087132 -0.07276076 -0.045799267 0.06495793
-0.08782214 -0.009887989 0.032463245 -0.055615447 -0.085764885 -0.14855754 0.11480798 -0.003483922
0.17239201 0.0827407 -0.018528312 0.29085284 -0.27658668 -0.17211355 0.029677048 -0.035686366
0.37164587 0.051118135 0.008132413 -0.103417836 0.14916222 0.011258517 -0.00058378256 0.15071106
0.1523794 0.16322133 0.16554427 -0.07236364 -0.28159687 0.020381138 -0.19423448 0.028827297
0.11656067 0.18539469 0.22309963 0.009510045 0.29486623 0.0010569574 0.076320246 -0.017156392
0.23937842 -0.010475621 0.03320295 -0.13044295 -0.0722732 0.025793431 0.0023676632 0.32260305
-0.050491363 0.3278267 -0.0023539718 -0.06465453 0.062775455 -0.11052285 0.26003253 -0.08292441
0.13274087 0.28162384 0.23826575 -0.020880522 0.048715692 0.03297762 -0.09109779 -0.13003191
-0.00016308506 0.036192663 0.05687699 -0.043519087 0.021187665 -0.036505286 -0.04580271 0.14013495
-0.1865333 0.031508587 -0.29262763 0.22318442

weight_ih_l0_reverse f4 [100, 2]
00000000: 8cc9 c8bd 38bd 3dbe 7f53 c3be 671a c2bd
00000010: b3f5 cc3e e989 1b3e e4d8 07be 3a74 873e
00000020: 63f0 3a3e f791 61be 2e58 6e3e e3da b3bd
00000030: 0106 b1bd d2a6 1b3e 3fda 86be da2b 493e
00000040: d3c8 88be a72f 8abe f393 12be 5b56 adbd
00000050: a18d 49bd 3493 843e d863 a1be 511b c33c
00000060: 5df3 dd3e f187 883e abab 733e c7a2 8fbd
00000070: bd3d 563e 26be e7bd 6940 113f 0e08 89bd
00000080: 52e4 3a3f 7097 14be 8dca d6be 5e50 853b
00000090: 6d8a cebc daed 353e 97ea f73d dbdc 5ebe
000000a0: b4cb 5ebe ada7 b2bd 3bd4 3ebe c4a7 8bbe
000000b0: a791 48be 05da 10be 3526 8e3e b49b debe
000000c0: e1aa 92bb 2c6c 0cbe 3015 683f 9f75 ccbc
000000d0: 360a 1dbf 5c42 193e e257 7dbe 76b4 bcbc
000000e0: e2e8 d2be 6c08 093d 7207 a13e b8ce df3d
000000f0: 0a82 c0be 995f 0ebc d034 d43e f66a faba
00000100: 905b d73d dfbe 80bd f12e 273f e625 0cbe
00000110: a53f de3e 8847 b6bc 5ec7 3f3f 9f98 033d
00000120: d22f 50be 7842 2d3e d72c 94bd 8b4e 5fbe
00000130: 5195 d6bd c5b7 2b3e 3f9c 86be 8a1b 9dbe
00000140: 3cf0 b5be b973 663e f6f9 43bf 3c3c 5f3d
00000150: a0c5 eb3e 1d9f f1bc b6ba 443e 2c4c 533e
00000160: 9ea5 e93e 5a1d 053e 2615 52be 21d3 73bb
00000170: 9380 d5be 4c1d cbbd 1065 963e eff4 203d
00000180: aef4 863e a45d 97be cafe 85be 8d3a a7bd
00000190: d066 c1bb df05 65bd b0cc 2b3f 6c22 b0bd
000001a0: f27e 813d b8ca ae3e bc0a 70be c05c 16bd
000001b0: c477 9dbe e0d1 93bd 14b4 933e 7fa2 79be
000001c0: 7cef fa3e d2f1 273e 096c 243f 64f5 4bbe
000001d0: 918b 843e 3e53 3e3c dd8b 19bf 8341 073e
000001e0: c69b 7a3e 3b05 1ebd 387c e0bd a4d3 eb3d
000001f0: cb57 d93e 5e7b f3bd 043e c53d fbd4 57be
00000200: 7d60 cd3e e28a fcbd 7e2d eebe 3843 503a
00000210: d4fd 083f c978 923d 4540 c83f f994 a1bb
00000220: 295a 51be fd8a d73c ab44 aa3d 0799 ebbd
00000230: 320b 0b3e bee0 3cbd f3a5 c5be d890 d13c
00000240: 1b9a 193e 7449 a8be 70b8 913e 2bb3 423b
00000250: 65f5 ad3e aa1f 183e 194e a63e 7c92 5f3d
00000260: 4124 853e 32a8 b5bd 7ea5 d23d 9200 a3be
00000270: f742 aabe 2f16 a63d e140 47bf 74a0 453e
00000280: 2658 b83e f60a 8f3c e81f 72be 2484 30be
00000290: 4062 babe 78f7 a1bd 9461 a83e b9d7 053d
000002a0: 7c66 8bbe c90b 5abd e17d df3d d36e 93bd
000002b0: e676 54be 7d2c 5d3e 8d82 47be 44c8 41bb
000002c0: 80c4 27bf f6aa 34bd 9586 1cbf 8aa7 213d
000002d0: f33b be3e 15d4 61be 272c 413d d738 8b3e
000002e0: 8b8f 99be 8e99 8ebd 545a bf3e 270d c4bd
000002f0: 643d ef3e b322 4c3c f18a cbbe 12dc 513e
00000300: b514 42bd be6b fb3d 0ca3 22bd 5097 3dbe
00000310: f074 a93e fa61 4a3e 1b88 95be f778 44be
-0.09804067 -0.18529212 -0.3814964 -0.09477692 0.40031204 0.15189327 -0.13266331 0.2645586
0.18255763 -0.22028337 0.23275825 -0.08781984 -0.08643723 0.15200356 -0.26338384 0.19645634
-0.26715717 -0.2698948 -0.1431425 -0.084637366 -0.049207333 0.25893557 -0.31521487 0.023816736
0.43349734 0.26666215 0.23795955 -0.07013469 0.20921989 -0.11315565 0.5673891 -0.066909894
0.7300464 -0.14510894 -0.4195141 0.0040684184 -0.02521249 0.17766514 0.12105291 -0.21763937
-0.21757394 -0.08723388 -0.18635647 -0.27276433 -0.19586812 -0.14145668 0.27763525 -0.43478167
-0.0044759368 -0.1371314 0.9065733 -0.02495843 -0.61343706 0.1496672 -0.24740556 -0.02303527
-0.411933 0.033455297 0.31450993 0.109281 -0.37599212 -0.008689784 0.41446543 -0.0019105363
0.10515511 -0.06286406 0.65306 -0.13686332 0.43407932 -0.022250906 0.74913585 0.032127973
-0.20330742 0.16919887 -0.07235115 -0.21807306 -0.104776986 0.16769321 -0.2629108 -0.30685073
-0.35534847 0.22505082 -0.76553285 0.054500803 0.46049213 -0.029494816 0.1921185 0.20634526
0.45634168 0.12999478 -0.2051588 -0.00372047 -0.41699657 -0.09917697 0.2937398 0.039296087
0.2635855 -0.2956363 -0.2617095 -0.081654646 -0.005902149 -0.055913802 0.67109203 -0.086003155
0.06323041 0.34139037 -0.23441595 -0.036709547 -0.30755436 -0.07217765 0.28848326 -0.24378394
0.49010837 0.16400841 0.6422735 -0.19917828 0.2588773 0.011616526 -0.5997904 0.13208584
0.24473485 -0.038579207 -0.10961193 0.115149766 0.42449793 -0.11888765 0.09630969 -0.2107734
0.40112677 -0.12331177 -0.46519083 0.00079445867 0.5351231 0.07151944 1.5644614 -0.004931089
-0.2044455 0.026311392 0.083138786 -0.11503797 0.1357849 -0.04611277 -0.38603172 0.025581762
0.15000193 -0.3286854 0.28461027 0.0029708843 0.33976284 0.14855829 0.3248146 0.054583058
0.26004222 -0.08869971 0.102854714 -0.31836373 -0.33254215 0.081097 -0.7783337 0.1929949
0.36004752 0.017461281 -0.23644984 -0.17237908 -0.36403084 -0.07908529 0.32886946 0.032676432
-0.27226627 -0.053233895 0.10912681 -0.071988724 -0.20748481 0.21599002 -0.19483395 -0.002956883
-0.6553421 -0.044108354 -0.61142856 0.03946642 0.37155113 -0.22053559 0.047161248 0.27191803
-0.29992327 -0.06962882 0.37373602 -0.09572821 0.46726525 0.012459445 -0.3975444 0.20494106
-0.04738303 0.122764096 -0.039706275 -0.18514752 0.3309703 0.19763938 -0.29205403 -0.1918677

weight_hh_l0_reverse f4 [100, 100]
00000000: a35a 933e ef1e d43d fa33 f93d c744 ebbd
00000010: 3593 47bd 2dac 1c3e 3215 3a3e 5888 bebd
00000020: 17d9 193d 53e2 f13d a670 52be a40f 2fbd
00000030: cb00 02bd d1a5 1d3e 8d6d e5bd 28cd 193d
00000040: 1c3b 06be 67af 76bd f1f5 1cbe f937 833e
00000050: 62c3 cd3d 49d0 413e 4835 ca3a edfe 363e
00000060: 6624 493e ee0c 743d bd5e 1cbe ff19 393e
00000070: f335 6fbd 1d58 babd 0813 6f3e 3661 80be
00000080: b223 4f3e 2c6d 3a3d 02da b4bd 877d 64be
00000090: 7160 c73d 6bcd 04be 8493 3ebe 650f a0bd
000000a0: ec60 03be 0232 18be 921d b0bd 1c80 31be
000000b0: 3d99 553b b413 4d3d 516f 783d 9ff3 1d3d
000000c0: 2b96 bebc 42da 483e 1831 7a3e 8afd 233e
000000d0: 776b abbd 47e8 babd 5582 0d3e 0240 203e
000000e0: c4d9 8bbd 272f d6bd 641f e0bd ec53 323e
000000f0: d454 fbbd 92d3 dcbd c4e4 573d 01a2 c8bd
00000100: 59b9 923d 1383 68bd 32a5 35bc 2fee 21bc
00000110: 481e a33e aed8 3fbd a415 61be e3d1 0abe
00000120: d6bb 9ebb bc91 6a3b 6f06 3abd 89f5 a63d
00000130: 0d54 21be f768 3a3e 1eb9 dc3d fed2 bb3d
00000140: a5af a1be 3fd5 ef3d d329 903d a756 8dbd
00000150: 7775 793c eae8 01be e390 1e3e 87a1 35bd
00000160: b3d2 0dbe 6f02 f5bd 8136 d03d 8bbc df3d
00000170: faa4 943d a52d 963d 8357 833c d58c 4cbd
00000180: 4f88 563e e0cf ae3d 7ae8 d4bd b5f1 363d
00000190: d4c4 6c3d cbaf 59be fcc9 aebc a0bb c03c
000001a0: 3a50 4abd 6630 033b 958f dfbd 34d3 253e
000001b0: d44a 41bd c38e a93c e445 6b3d 7fa9 ca3d
000001c0: 608b 633d 6500 debc fbd0 73be 2cb4 823b
000001d0: 19c4 3dbe 3e4d b73d a318 023d f633 03bc
000001e0: 60cd 813c c108 53be b026 cf3d 4f49 60bd
000001f0: 4ba0 0d3d f3ea a3bd 334b 293d b9eb 9e3d
00000200: 6859 2f3d 1a59 ad3d 2fed 163d 3e00 1c3d
00000210: 96fe 75bd bde4 933d b1a2 f73d f1f7 903d
00000220: 92ac 6c3d f8f6 ff3d b705 3abd 15cb 08be
00000230: a0dd 593e d952 2f3d d39b 543c 4462 babc
00000240: 0d44 89bd b7ac f13c 0407 04be 5baf ae3d
00000250: 8bf2 5fbe c17d e03a c434 8dbd dc7f 163c
00000260: 1dc7 51bd 5b45 cdbd 4b6c 063e f3b3 babd
00000270: d4bd 803d 2c55 3f3d fc06 d1bd edfd 623d
00000280: ca95 c5bb 53bf a23b 10b9 8a3d c152 56bd
00000290: 3cdb c4bd 1bd3 acbd 36a8 7f3d adf5 b0bd
000002a0: e874 8d3d a450 d3bd e300 b9bd 8d19 423d
000002b0: 0f84 dc3d e187 b4bd 962e 7cbd 2d07 78bd
000002c0: 8efa edbc 2ac1 053d 8725 8a3d f2a1 f63d
000002d0: b946 743d fe04 1a3d 691b 16bd 991e 48bd
000002e0: a293 04bd 70c0 e03d 2485 cf3d 25b2 d2bc
000002f0: ccc5 023d 3a16 85bd 9348 793d c2ff fd3d
00000300: cbdb 223d db97 1cbd 0636 b6bd a254 e03d
00000310: 3122 c33d c981 6cbd 6a2d 5c3c ecf6 943d
00000320: 0e82 7e3c 0f89 01bd 6cd3 2cbe 6358 88bd
00000330: c74a 153e 86df 0f3e 608a 4a3e e7ce 41bc
00000340: 0fee d5bc c342 8dbd c426 8cbd 2b3a 38bd
00000350: d6ad b5bd cd4a d13d f6e9 9f3d e57c e7bc
00000360: aa84 d93d 1309 1d3d 9168 a6bc 8470 20bd
00000370: 534a 703d 7cef a73d 29c7 bebd 3390 063e
00000380: 6ac4 0f3e 3168 993d 5fd5 5cbd f192 9a3c
00000390: 1a60 a9bd 57be ecbd 79e5 173d da4a 86bc
000003a0: edff 8e3e 1648 79bd df54 01bd dcea be3c
000003b0: bd07 efbb 19b8 39be ade9 15be 7098 eebc
000003c0: 25e5 00be 033d b03d 0b4d 543d 5637 85bd
000003d0: 06b9 da3d c5e2 373e 90d9 a53d bb59 18be
000003e0: 32fd d6bd e78d abbd 9a86 cc3d 191a 0bbb
000003f0: f66e 19be 9dbf 3e3e d2dd a9bd edd6 7f3e
0.28780088 0.103574626 0.12168117 -0.114877276 -0.048724372 0.15300055 0.18172148 -0.09303349
0.03756055 0.11810746 -0.20550784 -0.042739525 -0.031739037 0.15395285 -0.11202536 0.037549168
-0.13108486 -0.06022587 -0.15328194 0.2562864 0.10047032 0.1892711 0.0015427256 0.17870684
0.19642791 0.059582643 -0.15270515 0.18076323 -0.05840106 -0.090988375 0.23347104 -0.25074166
0.2022846 0.04551427 -0.08830644 -0.2231351 0.097351916 -0.12968986 -0.1861096 -0.07815436
-0.12829942 -0.14862826 -0.0859939 -0.17334026 0.0032592558 0.05006762 0.060653035 0.038562413
-0.023264965 0.19614509 0.2443279 0.16014686 -0.08370107 -0.09126335 0.13819249 0.15649417
-0.06828645 -0.10458212 -0.10943487 0.17414826 -0.12272039 -0.10782541 0.052708402 -0.09796525
0.071642585 -0.056765627 -0.011086749 -0.009883448 0.3185904 -0.0468375 -0.21980911 -0.13556628
-0.004844169 0.003579243 -0.04541629 0.08152301 -0.15754719 0.18204103 0.10777496 0.09171103
-0.3157932 0.11710595 0.07039227 -0.06901293 0.01522576 -0.12686506 0.15484957 -0.044343498
-0.13849907 -0.11963355 0.10166646 0.109246336 0.07258029 0.07332925 0.01603294 -0.049938995
0.20950435 0.08535743 -0.10395904 0.044664104 0.057804897 -0.21258466 -0.021336548 0.023526967
-0.049392916 0.0020017861 -0.10916058 0.16193849 -0.047190502 0.020697957 0.0574397 0.0989561
0.05555284 -0.027099798 -0.23810188 0.0039887633 -0.18531837 0.0895028 0.031761777 -0.008007994
0.015845 -0.20608808 0.10114801 -0.054757413 0.034576695 -0.080037974 0.04133148 0.07759804
0.042809874 0.084642604 0.03684729 0.03808617 -0.060057245 0.07221363 0.12091578 0.07078541
0.057781763 0.124982774 -0.045415606 -0.1335872 0.2127595 0.04280362 0.0129766045 -0.022751935
-0.06702433 0.029501302 -0.12893301 0.0852954 -0.21869867 0.0017127321 -0.0689483 0.0091857575
-0.05121528 -0.10022994 0.13127248 -0.09116354 0.06286207 0.046712086 -0.1020641 0.055417944
-0.006029819 0.0049666553 0.06773579 -0.052325014 -0.09612128 -0.08438703 0.062416278 -0.08640609
0.06907064 -0.10318115 -0.09033372 0.04738765 0.10767376 -0.08814979 -0.061567865 -0.06055372
-0.029050138 0.03265492 0.06745439 0.12042607 0.05963776 0.037602417 -0.036647234 -0.048857305
-0.032367356 0.109742045 0.101328164 -0.025719712 0.031926915 -0.0649838 0.060860228 0.124022976
0.039760392 -0.03823076 -0.08897023 0.109536424 0.09528006 -0.05774096 0.013438562 0.07273659
0.015533937 -0.03162485 -0.16877526 -0.066574834 0.14579307 0.14050111 0.19779348 -0.0118291145
-0.026114492 -0.068974994 -0.068433315 -0.04497735 -0.08871047 0.10219345 0.078082964 -0.028257797
0.10621007 0.038338732 -0.020313533 -0.039169803 0.05866463 0.08199975 -0.093153305 0.13140945
0.1403977 0.07490576 -0.053914424 0.018868895 -0.08270283 -0.11559742 0.037084077 -0.016393114
0.2792963 -0.060859762 -0.03157508 0.023305349 -0.0072946236 -0.18136634 -0.14639921 -0.029125422
-0.12587412 0.08605387 0.051831286 -0.06504695 0.10679822 0.179576 0.080981374 -0.1487798
-0.10497512 -0.08376675 0.09986611 -0.0021225272 -0.14983734 0.18627782 -0.08294262 0.24984331

bias_ih_l0_reverse f4 [100]
00000000: d69b acbc 15d9 02bd 3d6b 4d3e 5221 443c
00000010: 6c4d 07be 17a9 103e 7d24 b4bd 12e1 46bd
00000020: 38ee a63d 6c9e 80bd c9aa 9dbd 5a57 2e3d
00000030: 83ac cebd a26c f7bd 2a5b 96bc 7523 c3bc
00000040: 6e5c 863d 727d 04be 3b57 ca3d 8203 1fbd
00000050: 9c29 b93d 4414 9fbc e71e 6ebd df96 c03d
00000060: 69b5 153e a719 863d b3de d6bd 6c25 49bd
00000070: c241 e83d 1081 6ebd 9a8d afbc 7074 f13d
00000080: 9cb7 b23d 0ba7 cfbd 2833 52be b736 6fbd
00000090: 4dce 52bd 8865 913d 7e6a 35be a3cc 7f3d
000000a0: c3d4 c3bc c807 d83d 92e8 2cbd fca9 99bd
000000b0: f029 11bd fedd 883c 3053 aebd b3d2 4abe
000000c0: d8ac 1d3d f13f e73d 8361 663d 4788 743e
000000d0: c05d d03d 0c81 893e ad83 1d3e ac20 2e3d
000000e0: 1fa8 8c3d 693d f1bd 3f1e 76bd 6591 583b
000000f0: aea3 71be b3d9 e93d 3b43 63be 4db1 9fbd
00000100: f664 0a3e 02b7 963d 3d66 c8bd 6f6e a63c
00000110: 5c07 2a3c b9dd 2c3e a517 f13c a346 063d
00000120: 8985 353e e340 45be 6eca 9dbd c4db 61be
00000130: bd3a e63d 143b 69bd a809 033e d900 143e
00000140: 983f 80bd c447 3bbd 03cd 3a3e 7e90 28be
00000150: 6e77 213b c42a 3e3d b2ca d93c afa4 cf3c
00000160: bb6c d9bc 12e3 aebc 8fb4 c0bd 2b06 86bd
00000170: eddc b13d 5f87 213d 5ba4 7ebd e871 5c3d
00000180: 6f9e 5f3e 4ec6 49bd 8a18 8cbe 06b9 c23d
-0.021070402 -0.031945307 0.2006044 0.011970835 -0.13213128 0.14127003 -0.08796022 -0.048554488
0.08150905 -0.062802166 -0.0769859 0.042563774 -0.10091498 -0.12081267 -0.018354017 -0.023820618
0.06560598 -0.12938479 0.09879919 -0.038821705 0.090411395 -0.019418843 -0.05813494 0.094037764
0.14619984 0.065478615 -0.10491695 -0.049107954 0.11340667 -0.058228552 -0.021429826 0.11789787
0.08726427 -0.10139283 -0.20527327 -0.05840179 -0.051466275 0.07099444 -0.17716405 0.062451016
-0.023905164 0.10548359 -0.042213984 -0.07503125 -0.035440385 0.016707417 -0.085119605 -0.19806938
0.038494915 0.11291493 0.05624534 0.2388011 0.101741314 0.26856267 0.15382262 0.042511627
0.06868004 -0.11779291 -0.06008744 0.0033045646 -0.23597595 0.11418476 -0.22193615 -0.07797489
0.13515076 0.07359125 -0.097851254 0.02031633 0.010377731 0.16881455 0.02943022 0.03278221
0.17726721 -0.19263034 -0.07704626 -0.2205649 0.11241672 -0.056941107 0.12796652 0.14453448
-0.062621295 -0.045722738 0.18242268 -0.1646137 0.0024637836 0.046427503 0.02658591 0.025347082
-0.026541105 -0.02134851 -0.09409439 -0.06544145 0.086847164 0.03943574 -0.06216846 0.053819567
0.21837781 -0.049261384 -0.27362472 0.09507947

bias_hh_l0_reverse f4 [100]
00000000: e624 d53d e439 2dbd 3a0d 763d 910b 7f3b
00000010: 050e 51be 6289 f33d 7c47 9abd 8d45 0dbe
00000020: 18ce 803e 9bdc a2bd 8a21 16be f7e9 093e
00000030: b2c7 cebd 8ab4 ecbd e0cf 3c3d ef4d 2c3c
00000040: 1f20 1c3d 1b83 93bd 985b a93d fe63 d93d
00000050: 6a82 413d 56a0 103d 904a 56bd b3fb 1b3e
00000060: 2e9e 1b3d 3717 863d 9f12 bdbc c738 363d
00000070: bf00 123e 9868 b7bd 13d1 88bd 3a54 83bd
00000080: b97c 993d 8a15 a23c dc4f 11be d0f9 843d
00000090: 9122 aebd 8a6f 82bd 5378 d5bd 77ca c23d
000000a0: 6827 a13b c706 903d e8c4 1abc cefb eabd
000000b0: 4e67 06be 1e20 173e 68e1 e63b 893d 4fbe
000000c0: 355e e9bc 9052 b53c 9892 76bd b311 c13d
000000d0: f555 b33d 05ec 693e 434a 583e 1a69 18bd
000000e0: 4eb1 443d 0719 023d 0751 22be 5714 1b3e
000000f0: b49e 0dbe 1872 443e 543f cbbd 6716 e5bc
00000100: d9aa 603e 2e48 f83d a858 3bbe 8204 913b
00000110: 6671 7fbd c6bc 113e 5076 78bd 47d7 ef3d
00000120: 39d7 353d 720c 6ebe 7791 debd 893e 0ebe
00000130: c854 273e f2a9 00be 1aeb f23d a9fc 953c
00000140: 9763 7dbd 0cdf dabb 6cd1 fb3d f381 05be
00000150: 7b51 70bc b02d b0bd a953 343d 7c33 b43c
00000160: f0b1 a3bb 70bb 07be 8c7c e0bc 88c8 ccbd
00000170: c4c9 343e a732 603e c968 0ebe 0cb9 4a3c
00000180: 4953 e93d bcb8 303d 92fb 40be 39c9 ed3d
0.104074284 -0.042291537 0.060071208 0.0038916806 -0.20415504 0.11891438 -0.07533166 -0.13796063
0.25157237 -0.079522334 -0.14661232 0.13468157 -0.100966826 -0.115578726 0.046096683 0.010516628
0.03811657 -0.07202741 0.08269423 0.10614775 0.047243513 0.03530916 -0.052317202 0.15232734
0.03799265 0.06547397 -0.023080168 0.04448774 0.14258097 -0.089554965 -0.06680503 -0.06412549
0.07494492 0.019785661 -0.1419062 0.064929605 -0.08502687 -0.06368931 -0.10423341 0.09511273
0.0049180277 0.07032543 -0.00944636 -0.11473809 -0.13125345 0.14758345 0.0070459135 -0.20238318
-0.028487304 0.022134095 -0.060198396 0.09427204 0.087566294 0.2284394 0.21122079 -0.037209608
0.048020653 0.03176215 -0.15851222 0.15144478 -0.13830072 0.19184148 -0.09924188 -0.027964784
0.21940173 0.12123142 -0.18295538 0.004425586 -0.062364005 0.14232168 -0.060659707 0.11710983
0.044394705 -0.23246935 -0.10867589 -0.13891043 0.16340935 -0.12564829 0.11861248 0.018308954
-0.061862554 -0.0066794213 0.122958034 -0.13037853 -0.014667864 -0.08602464 0.044025097 0.021997206
-0.004995577 -0.13255095 -0.027403139 -0.09999186 0.17655092 0.21894322 -0.1390716 0.01237322
0.113928385 0.043144926 -0.18845966 0.11610646

weight_ih_l1 f4 [100, 200]
00000000: 5249 313e 78c1 ecbd 280e fcbb 0f90 81bd
00000010: 57a1 21be 14d9 16be dba9 02be ba65 b93c
00000020: 8ee3 b23c f3f4 4dbe 4cb6 aabd 1af7 04be
00000030: fcc0 4b3d 5a59 013e b1e1 5abe 5aa6 01be
00000040: bf2b 263d d6e4 1bbe 332c 963c 3f9a ec3d
00000050: 53b2 88bd 8f04 a63d 43d8 ecbb 7a41 d93d
00000060: cad0 d1bc a901 953c d47d 87bd 8a45 c9bc
00000070: 0968 5bbe 621e 02be daf0 babd ffa1 3f3e
00000080: 7895 1d3e 77d4 463e bc73 86bd 7dac 30bd
00000090: ff3a c13d 4793 313d 2bc6 debd bac4 89be
000000a0: 565a 91bc a052 563e 0105 f43d f6ac 8fbc
000000b0: 55ee 973c 6045 91bc 0b8a 84bd 3a44 36bc
000000c0: f7a8 93bd 3b5c bc3d a3e2 4c3e bbb8 c23d
000000d0: ab24 363c 8d65 cf3c 2923 dcbc 6211 253d
000000e0: 5aac a43b 5e71 90bd 9a23 48bd 245c 04be
000000f0: 752c 373e 5e05 13be 927e e2bd 4a40 813c
00000100: b8ca 02bd 4b3f 523d 56d5 d43d 4225 3c3d
00000110: 4d89 2d3d be81 b4bd 13cc a73d 9ffc 143e
00000120: 81a3 33bd 77bc 113e 01e1 0dbc 20e9 83bd
00000130: ba2c 3ebe 6cc5 ca3d 269c 4dbd d88d d53d
00000140: d8a8 eb3d 954b e5bd a10f e6bd d982 073e
00000150: 69c2 f93d 1ea3 b13b bc8b 84bd 18d5 a4bc
00000160: 39f5 efbd 0227 bbbd eaea 26bc 31ca 933e
00000170: 63f8 adbd 5b91 53bb 1bef 37be 1dfa 333c
00000180: 74f9 84be c01a 0e3d 2364 14be 6f70 ff3d
00000190: 98e1 afbd 4c98 8f3d b898 31bc ba19 063e
000001a0: 4736 b9be baf5 c0be bd6a b9bd 42ce ba3d
000001b0: dbd5 213b 34d7 03be 890c 8e3e d384 e53d
000001c0: 43a0 0e3e 32eb fc3a 478e 09bd dd6d 0e3d
000001d0: 9f28 d5bd 038a 943e c5a9 ef3d f73c 77be
000001e0: 37fa 983d f1df 0dbe 3d72 d6bd 6ff1 dfbe
000001f0: fe7a 853d bc1c 613c b9fc a03c 1942 6cbd
00000200: 85da 95b9 8c9e 56bd 228c a93e 21e3 813e
00000210: b865 7ebd ce04 6ebd 5639 fcbd ee88 5dbe
00000220: e6a2 173d 0031 86bd 470a 04be 565b 31bd
00000230: c91f 9d3e 8c9a 0ebe 6fd7 843c b2c1 b93c
00000240: 05ab 14bd c3a8 e1bc fd62 4bbe 6a91 d5bd
00000250: 3dd7 f1bd 6275 0c3e cd84 58bd 1c4b acbe
00000260: 4a21 f33d cca3 61bc 2789 35bd 428b 44be
00000270: ad6e 90bb 5588 f3bd e630 55be 1246 4b3d
00000280: 5613 88bd c658 653e ad1e 94bd cd6f bf3d
00000290: 37dd 22bc 2afe af3d 2d1c 533d 5305 8d3e
000002a0: ca20 5a3e bd44 db3d 260c 5ebe b252 90bd
000002b0: b5bf bcbe bef3 133c 54b4 2e3e 7ba9 abbd
000002c0: 907a ab3c 231b 8dbe 6d13 75bd 66c7 3b3e
000002d0: c6d9 dfbd 0c1f 9bbd 8ed3 f9bd c8a6 1b3b
000002e0: 8a48 f63d ecc3 da3c 8af8 de3d e7b9 903b
000002f0: e621 c9bd bb58 213e d6f1 b13d 7760 493e
00000300: 7976 5f3e ff28 41be b1b7 cebd 430c d23b
00000310: b1a8 943d 8161 81be 3e81 e93c 3602 2bbe
00000320: 12ad fe3d 1c8a a8bd c51e ddbd 9a7d f23c
00000330: 5bdc a63d 2ca9 cebb 1895 f6bd 49bc b33d
00000340: e922 d5bd 53a8 e0ba a1da 88bd 712e b33d
00000350: 4c59 02bd 8444 c9bd 5621 0e3e a08d 4bbd
00000360: 4f36 1e3c 9d58 8bbc e6b2 963c 21d7 30be
00000370: f565 6e3d 800a 563d ad7c f53d e1ce 5fbb
00000380: 89ac 153e e60d 5c3d 85bc 033d 8d56 c33d
00000390: ec17 acbc d38c 123e 6996 133d 5dbe 0a3d
000003a0: b878 403d 5e91 dfbb 9dd5 243e 8963 8fbd
000003b0: 8532 be3d e26b d43d 68fd 183e 8717 e23c
000003c0: 9d79 ecbd 0966 b1bd c54a c2ba 40f8 72bd
000003d0: 9a26 afbd 51b8 013e baac 62bd 065b 02be
000003e0: 405e 15bd 6bfa 3dbb 2aa2 07be 9aec 10be
000003f0: d200 b53d 963d 60bd 3994 203d 8668 0a3d
0.17313126 -0.11560339 -0.0076921172 -0.06326305 -0.15784203 -0.14731246 -0.12760107 0.022631515
0.021837022 -0.20112972 -0.083355516 -0.12984887 0.04974459 0.12631741 -0.21375157 -0.12661114
0.040569063 -0.15224013 0.018331623 0.115528576 -0.06674638 0.08106338 -0.007227929 0.10608192
-0.025612254 0.018189268 -0.06615797 -0.024569292 -0.21426405 -0.12706903 -0.0912797 0.1871414
0.15389049 0.19416986 -0.06565043 -0.043133248 0.09435081 0.043353345 -0.10877641 -0.26907903
-0.01774327 0.20929956 0.11915017 -0.017538529 0.018546263 -0.017733276 -0.06471642 -0.011124665
-0.07209962 0.09197279 0.2000833 0.09507891 0.011117141 0.025316978 -0.026872234 0.04029978
0.0050254287 -0.07052873 -0.048862077 -0.12925774 0.17888053 -0.14357516 -0.110592976 0.015777726
-0.03193161 0.051329892 0.10392253 0.04593397 0.04236727 -0.08813809 0.08193221 0.14549492
-0.0438571 0.1423205 -0.008659602 -0.064409494 -0.1857175 0.099009365 -0.050197743 0.10427445
0.11506814 -0.11196057 -0.1123345 0.13233508 0.12195284 0.0054210564 -0.06471965 -0.020121142
-0.117166944 -0.091382995 -0.010187844 0.28865197 -0.08494642 -0.0032282684 -0.17962305 0.010984925
-0.25971568 0.03469348 -0.14491324 0.12472617 -0.085879505 0.0701147 -0.010839634 0.13095751
-0.36174223 -0.37687474 -0.09053562 0.09121372 0.0024694118 -0.12875062 0.2774394 0.11206975
0.13928322 0.0019296168 -0.033582952 0.034772743 -0.104081385 0.29011545 0.11702303 -0.2414435
0.074696 -0.13854958 -0.10471008 -0.43738887 0.065175995 0.013739761 0.019651758 -0.057680223
-0.00028582304 -0.052397296 0.33114725 0.25368598 -0.062108725 -0.05811005 -0.123156235 -0.21634266
0.037020586 -0.06552315 -0.12894545 -0.043299995 0.30688313 -0.13926142 0.016216008 0.022675369
-0.03629591 -0.027546292 -0.1986198 -0.10428126 -0.118086316 0.13716653 -0.052861024 -0.33651054
0.11871584 -0.013771962 -0.04432025 -0.19193748 -0.004407725 -0.11891238 -0.20819435 0.04962737
-0.06644313 0.22397146 -0.072324134 0.09347496 -0.009940437 0.085934 0.051540542 0.27543125
0.2130157 0.1070647 -0.21684322 -0.07047023 -0.3686501 0.009030281 0.17060977 -0.08381935
0.020932466 -0.27559766 -0.05983298 0.18337783 -0.10930209 -0.07574281 -0.12198554 0.0023750532
0.120255545 0.026704751 0.10887249 0.0044166925 -0.09820919 0.15756504 0.08688705 0.19665705
0.21822537 -0.18863295 -0.1009363 0.006410153 0.07258738 -0.25269702 0.02850401 -0.16700062
0.12435354 -0.08229467 -0.107968844 0.029600907 0.08147498 -0.006306788 -0.12040156 0.08776147
-0.10407049 -0.0017140008 -0.06682325 0.08749092 -0.03182344 -0.098275214 0.13879904 -0.04969561
0.009656503 -0.017010028 0.018395852 -0.17269565 0.058202703 0.052256107 0.11986671 -0.003415041
0.14616598 0.053724192 0.032162208 0.095379926 -0.0210075 0.14311533 0.036032114 0.03387295
0.046990126 -0.006822749 0.16097112 -0.07001407 0.092869796 0.103721395 0.14940417 0.02759911
-0.115466334 -0.0866204 -0.0014823308 -0.05931878 -0.085522845 0.12667967 -0.055340506 -0.12730035
-0.036466837 -0.0028988372 -0.13245454 -0.14152756 0.08838047 -0.054746233 0.039203856 0.033791088

weight_hh_l1 f4 [100, 100]
00000000: be70 dd3f aafd 59be 3da2 0ebe ca2c 28be
00000010: fd8a 173d 228b 403d 32c8 e9bd 8bbb 183e
00000020: 6668 6f3d e8ea b8be 1ca8 2fbe dcd7 95bc
00000030: b5c9 5ebe fa11 1fbc 97d2 353e dcbe 083e
00000040: 97ef 96bd 7169 e83d e8ff 2e3e 3e33 573e
00000050: 55b6 973e 9ab7 073e 3318 1e3e 199f d3bd
00000060: bdac 1dbe 6c99 543c b7ff c63c d0ee e2bd
00000070: 9308 423c badf 62be cd40 0d3e a009 e7bc
00000080: ce75 63bd 06b2 73be a678 553d 9ef7 9bbd
00000090: 9cd6 94bd 2325 4f3d f664 50be 34d5 ed3d
000000a0: d138 2fbe 5a8d c53d 3e03 1f3d c0fd a8bd
000000b0: f1e0 89bd 5ec5 cc3e 6aac 423e 1cba 963d
000000c0: 8b54 b2bd 3174 87be 76fc f53d 0f02 133e
000000d0: 6159 60be ed66 e63d 90b1 363e e36a 8b3d
000000e0: 0d54 473e d055 8d3e c748 f1bd 4062 ad3c
000000f0: 6ec4 cfbc 348f caba 0cef 433e a54d 3bbe
00000100: b9e7 a6bd 0340 57be 153b 79bd d40d 293e
00000110: ccd5 13be 7ecb 85bd 64e5 e1bd e5b3 6fbd
00000120: ed10 073d 8ff1 8dbe d250 303e 104a b1bd
00000130: 8bea d73d 78fd 84be 9584 a1bd 2369 38bc
00000140: efe7 083d 5e50 89bc 224d f0bc 8ec5 14be
00000150: 5f82 cbb9 dfbd f43d 11a0 423d d8df 743c
00000160: 6851 ac3e 02d4 2f3e 58cf 253d b841 b43d
00000170: 9065 bcbc 72de de3d e204 0c3e 9edd 913e
00000180: 7521 7ebd 8182 63bd 52d3 1f3e 7b52 5ebe
00000190: 4ba5 123e 11b3 dd3e 71a5 793d d0f2 1d3e
000001a0: 3dc2 3f3e bd7e f13d 0480 dabd c40e 97bd
000001b0: d1e5 42bd 36f6 203b 10dd 00be 1e56 453d
000001c0: e3dc 2c3d 1f86 19be 2054 d73c 2c6a c33d
000001d0: bd6d a8bd 68c4 4cbe de01 e73d f1d0 c53d
000001e0: 7683 9f3d 6125 bc3c b667 633c 0a4d 613d
000001f0: fc12 20bd 9a52 a8be 1dc4 c8bb e362 15bd
00000200: 3e53 563e 1876 973e 5250 24be 6bcb 6e3e
00000210: 0b33 0f3e 349e d1bd 232c f23d d2bd e13d
00000220: a8bf d3bd c919 d5bd c962 b93d f9a0 89be
00000230: a9a0 433e 43b6 bbbe e7ea 83ba 8e03 163d
00000240: a3f0 423e 129b 013e 4d11 e0bd 63f2 d33d
00000250: 20a4 103e 7404 fdbd 2e4e f83d 0b67 a13b
00000260: bc5b f13d cbf5 7ebd 4b18 67bd 2e72 a93d
00000270: c5de 9abd cef4 cb3c 3f15 d43d 6ffb 2abd
00000280: 59a6 0fbd 7d55 ccbd 2054 273c ee4f 113e
00000290: 8e82 06bd 35cf e03d 3d61 203e ac08 0e3b
000002a0: 7ca9 073e 34d4 933d 6b48 a83d 65c5 01ba
000002b0: efc8 213e 529c fc3d b4d5 86be c398 473e
000002c0: bdd1 0b3e aba3 a0bd 5e34 843d dbb5 e3be
000002d0: 5124 043e 2347 83bd f646 f23d e404 e63c
000002e0: 6f1d 95bd b7ef d2bd db40 aa3e 210c e2bc
000002f0: 9e9c 09bd 2ee7 1bbe 767f 413d 69b2 a43d
00000300: 0c8f 3bbc 3740 a5bd 2a4d 693d 3a0a 86bd
00000310: 8a8c 273e 3928 de3e ffd1 c9bc 71c0 0ebe
00000320: cd44 4a3e 146c e33c 7399 6c3e 5997 33be
00000330: 24a7 3cbc 4922 bd3d c211 883d 5d40 f83d
00000340: adf3 1e3c e1ac a9bd a92f ebbb 0fa7 913c
00000350: 9db5 10bc 16fc 073e c723 0f3e 3c55 6e3d
00000360: e5b8 093e 4221 6ebc 9279 7ebd 6272 14bd
00000370: adb2 cfbd cb0e 94bd 969c 993c 1086 20be
00000380: 51aa 2dbe 5edb 1a3e 2ee1 35be 79be f13c
00000390: eb2a 48be 5921 113d d6d9 2dbe 665c 47be
000003a0: e857 ffbd 470f a6be 8883 38be 60c1 4abe
000003b0: 4598 533e 70c8 b33c e685 9ebd db5f 0d3d
000003c0: c596 fa3b 6db8 1a3e 2876 4b3d 67e3 f63d
000003d0: 31e4 b13c 7c19 3c3e ee66 02bd e367 df3b
000003e0: 9a56 a5be 5b61 c4bd 01a3 743d 6dc4 173e
000003f0: 4cae 5b3b 027e c03e 746b 75bc 1d05 13be
1.7300031 -0.21288171 -0.13929076 -0.16423336 0.036997784 0.047007687 -0.11415137 0.14915292
0.05844917 -0.3611672 -0.17153972 -0.018291406 -0.21756633 -0.009708876 0.17756115 0.13354057
-0.07369917 0.11348236 0.17089808 0.21015641 0.29631296 0.13253632 0.15438919 -0.1033308
-0.15397926 0.012976032 0.024291856 -0.11080706 0.011842865 -0.22155657 0.13794251 -0.028202832
-0.05553227 -0.2379838 0.052117012 -0.076155886 -0.07267496 0.050572526 -0.20351014 0.11612931
-0.17111517 0.09646101 0.03882145 -0.08251524 -0.06732357 0.3999433 0.19011083 0.07359716
-0.087075315 -0.26455835 0.12011044 0.14356254 -0.21909095 0.112501 0.17841172 0.068074964
0.19465657 0.27604532 -0.11781459 0.021165013 -0.02536222 -0.0015454055 0.19134158 -0.18291338
-0.08149666 -0.21020512 -0.06084736 0.16509181 -0.14437026 -0.06532954 -0.11030081 -0.05852117
0.032975126 -0.27723357 0.1721833 -0.086567044 0.105427824 -0.2597463 -0.07886616 -0.011255535
0.033424314 -0.016761955 -0.029333655 -0.14528486 -0.0003881631 0.119502775 0.047515932 0.014945947
0.33655858 0.17170718 0.04048094 0.08801597 -0.022997648 0.10882272 0.13673738 0.28489393
-0.062043626 -0.05554438 0.15607956 -0.21711151 0.14320867 0.4330068 0.060948793 0.15424657
0.1872644 0.117917515 -0.10668948 -0.07375863 -0.04758245 0.0024560816 -0.12584329 0.04817783
0.04220284 -0.1499257 0.026285231 0.09541735 -0.08224056 -0.19996798 0.11279653 0.09658993
0.07788746 0.022967042 0.013879707 0.05500511 -0.039080605 -0.3287552 -0.006126894 -0.03647126
0.20930192 0.29582286 -0.16046265 0.23319785 0.13984315 -0.10235253 0.11824825 0.110225335
-0.1033929 -0.10405309 0.09052045 -0.26880625 0.19104256 -0.36662492 -0.0010064513 0.036624484
0.19037108 0.12656811 -0.109408 0.10348966 0.14125109 -0.12354365 0.121242866 0.0049256138
0.11785075 -0.062246125 -0.056419652 0.08273731 -0.07562021 0.024897005 0.10355615 -0.041743692
-0.03507075 -0.09977243 0.010212928 0.14190647 -0.03283935 0.109770216 0.15662093 0.002167265
0.13248247 0.07218209 0.08216938 -0.00049503735 0.15799306 0.12334503 -0.26334918 0.19491868
0.13654228 -0.07843717 0.06455301 -0.44474682 0.12904479 -0.064100526 0.11829941 0.028078504
-0.07281005 -0.10299628 0.33252606 -0.027593674 -0.033596627 -0.15224907 0.047240697 0.080418415
-0.011447679 -0.08068889 0.056958355 -0.06544919 0.16362205 0.43390062 -0.024636267 -0.13940598
0.19752808 0.027761497 0.23105411 -0.17538203 -0.011514459 0.09235055 0.06644012 0.12121651
0.0097016515 -0.08284927 -0.0071773124 0.017779855 -0.0088323625 0.13279757 0.13978492 0.058186755
0.13449438 -0.0145342965 -0.062127657 -0.036241896 -0.101415016 -0.07229384 0.018751424 -0.15676141
-0.16959502 0.15122744 -0.1776168 0.02950977 -0.19547622 0.035432193 -0.16977629 -0.19468841
-0.12467939 -0.3243353 -0.18018925 -0.19800329 0.20663555 0.021946162 -0.07740383 0.034515243
0.0076473677 0.15109415 0.04967323 0.12055092 0.021715255 0.18369097 -0.031836443 0.006817804
-0.32292634 -0.095888816 0.059725765 0.14821024 0.0033520637 0.37596136 -0.014979232 -0.1435742

bias_ih_l1 f4 [100]
00000000: faf4 133e f5fe b9bd 6d85 33bd 2cb1 1fbf
00000010: 714d cbbd 0adc d8be 046a e13d 7115 6bb9
00000020: c18e 9b3e 1e6e 1bbe 1d29 92bc 4e82 fb3e
00000030: 892f 303e eb28 d13e 0339 48be 5d61 e7bd
00000040: 1fcd a5be f202 313e 6c55 56be 38a9 3fbd
00000050: 3e90 30bd 1360 21bd 1d7c 7b3d 5dc4 a83e
00000060: e71f 953d 9f7d 183e cc53 403e 103e 403e
00000070: 4e3b 4e3e 4dac 16be 7c30 453e 4a2d 933d
00000080: eac7 1b3e 9ea1 6bbd d834 323e fa1b 0c3f
00000090: 31a3 813c 603a 89be 1ed8 683a 53f8 ba3d
000000a0: 9aea 44be 5c29 323e a6b5 f2be 7a07 5dbe
000000b0: 47ca 4f3e 7315 21be 739c 02be 4acd b53d
000000c0: b0d6 d13d 5767 993d b7cf 09bf 1a23 1cbd
000000d0: 53b6 afbe 1d56 1e3c 7172 083d 9622 483c
000000e0: cf94 403e ef38 37be 6b5e adbd 3636 e2bd
000000f0: 1beb 203c 8970 9f3d 97b7 4abd 1169 55be
00000100: 8ac7 c0bd 2d86 7f3b 3f3c 15bf 7194 9abe
00000110: fbe1 c7be ccc4 05bd c926 9ebd 6ed0 36be
00000120: a7ba e1bd afed 7abc 6b23 d4bd 878d 04be
00000130: 6edf 58be e35d b9bd 98ec 7c3e 4ab5 b43d
00000140: acc8 3ebe 184b 463e e1a2 683d 1310 483f
00000150: 5527 2abd 4471 623f adc1 14be a4e7 153e
00000160: 6db3 5f3d 28eb d0be 8977 37be 1b31 40be
00000170: cebd 8abe 98af 2abe 8b03 3c3d 16e0 5cbe
00000180: 4df0 5a3d 5a6d c2bd a294 1abe 84d4 003d
0.1444892 -0.09081832 -0.043828417 -0.6237972 -0.0992688 -0.42355376 0.11006549 -0.00022419334
0.3038235 -0.15178725 -0.01784187 0.49122852 0.17205633 0.4085153 -0.19552998 -0.112978674
-0.32383057 0.1728628 -0.20931023 -0.04679224 -0.04310631 -0.039398264 0.06139766 0.32962313
0.072814755 0.1489167 0.18781966 0.18773675 0.2013981 -0.14714165 0.19256777 0.071863726
0.1521298 -0.057527177 0.17402971 0.5473019 0.015824886 -0.2680235 0.00088823016 0.09129395
-0.19230118 0.1739859 -0.47404212 -0.21584883 0.20292006 -0.15730838 -0.12754993 0.088770464
0.102460265 0.07490414 -0.5383257 -0.038119413 -0.3431879 0.009664086 0.033312265 0.012215277
0.18806766 -0.17892812 -0.084652744 -0.11045496 0.0098216785 0.07785136 -0.04949149 -0.20840861
-0.09413059 0.0038989887 -0.58295053 -0.30191377 -0.39039597 -0.032658383 -0.077222414 -0.17852947
-0.11021929 -0.015315457 -0.10358318 -0.12944613 -0.21178982 -0.090511106 0.24699628 0.08823641
-0.18631238 0.19364583 0.05679596 0.7814953 -0.041541416 0.8845408 -0.14527006 0.14639145
0.054614473 -0.4080441 -0.17916693 -0.18768732 -0.27097934 -0.16668546 0.045901816 -0.21569857
0.053451825 -0.094935134 -0.15095761 0.03145267

bias_hh_l1 f4 [100]
00000000: e967 6a3d b60b 933c 4619 4e3c c1b1 1bbf
00000010: fde9 32be fb45 d0be 9ab8 bc3d 32e2 ecbb
00000020: 4279 ad3e db65 1fbe 0a47 b53c 90b3 d53e
00000030: d285 693e 4572 013f f2b5 32be 9d1a 00be
00000040: c93a a9be 9e0e b13e f0e6 cbbd dedf f0bc
00000050: d628 8dbd 34a7 373c eed1 b5bd e7c7 a93e
00000060: 5df9 d93d b8c2 a63d ed0a 6e3e e681 e03d
00000070: e40e 8b3d 0d0c a7bd 236c 903e 2fe2 73bc
00000080: 390a 4f3e 9922 95bd 85e9 403e c882 043f
00000090: 7e29 af3d c356 76be 910b 323b 8f1c 353e
000000a0: c7e0 17be 9d71 913c b09f febe d024 09be
000000b0: edbb 163e 4209 3cbe be42 e8bd a672 653d
000000c0: fac4 383e a4ed 383e 4cfe 09bf 002b 33be
000000d0: 380e 8ebe cd68 703d 74b5 15bd b179 dbbd
000000e0: da7a 513e e102 47be 974f 87bd 6fd9 4abe
000000f0: 0155 06bd 829f 5e3d e9e6 673d 07a0 48be
00000100: d6aa f73c dcb2 3bbe a438 cdbe 30ef a6be
00000110: 02b3 eebe d088 d93d 1a3a 47ba f47a 55be
00000120: d658 abbd fe26 d8bd 2e1d ed3c 8a97 06be
00000130: d70d 5fbe fde1 353c b92e 863e 64c1 253d
00000140: a101 82be b3db 8c3e 7482 8c3d d569 353f
00000150: a3f5 bcbd cb44 653f ab03 70be 2c88 3b3e
00000160: 105c 59bd c7c2 d1be dc55 59be 73d3 4fbe
00000170: 6954 81be dff7 a1be cb69 e0bd f9d6 34be
00000180: 3f8c 563d 830a 3ebe 833e 57be 437b 3d3e
0.057228003 0.01794992 0.012579268 -0.60818106 -0.17472072 -0.4067839 0.092148975 -0.007229113
0.33881575 -0.15566199 0.0221286 0.41738558 0.22804955 0.50564986 -0.17452219 -0.12510152
-0.33052662 0.34581465 -0.09956157 -0.029403623 -0.068925545 0.011209298 -0.088779315 0.33160326
0.106432654 0.081426084 0.23246355 0.10962276 0.067899495 -0.081565954 0.28207502 -0.014885469
0.20218743 -0.072819896 0.1883908 0.51762056 0.08552836 -0.24056534 0.0027167539 0.17686675
-0.1483184 0.01775437 -0.49731207 -0.13392949 0.14720125 -0.18362907 -0.11340855 0.05601754
0.1804389 0.18059403 -0.5390365 -0.17496872 -0.27745223 0.058693696 -0.03655 -0.1071657
0.2045702 -0.19434692 -0.066069774 -0.19809507 -0.03279591 0.054351337 0.056616697 -0.19592296
0.030232828 -0.18329948 -0.40082276 -0.3260436 -0.46620947 0.10621798 -0.00075999054 -0.20847684
-0.083665535 -0.10554312 0.028944578 -0.13143745 -0.21782623 0.011101243 0.26207522 0.040467635
-0.25391868 0.27511367 0.068608195 0.7086461 -0.09226539 0.89558095 -0.23438899 0.18313664
-0.053066313 -0.40968916 -0.21224159 -0.20295505 -0.25259712 -0.31634423 -0.109576784 -0.1766013
0.052379843 -0.18558697 -0.2101994 0.18504052
